models/active_wiretap_model.pth (torch, 603452 bytes, 32 tensors)

encoder.0.weight f4 [256, 114]
00000000: 316a 1b3e d51a ff3e c81a 923e 8bb6 8c3d
00000010: 260e ee3e c430 b53e 308d f5bc 73fa 073f
00000020: 6c99 c73e 9ca9 bcbe 21e5 213f 0c64 993e
00000030: 5f14 18be f6b2 133f f47e 893e 04d8 303e
00000040: a35e d03e 08e2 ae3e 206a 343d ece2 033f
00000050: f993 ae3e 9e9c aebd d595 193f 12c3 9e3e
00000060: 2e6a a6be 9781 ee3e cf4c 223e 87e5 0fbd
00000070: 2f47 1d3f 320d 473e 8a97 f13c 2edf 833e
00000080: 71c8 3e3e 712b b1bd f997 293d 7aab 43be
00000090: cd21 d13d f598 51bb 22d8 373e 303d 8f3d
000000a0: 0b84 7dbd 153b 523d 92a1 4fbd b51d cd3d
000000b0: af1a 34bd eb51 5f3e 8125 cd3d fff2 663d
000000c0: 753d 50bd a031 893d eacc 9c3e 5f77 d8be
000000d0: 1636 443e 16cf 1e3e c32d 17bd 5726 05be
000000e0: a922 173e 62eb 743e 8331 23be 6044 a33e
000000f0: 52db 7d3d 2bfd 1dbd 7522 17be 5d2c 05be
00000100: 43e2 64bd 319a c8bc 8ece 253c 8bfb 953d
00000110: fd84 923c fbd1 833c 0cb9 2e3e 1b8c 21be
00000120: 9dbf b43d c8d9 4f3e c285 efbe e505 b53d
00000130: af11 4e3e 7b9b 20be 9ee7 443d 4dd9 303e
00000140: ed87 4cbe 15bb 33be 8b54 ffbd af4f 37be
00000150: b4ed 31bd d9c6 50be eb1b 01be 38b5 0c3d
00000160: 1aa3 1dbe 5e56 c9bd a380 cfbc fe6e d93c
00000170: c160 b03d 51f7 113d 46f4 6a3e 6718 2f3c
00000180: 6ef4 c3bc d5b2 80bd eef8 3bbd 2736 46bc
00000190: 3437 43bd e582 543e 6e3d 20bc d772 e43b
000001a0: e24b 19be 316c 913c e146 0bbe 5fb9 50be
000001b0: 84dd 8e3e e578 bdbd 8c1f 1fbe cf01 debd
000001c0: f6a2 fbbd 8c3b 483e 67b4 fd3c 9a6c 253b
000001d0: 96e9 fe3c a2cf 31bc 9ca9 a1bd a011 283e
000001e0: a192 973e cca5 12bb 402b b7bd 4aab e43e
000001f0: 6ef3 aebc a5ca bcbc 95aa 11be 0e5f 2ebe
00000200: 1e3a 963c bf1c 773d b454 2bbd 05ea 0a3e
00000210: 7db1 9cbd f10f 95bd d4ac f33d 48d5 813e
00000220: ac8d 86bd 8c51 bebc e9ee ea3e fa77 33be
00000230: 57af 523c 7827 20bd 3972 bbbd 62c0 b83d
00000240: aaec a73d 7960 13bd 2340 423c 5956 f4bd
00000250: 6739 d1bd 2d04 21be 7ee2 0f3e 644c ccbd
00000260: 0701 55bc b9ba 7ebd b72c 3cbe de6a 3b3e
00000270: 9f3f 4bbd 8278 7b3d c7e0 883e 0838 533d
00000280: aeb1 69be 05ce 37be a74e f33c cf62 743e
00000290: 479b 163e 8fad f23e 560b 0dbe 743c c7bd
000002a0: 789d 983e 8106 533c c605 853f cf77 ef3e
000002b0: 6189 b9bd b395 b6bd b1db fcbc 096c 023e
000002c0: 67c4 9e3e 0114 853e ca6e 023f a52c 2e3d
000002d0: cdf7 9dbd 19e1 bcb9 46da da3c e114 3dbd
000002e0: 4217 89bd 57e3 923e 2376 16be faff a9bd
000002f0: 4aa2 d83e d6be 78be 37e5 8bbe b0be a2bd
00000300: ed5f 56be 2c44 acbe 8323 163e 727f f83c
00000310: 328f 073d be7a 9d3c 59ab e93c 4afb 4c3e
00000320: fc3f 633e 904e 49be db23 beb8 8b24 6d3e
00000330: 8a5e b53d 7c74 863e e6a3 1ebe 59e2 3dbe
00000340: 3a0a 54be c66b 983d db67 3fbd ca28 913d
00000350: 50bd 96bd 118f d7bd a91b 0bbe ad74 7c3e
00000360: b85d de3d 61dd f73d c032 50bc 5671 02bc
00000370: 8d47 46be 45b7 24be 4416 023f bfca b73d
00000380: c715 0ebd d5bf bc3c d849 8a3d 1da2 92bd
00000390: 9df0 88be d494 cc3d 786a 823d 2d67 15be
000003a0: 36b2 d63a e4bd aabc d164 503d 9610 a73c
000003b0: 650e 093d 8adf 8f3e f3ed 02bd cd73 db3d
000003c0: 350b db3d 533c d9bd 8ce9 493e 5ea9 89be
000003d0: 9156 563b 7731 02bc 3685 98bd c1cd 1d3d
000003e0: 0974 0c3d 7226 7fbd 5ec5 9bbb bd92 9a3d
000003f0: 5b14 8e3e c1a3 1bbd 8d18 973d ece0 483e
0.15177228 0.4982516 0.28536057 0.06870755 0.4649517 0.35388768 -0.02997455 0.5311653
0.3898424 -0.36848152 0.6324025 0.29959142 -0.14851521 0.5769495 0.2685467 0.17269903
0.40697202 0.34156823 0.04404652 0.5151813 0.3409727 -0.08525966 0.5999425 0.31008202
-0.32502884 0.46583244 0.15849613 -0.035131004 0.6143674 0.19438627 0.029491205 0.2575621
0.1863115 -0.08650864 0.041404698 -0.19108382 0.10211525 -0.0031982039 0.17953542 0.069940925
-0.061893504 0.051325876 -0.050691195 0.10015432 -0.04397076 0.21808593 0.10016919 0.056384083
-0.05083986 0.06698918 0.30625087 -0.42278573 0.19161257 0.15508685 -0.036908876 -0.13002907
0.14759316 0.23917916 -0.15936856 0.31888103 0.06197674 -0.038571518 -0.14759238 -0.13005204
-0.055879842 -0.024487587 0.010120047 0.07323369 0.01788568 0.016091337 0.17062777 -0.15776102
0.0882561 0.2029792 -0.46781737 0.08839015 0.20123933 -0.15684311 0.04807245 0.17270394
-0.19973727 -0.17551835 -0.12467297 -0.1790149 -0.043439582 -0.20388354 -0.12608306 0.03435251
-0.1539425 -0.09830926 -0.025329893 0.026542183 0.08612204 0.03563625 0.22944745 0.01068697
-0.023920264 -0.062841095 -0.045891695 -0.012097872 -0.047660068 0.20753057 -0.009780271 0.006971698
-0.14970353 0.017751785 -0.13601257 -0.20383213 0.27903378 -0.092515744 -0.15539378 -0.10840189
-0.12286942 0.19553965 0.030969812 0.0025241734 0.031117242 -0.010852726 -0.078936785 0.16412973
0.29604056 -0.0022376655 -0.08943796 0.44661933 -0.02135631 -0.023045847 -0.14225228 -0.17028448
0.01833826 0.06033015 -0.041828826 0.13565834 -0.07651041 -0.07278431 0.11898199 0.25358033
-0.065699905 -0.023232244 0.458854 -0.17526236 0.012859187 -0.03910014 -0.091526456 0.09021069
0.08199437 -0.035980675 0.011856112 -0.11930532 -0.10216027 -0.15724249 0.14051244 -0.09975508
-0.013000733 -0.06218979 -0.18376432 0.18302485 -0.04962122 0.061394222 0.26733992 0.051567107
-0.22821686 -0.17949684 0.02970059 0.23865817 0.14707671 0.4739804 -0.13773856 -0.097283274
0.2980764 0.012879969 1.0392387 0.46771094 -0.09059406 -0.089152716 -0.030866476 0.12736525
0.31009218 0.25991824 0.509503 0.042523045 -0.0771328 -0.00036025865 0.026715409 -0.04616249
-0.06693889 0.28689072 -0.14693503 -0.08300777 0.42311317 -0.24291548 -0.27323315 -0.07946527
-0.2093503 -0.3364576 0.14661984 0.030334208 0.033095546 0.019223567 0.028524088 0.20017734
0.22192377 -0.19658875 -9.0665846e-05 0.23158471 0.088559225 0.26260746 -0.1549221 -0.18543376
-0.20707026 0.07442431 -0.046729904 0.07087858 -0.07360327 -0.105253346 -0.1358477 0.24653883
0.10857719 0.121027716 -0.012707412 -0.007961592 -0.19363232 -0.16085537 0.50815225 0.089742176
-0.034688737 0.023040691 0.06752366 -0.07159827 -0.26746073 0.09989324 0.063679636 -0.1459014
0.0016380015 -0.0208425 0.050877396 0.020393651 0.033460993 0.28100234 -0.031965207 0.107154466
0.10695497 -0.10607209 0.19717997 -0.2688703 0.0032705406 -0.007946364 -0.07447283 0.0385263
0.034290347 -0.062292524 -0.0047537526 0.07547519 0.27749905 -0.037997965 0.073777296 0.19617051

encoder.0.bias f4 [256]
00000000: fcf7 86bd b077 593c 0903 90bb 6abb 99bc
00000010: 1174 7e3d 58e3 1ebd 03de dfbc 296e 18bd
00000020: e1c4 653d 8b3f 99bd 3b73 493d 325f 373d
00000030: fce7 b5bd 1614 833d da4b 07bd 5624 993c
00000040: a10e a3bd 67b5 bd3d 3412 13bd 645f 5bbb
00000050: ccc8 953d b8c5 b33c a5e9 7e3d ad81 f5bc
00000060: 8a59 503d a782 063d 70cf bbba e246 b6bd
00000070: 6eed 77bd f014 b53d 9521 89bd ead1 a4bd
00000080: 8afa aa3d 0163 b73d 728a 58bd 676c 8e3b
00000090: 387f b2bc a02b a53d a770 4f3d 44e9 883c
000000a0: 2a62 b13d ab51 8abd 1b25 87bd 6479 a63d
000000b0: 5b68 b2bd 2b15 e9bb 3d49 903d f4f1 98bd
000000c0: 3be8 503d 5f9a dfbb c9ce 3c3d 1b66 03bc
000000d0: 4296 003c c3c1 e0bc e1de a93d 6dc2 9dbd
000000e0: 0c43 7cbb 0b30 233d 0a33 903d bd66 16bd
000000f0: 6849 aabd 47b3 b43d 5dae f03b 3153 0b3c
00000100: 4193 953d 70f9 95bd e188 303d e0bd 06bc
00000110: 5693 0abc e43a 1dbb c09c 403d 8303 b5bd
00000120: bb60 4fbd 9c05 80bd 0084 b43d 04d9 2bbd
00000130: 4ff8 b83d 2e3f 203d 8da7 96bd 356e 98bd
00000140: 8ce6 84bd a255 623d 56be e1bc f0df e0ba
00000150: 5699 9b3d 6148 87bd 2f94 9d3a 8e08 203d
00000160: 2a65 51bd 38e5 a23b 2834 393c 4cb0 38bd
00000170: 7628 b9bc 9262 5abc 0057 6dbc ce3b d53c
00000180: e896 acbc 6853 5dbd 0d52 8ebd abac a53c
00000190: 3fd1 083d 831c 94bc a959 19bd d875 b1bd
000001a0: 8fba 8bbd afe3 27bd c156 49bd 6a85 adbd
000001b0: 19db 46bc 4f8b babd d2c7 1dbd 4a9f 6b3d
000001c0: dc65 51bd 5413 a83d 852a 60bd 8158 50bd
000001d0: dbbc 92bd 90f4 e53c f601 94bd 2964 ee3c
000001e0: a743 dc3c 2b7b 95bd 8b13 0d3c feea 9d3d
000001f0: 1b5f 30bc 4c85 2dbd 3869 0b3d 6335 de3c
00000200: ed0f 4dbd 48e1 983d ca88 8dbd ce39 ad3c
00000210: 56ea 23bd d851 a33d 4f08 a8bc 8a2a f83c
00000220: 9080 8cbd 5977 26bd 9b9f c63c cfe5 67bd
00000230: 9eb9 1b3b 2368 b73c 6cd6 aa3d edb2 8b3d
00000240: 0e01 9e3d 9775 8fbd 521a 6f3d 157c 8abc
00000250: a35e c8bc 3e04 733d 7d09 2abd 889d 433c
00000260: 75e2 053c eb54 893d 33eb e4bb aff4 22bd
00000270: 7f05 713d 5927 88bc 8c64 03bd ff56 adbd
00000280: a304 3e3d 2575 4abd 6fde b03d 5720 813c
00000290: aee0 94bb f7ca 95bd 22e0 1dbd 9a48 7b3d
000002a0: 7dc0 2d3d bf43 a13d 810f 46bb 246c 2dbd
000002b0: b595 313d e29a 653d 71f6 7d3d c603 b93d
000002c0: cbf2 21ba 4e8d a83d 7113 b33c 2af6 a73c
000002d0: 66f2 923d 0f57 c3bc 7007 4fbd cb34 3bbd
000002e0: 8fb4 86bd 11de 9cbd 5b92 67bc e584 aa3d
000002f0: 21a5 96bd df23 f33c 79e0 a23c 376d b43d
00000300: 33f8 483d c82f a03c 2b68 b7bd bde8 a03d
00000310: f53e 42bd b0da 70bc fc4c 7bbd 9324 893d
00000320: 4b02 58bd 71ce 3b3b 2699 b93c 2dc3 b33d
00000330: bb1b 1a3d 6fb6 9fbd d166 40bd ada3 353d
00000340: f305 7b3d 7348 ba3d 4280 26bd b01e a23c
00000350: 28a9 dfbb 9a75 843c 1cb7 853d 2fc2 bfbc
00000360: 8aad a6bd 9b1e aebc 5aa4 a2bd 63af b53d
00000370: cdd4 38bd 3e70 703c 62cf 923d ffe4 113c
00000380: 967e 3cbc ee5d 67bb 7797 e9bc d875 5dbd
00000390: b1d6 6fbd 57a7 7e3c cc7e 143c c2ef 9fbd
000003a0: f223 2b3d 1997 80bd c2a3 973d abb3 9c3d
000003b0: 49f9 b2bd 093f a83d 463a c9bb 7d3c 93bd
000003c0: da50 7e3d 2216 e03c 49cc b03d f66d 62bd
000003d0: 0979 04bd 6182 71bc bd2b a8bd 84bd 1e3d
000003e0: 787a dfbc 2c5a 21bc fba2 89bc 1bc9 42bd
000003f0: d77f bbbd 5590 113d d7aa 49bb 7b4f c23c
-0.06590268 0.013273165 -0.004394893 -0.018766124 0.06212241 -0.03879103 -0.027327543 -0.037214432
0.05609596 -0.07482823 0.049182158 0.04476852 -0.08882138 0.064003155 -0.033031322 0.018694084
-0.079617746 0.092631154 -0.03590603 -0.0033473605 0.073136896 0.021944866 0.06223454 -0.02996906
0.05086664 0.032839444 -0.0014328789 -0.089002386 -0.060529165 0.08841884 -0.066958584 -0.080478504
0.08348568 0.0895443 -0.052866407 0.0043464187 -0.021789178 0.080649614 0.050644543 0.016712792
0.086613014 -0.06753858 -0.06598874 0.08128622 -0.087113105 -0.007113119 0.07045219 -0.07468024
0.051002722 -0.0068238224 0.046095643 -0.008019949 0.007848324 -0.027436143 0.08294464 -0.077030994
-0.0038492111 0.03984074 0.07040985 -0.036719073 -0.083147824 0.08823257 0.0073450045 0.008503721
0.07303477 -0.07322967 0.043099288 -0.008223981 -0.008457979 -0.00239914 0.04702449 -0.088385604
-0.05062936 -0.0625107 0.088142395 -0.04195501 0.09031736 0.039122753 -0.073561765 -0.07442895
-0.06489286 0.055257447 -0.02755658 -0.0017156582 0.07597606 -0.06605602 0.0012022312 0.03907066
-0.05112187 0.0049711727 0.011303939 -0.045090005 -0.022602301 -0.013329165 -0.014486074 0.026029494
-0.021068051 -0.05403462 -0.06949244 0.020223936 0.033402678 -0.018080002 -0.037439022 -0.08665055
-0.068226926 -0.04098862 -0.049155 -0.08472712 -0.012137198 -0.09108602 -0.03852064 0.057524957
-0.05112253 0.082068115 -0.05472805 -0.050865654 -0.071649276 0.028070718 -0.072269365 0.029100494
0.026887728 -0.07298883 0.008610616 0.07710837 -0.010764862 -0.04236345 0.03403589 0.027125066
-0.050064016 0.07464844 -0.06910856 0.021145727 -0.040018402 0.07974595 -0.020511774 0.030293722
-0.06860459 -0.040641163 0.024246028 -0.056615647 0.002376176 0.022388523 0.08341679 0.06821237
0.07715045 -0.0700485 0.05837471 -0.01690487 -0.024459189 0.059330218 -0.041512955 0.011939414
0.008171667 0.0670565 -0.0069860457 -0.03978413 0.058843132 -0.016620325 -0.03207831 -0.08463859
0.04639114 -0.049428124 0.08636176 0.015762491 -0.0045433855 -0.07314103 -0.038543828 0.061348535
0.0424199 0.0787425 -0.0030221643 -0.04233946 0.043355662 0.05605591 0.062002603 0.09033923
-0.00061778416 0.08230077 0.021859856 0.020503122 0.0717514 -0.023845224 -0.050544202 -0.045704644
-0.065774076 -0.07659543 -0.014134015 0.08326129 -0.073557146 0.02968019 0.019882428 0.088098936
0.049064826 0.019554034 -0.08955415 0.07856891 -0.04742332 -0.014700577 -0.061352715 0.06696429
-0.05273656 0.0028656984 0.022656035 0.08777461 0.037624102 -0.07798468 -0.046973053 0.044345547
0.06128497 0.0909585 -0.04064966 0.019790024 -0.006825585 0.016169358 0.06529066 -0.023408024
-0.08138569 -0.021254828 -0.07941504 0.08871343 -0.045124818 0.014675198 0.071684614 0.008904695
-0.01150479 -0.003530379 -0.028514607 -0.054067463 -0.058554355 0.015542827 0.009063434 -0.07809402
0.041782327 -0.062788196 0.07404281 0.076514564 -0.087389536 0.08215148 -0.00614098 -0.071892716
0.062088825 0.027354304 0.08632714 -0.05528065 -0.03234199 -0.014740557 -0.082114674 0.038754955
-0.027280077 -0.009848159 -0.016801348 -0.04755507 -0.09155243 0.035538036 -0.0030771994 0.02371954

encoder.1.weight f4 [256]
00000000: 27d5 4d3f 7524 8c3f 767b 6f3f f983 a03f
00000010: 3274 6d3f f70c 283f 68a8 6d3f e102 6a3f
00000020: 545f 5e3f 4ca7 673f 70d6 6f3f 93e2 9c3f
00000030: b355 5b3f 7ce0 9d3f 9443 8f3f 86fd 753f
00000040: da8f 543f 6930 6e3f 0723 613f ad77 593f
00000050: 0bb4 413f c9b1 683f f7e1 613f cc7a 863f
00000060: dbe5 723f 12a1 713f 3703 853f 8e70 4d3f
00000070: e928 763f de48 623f 6022 823f 9c01 7e3f
00000080: d1d5 523f 0c63 603f ebe4 893f fa75 913f
00000090: 0309 983f d3e1 973f 5fd9 743f 02d7 8f3f
000000a0: a9d5 503f 21bf 6d3f c7b3 5b3f a7f8 463f
000000b0: 8ba8 913f 21bb 983f 916a a33f e873 6e3f
000000c0: 2a77 5e3f e403 813f 5d18 a03f d1fc 5b3f
000000d0: 54a5 a43f 87b7 8d3f dc6c 9a3f 64ed 753f
000000e0: 29a4 683f ceb2 963f f8ac 793f ebb4 703f
000000f0: 7153 5f3f 8dd8 753f b6bd 4b3f 3630 573f
00000100: a8b9 483f c367 823f 58d9 973f 3e03 913f
00000110: f556 4e3f 4779 853f 6bfb 693f c1a5 623f
00000120: d20c 823f 6127 7b3f e095 513f 4209 a03f
00000130: 7872 763f 4fd6 683f 0333 803f aa30 833f
00000140: acca 663f acc6 5d3f 1b75 373f b88b 573f
00000150: 62f2 6f3f 15f1 893f 69a1 873f 3931 6f3f
00000160: 6753 983f e171 803f 50a5 893f 5719 893f
00000170: 4322 8c3f c400 843f c1d1 533f 3f1a 213f
00000180: e9c9 603f d23c 483f 4381 923f 8e41 8d3f
00000190: 043c 8f3f 243b 4e3f fde8 833f 417c 903f
000001a0: e5a5 8b3f 341d 7d3f 4d30 743f a838 563f
000001b0: f047 843f 7fb4 4e3f 37a0 523f 651a 813f
000001c0: 9422 903f 6d9d a83f 5190 933f 3dc8 503f
000001d0: fb9a 663f 688a 813f f238 713f 0c6c 843f
000001e0: c052 8b3f 048d 8d3f 1792 7c3f bcf3 6c3f
000001f0: 76a1 5c3f 0447 6e3f de59 6f3f 8e8d 793f
00000200: 3e80 3a3f dcb0 643f bde2 713f 9a38 a83f
00000210: 9e6c 9a3f ed74 903f c4fb 873f cdc5 513f
00000220: 9c7f 733f 6777 663f 014d 6d3f 8daf 763f
00000230: b8f8 873f 3d78 7e3f 28a4 703f f4a4 6e3f
00000240: fe16 8f3f 584e 7e3f 5869 823f 7a62 563f
00000250: 1dc4 a43f 1c69 883f 9066 3b3f db06 643f
00000260: 97b8 933f 1a38 3b3f 538e 923f 0e67 8e3f
00000270: c119 9a3f d476 7a3f 0ebb 623f 9cda 833f
00000280: c2fe 473f 0988 753f 3845 963f e75f 623f
00000290: 65cd 4a3f 94ac 493f 3639 513f e334 853f
000002a0: e993 363f 4ca1 703f 0f02 413f c6e4 9f3f
000002b0: 03ce 813f a73d 8c3f 260e 593f 57ae 943f
000002c0: 6950 6d3f 6ee7 5c3f 3943 633f 7331 673f
000002d0: 4dcc 913f bf9e 8d3f 39c4 343f 8b0c 6e3f
000002e0: 93bc 793f 1fba 613f 79d2 8f3f 5c05 853f
000002f0: ee18 703f a109 953f e550 8a3f 9e15 923f
00000300: b659 2b3f e17f 743f c6aa a43f 6ace 413f
00000310: 307a 663f 70f1 9a3f 4d99 423f af9a 583f
00000320: 7a56 7b3f 7926 7a3f 679e 473f b985 453f
00000330: 2a73 713f caf1 753f e903 7c3f e36c 8f3f
00000340: e85f 6b3f 1260 8d3f 1ac6 9b3f 9950 633f
00000350: cdca 643f c1b1 863f 6dd9 983f 92a8 543f
00000360: e517 7d3f ea3a 8e3f 0c98 553f da71 623f
00000370: efed 5a3f 7347 9a3f 051d 5b3f b9ba 7d3f
00000380: 561f 663f 33ad 743f 2a12 463f 1520 683f
00000390: 7ff9 663f d2c9 5b3f 1cde 6c3f 8405 633f
000003a0: a667 823f 24c9 793f 5b87 3d3f 3636 763f
000003b0: ac66 4d3f ebdb 603f 48fb 763f 5a6a 6c3f
000003c0: 4c74 883f 6e83 8a3f 9d5b 343f dfdf 4d3f
000003d0: 5e42 793f 3919 3c3f 18ff 5a3f 0718 793f
000003e0: 728d 603f 44e8 633f 716e 843f be6b 933f
000003f0: 327f 4d3f f706 8c3f 39ff 503f 3898 933f
0.8040337 1.0948626 0.9354776 1.2540275 0.92755425 0.6564478 0.9283509 0.9141064
0.8686421 0.9048965 0.9368658 1.2256645 0.8567764 1.2334132 1.1192498 0.9608997
0.83032 0.9304262 0.8794407 0.84948236 0.7566535 0.9089628 0.8823542 1.0506225
0.9488198 0.943864 1.0391606 0.8024987 0.96156174 0.88392437 1.016674 0.99221206
0.8235751 0.87651134 1.0772985 1.1364129 1.187775 1.1865791 0.9564418 1.123749
0.8157602 0.92869765 0.85821193 0.77723163 1.137956 1.1932107 1.2766896 0.9314561
0.8690058 1.0079312 1.2507435 0.8593264 1.2862954 1.1071633 1.2064471 0.96065354
0.9087549 1.1773317 0.97529554 0.9402606 0.87236696 0.96033555 0.7958635 0.8405794
0.7840829 1.0187916 1.1863203 1.1329114 0.80601436 1.0427636 0.9139926 0.8853417
1.0160162 0.9810696 0.81869316 1.2502825 0.96268415 0.9095201 1.0015568 1.0249226
0.90153 0.86631274 0.71663064 0.8419757 0.9372922 1.0776697 1.0596133 0.9343448
1.1900452 1.0034753 1.0753574 1.0710858 1.0947956 1.0312734 0.82741934 0.62930673
0.8780809 0.78217804 1.1445698 1.1035631 1.119019 0.8055899 1.0305477 1.1287919
1.0910002 0.98872685 0.953862 0.836802 1.0334454 0.80744165 0.8227572 1.008618
1.1260552 1.3173043 1.1528417 0.8155554 0.9008023 1.0120363 0.94227517 1.0345473
1.0884628 1.105866 0.98660415 0.9255941 0.8618387 0.9307711 0.934965 0.9748162
0.7285193 0.89332366 0.944866 1.3142273 1.2064397 1.1285683 1.0623708 0.81942445
0.9511659 0.90025944 0.92695624 0.9636162 1.0622778 0.9940222 0.9400048 0.9322045
1.1178892 0.99338293 1.0188398 0.83744013 1.2872349 1.0657077 0.7320337 0.8907296
1.1540707 0.7313248 1.1449684 1.11252 1.203911 0.9783757 0.8856667 1.0301089
0.78123105 0.959107 1.1739874 0.88427585 0.7921966 0.7877896 0.8172792 1.0406765
0.71319443 0.9399612 0.75393766 1.2491691 1.0140995 1.0956315 0.84787214 1.1615704
0.9270082 0.86290634 0.8877445 0.9030983 1.1390473 1.106407 0.7061191 0.9298789
0.97553366 0.88174623 1.1236106 1.039226 0.9378804 1.1643564 1.0805937 1.1412847
0.66933763 0.9550763 1.2864616 0.7570559 0.90030193 1.2104931 0.7601517 0.8461103
0.9817883 0.97714955 0.7797608 0.7715717 0.9431635 0.96072066 0.98443466 1.1205105
0.91943216 1.1044943 1.2169831 0.8879486 0.8937195 1.0522996 1.1941353 0.8306972
0.98864585 1.1111729 0.8343513 0.88454974 0.8551931 1.2053055 0.85591155 0.9911304
0.89891565 0.9557678 0.77371466 0.90673953 0.9022445 0.8585483 0.9252641 0.8868029
1.0187881 0.9757254 0.7403466 0.9617647 0.8023479 0.8783557 0.96477175 0.9234978
1.0660491 1.0821359 0.7045229 0.80419725 0.97366893 0.73475987 0.8554549 0.9730229
0.8771583 0.89026284 1.0346204 1.1517255 0.8027221 1.0939626 0.8163944 1.1530828

encoder.1.bias f4 [256]
00000000: dbcf 6cbf cb22 eabe ab6d 01bf 7aef 3abe
00000010: ad8d 78be 0d0b 76bf f678 81bf 7491 dbbe
00000020: 6194 dbbe 85c7 80be 5d94 02bf 2912 d9be
00000030: 6390 6dbd ef0f 92be cc9b 8bbe 076f 51be
00000040: af40 80bf 001a 81be e4a2 30be 4455 a2bf
00000050: c0a8 1abf df25 e53c 9cc9 3fbf 9119 9dbe
00000060: f956 f5be 3026 c7be 883f 81bf 1b63 64be
00000070: 5e37 8abf 26b0 05bf 32a8 19bf 561b 4dbf
00000080: 8fd9 8cbf 3394 11bf d494 1fbf e2ce babe
00000090: aabd 97bf f7ab 24bf e7ae adbe 5164 4cbe
000000a0: ada4 093e ea67 00bf 7393 b9be a998 cabe
000000b0: 9586 ccbf 3495 e6be d414 c0be 694a d1be
000000c0: fd89 b9be bbd3 71bf fade f0be 6854 6fbf
000000d0: 81d5 75be 6316 a3be 6b63 0dbf 27f3 b8be
000000e0: eb08 3bbf 129e 89be ee57 20bf 2304 21bf
000000f0: cef3 f6be f82d 25bf 0aea cfbe 1726 0dbf
00000100: 15d1 88be 6317 d3be 8fd1 52be f2ba bbbd
00000110: b3a5 85bf 37af 1fbf d1b0 13bf 6e9f ecbe
00000120: 86f3 73be 44d6 88bf 91a6 c6be 39d8 1bbf
00000130: 37c7 5dbe 2a81 a0bf 148f 99be b003 53be
00000140: 9e01 41bf 1d59 4fbf af2c 97be b7cd 87be
00000150: 321f e0bd 43c6 e2be 3309 78be 81d6 5bbf
00000160: 6ec5 28bf b593 2ebf 1d3d f2bd 6f4b 93be
00000170: 0d69 1dbf d1ca 07bf 63e2 3abf c6b7 48bf
00000180: c89d aabc cb65 0fbf f08e 5cbe fc4e cfbe
00000190: 5a52 23be 110f 3fbf b085 07bf 0f15 cabd
000001a0: fdda 6bbf 5a05 1dbf b2d8 e8be 71e2 65bf
000001b0: bf78 dfbe c5e0 49bf a625 8abf fe6a 7f3c
000001c0: 2e20 b4be 256f c9be 998a 8ebe 8288 3fbf
000001d0: fff4 a1be ee89 b0be 0878 77be 7617 11bf
000001e0: ea1a 85be 72f1 10bf c094 55be e60e c1be
000001f0: b63a 65bf 589f 00be 2633 04bf 03e1 07bf
00000200: e406 36bf e3e0 55bf 151b 3dbf fdb8 bebe
00000210: fc20 d8be b818 f9be bd1a a7be 02f8 56bf
00000220: 13aa d4be f927 74bf f4ec 8cbe 546e 1ebf
00000230: a847 1bbf 7094 a8be b7d8 b9be 74db 2abf
00000240: 2d4d 00bf 67b0 2cbd 6d83 63bf 0ab9 2cbf
00000250: 1b16 70be 22ae b1be dd24 7fbf c4f3 bebe
00000260: 44a4 a7be 098d 5abe 733b 51be 6262 18bf
00000270: 6d6b d6be 163a 29bf c93f 9ebe 2f2a ebbe
00000280: 1650 edbe fbff 96be 4676 99be 0bac bf3d
00000290: 45f5 77bf c1de 03bf 122a 3abf 9108 21bf
000002a0: 7fcf 64bf 3d2f 7bbf 7a24 70bf fded 73be
000002b0: 7a56 0ebf 26d4 e8be 6c83 d8be aabe a6bd
000002c0: 720b 11bf 165f 06bf b40a 72be 2cc7 dbbe
000002d0: e72f 7dbe 36c4 56be f03f 0ebf c88b 80bf
000002e0: 81f5 e0be 9b93 4ebf 4c3e 67be 93f1 8abf
000002f0: 723d 27be 914d 94be 0f16 92be 47df 04bf
00000300: 9b7c fcbe c69e bcbe 01b1 f7be 68b4 85bf
00000310: f413 f7bd 5486 bbbe b501 78bf 8ea7 1ebf
00000320: 2a47 8dbe 490a cebe 0d68 77bf 85f2 78bf
00000330: 2f0a 2dbf 3558 62be 6f9a fcbe 5d74 c6be
00000340: 30db 43bf f850 3bbf 583b 89be 4f81 10bf
00000350: decd 48bf 993d 4ebe d919 9ebe 329c 25bc
00000360: 9f5d d1be 5ea6 05bf 91b0 41bf 95cf 04bf
00000370: a13d 2fbf 1c6d f3be 290f a4be ac4b a9be
00000380: c665 15bf eccb 21bf ed9c 4cbf bc05 60bf
00000390: 7e25 99be 261d c53d ef88 6abf a462 23bd
000003a0: d657 0cbe c64c 24bf 1c95 61bf fd3a 33be
000003b0: a30a 87bf a085 46be 22ac acbe 997a e5be
000003c0: d344 c5bd 3a4c 2abc 9032 81bf 1e45 5fbf
000003d0: cfeb 36bf a4b1 20bf f33b 38bf 8b6b 47bf
000003e0: df9b 153e a0e5 8cbe 388d 4b3e 3ef5 dabe
000003f0: bf35 2bbf 4798 b3bf ddba 20bc ea95 95be
-0.9250466 -0.4572967 -0.50557965 -0.18255416 -0.24272795 -0.9611061 -1.0115039 -0.4288441
-0.42886642 -0.2515222 -0.51007634 -0.42396668 -0.057999026 -0.2852778 -0.272673 -0.2045251
-1.001974 -0.2521515 -0.17249638 -1.2682271 -0.6041374 0.02797216 -0.74917006 -0.30683568
-0.47917917 -0.38896322 -1.0097513 -0.2230343 -1.0798147 -0.52221906 -0.6002227 -0.80119836
-1.1003894 -0.5686676 -0.6233647 -0.36485964 -1.1854756 -0.643249 -0.33922502 -0.19960143
0.13441725 -0.5015856 -0.36245307 -0.39569595 -1.5978571 -0.45035708 -0.3751589 -0.40877083
-0.3623809 -0.944637 -0.47045118 -0.9348817 -0.24007227 -0.31853017 -0.55229825 -0.3612301
-0.7306048 -0.2687841 -0.6263417 -0.6289694 -0.48232883 -0.6452327 -0.40608245 -0.55136245
-0.26722017 -0.4122878 -0.20587753 -0.09166516 -1.0441192 -0.6237673 -0.57691675 -0.46215385
-0.23823366 -1.0690389 -0.38798955 -0.60876805 -0.21658026 -1.2539418 -0.29991972 -0.20606875
-0.7539309 -0.8099535 -0.29526278 -0.26524135 -0.1094345 -0.44291887 -0.24222259 -0.8587418
-0.65926254 -0.68194133 -0.11828063 -0.2876849 -0.6148842 -0.5304385 -0.7300169 -0.78405416
-0.02082719 -0.560147 -0.21538901 -0.40489948 -0.15949383 -0.74632365 -0.52938366 -0.09867298
-0.92131025 -0.6133629 -0.45477825 -0.8979865 -0.4364681 -0.78858596 -1.0792739 0.015589474
-0.351808 -0.3934261 -0.27840117 -0.7481767 -0.3163223 -0.34480232 -0.24166882 -0.56676424
-0.25997096 -0.56618416 -0.20857525 -0.3770668 -0.8954271 -0.12560785 -0.51640546 -0.53077716
-0.71104264 -0.83546275 -0.7386945 -0.3725051 -0.42212665 -0.4865167 -0.32637587 -0.8397218
-0.41536006 -0.95373493 -0.2752453 -0.618871 -0.60656214 -0.3292575 -0.36298153 -0.6674111
-0.5011776 -0.042160418 -0.88872415 -0.6746985 -0.23445933 -0.34703165 -0.99665624 -0.37295353
-0.32742512 -0.21342863 -0.20432834 -0.5952512 -0.41878834 -0.6610426 -0.3090804 -0.4593062
-0.46350163 -0.29492173 -0.29973048 0.093589865 -0.96858627 -0.5151177 -0.72720444 -0.62903696
-0.89379114 -0.98118955 -0.9380566 -0.23821254 -0.556007 -0.45474356 -0.42287767 -0.08141835
-0.5665809 -0.5248884 -0.23636895 -0.42925394 -0.24725305 -0.20973286 -0.5556631 -1.0042658
-0.43937305 -0.8069398 -0.22582358 -1.0854973 -0.16332033 -0.28965428 -0.28532454 -0.51903194
-0.49313816 -0.36839885 -0.4837723 -1.0445681 -0.12064353 -0.36625922 -0.96877605 -0.6197442
-0.27593356 -0.40242222 -0.96643144 -0.97245055 -0.67593664 -0.22103961 -0.49336573 -0.38760653
-0.7650633 -0.73170424 -0.26803088 -0.5644731 -0.7843913 -0.20140685 -0.30879095 -0.010108041
-0.4089174 -0.5220698 -0.75660044 -0.51879245 -0.68453413 -0.4754418 -0.32042816 -0.33065546
-0.5835842 -0.63201785 -0.7992695 -0.8750875 -0.29911417 0.096247 -0.91615194 -0.039888993
-0.13705382 -0.64179647 -0.8811815 -0.17502971 -1.0550121 -0.19386911 -0.33725077 -0.44820097
-0.09632268 -0.01039415 -1.0093555 -0.8721484 -0.71453565 -0.6277106 -0.71966475 -0.7789847
0.14610241 -0.2751894 0.1987809 -0.4276523 -0.66878885 -1.4030846 -0.009810177 -0.29215938

encoder.1.running_mean f4 [256]
00000000: 6859 9d40 834c 3040 762e 9a3f b9e6 0841
00000010: 680e 11c0 501a 9940 f925 5fc0 26fe 1c40
00000020: e8c1 df40 6858 f93f 0b02 8e40 8ad5 8d3f
00000030: dd62 3cbf ead6 1241 874d b540 33ec 9840
00000040: d80c 8cbf 1815 a140 d9ab 2c3f 136b eb3f
00000050: d89b 023f 7070 0d3f e873 86c0 eb28 1240
00000060: 749d 763f c5eb db3f 2c18 1640 af6c 0e40
00000070: 46a0 2fbf 2b3c 0b40 9c58 893f e1f9 04c0
00000080: 493f 7ac0 9894 ea3d 8ca8 af3f 882f 3840
00000090: 9e93 b2bf 793f eabc 27c5 4ebe fa71 5f3e
000000a0: bc1f 24bf d9cd 9dc0 cb08 ab3d 8dc2 f3be
000000b0: 3a12 f0bc b525 3940 eba0 803e 945d 833f
000000c0: 2e97 ba3e 0093 c2bf f3ae ef3f 4835 c6bf
000000d0: b80f 7fbe 2a81 9440 6b63 0d40 a56f 1c40
000000e0: af24 3a40 36b3 503f ea02 1e3f a84a 5cbf
000000f0: e734 153f 279f 54c0 533e 8d3e 19de c040
00000100: 20d0 4940 06d2 8d40 997d 4d40 29b3 4241
00000110: b286 2cc0 674e 60c0 8ed2 d0bf ac32 c23f
00000120: b66f 303f eeed aebf b037 3b3f aaa3 0640
00000130: f4e7 94be 1ee0 7d40 6510 8d3f 73e3 5140
00000140: 41a2 16bf 2397 3540 6ca2 7c3f cdce 4640
00000150: 0740 1740 3175 a1bf 2fc1 08be 1009 1c3e
00000160: 88d1 6240 f4c1 8dbe d3cc 7d40 c96c f13f
00000170: a052 6f40 af5a d1bc 0bc2 0d40 4fe7 88c0
00000180: 8b5e b33f 1374 65c0 cdd3 3441 e3ec 5dbf
00000190: 3d20 f8bf 50cc 9640 a4c6 abc0 89b1 2ec0
000001a0: 6f03 debf 02a9 ac3f 197c edbf 61cb 81bf
000001b0: 3103 8040 24d7 cb40 39c2 0abf e75c edbf
000001c0: 9abc 0540 c25d 2fbf 94ac 22c0 8a0a a3bf
000001d0: 2a8b a4be 5b3a 823f 718f e83f 1591 0cbf
000001e0: d694 2f41 acf0 80bf 46ca 1540 af2e c3be
000001f0: 3250 46bf b5b8 f63f 6fcf 52bd ac06 82be
00000200: 4f6c 83bf 903c f9bf 109c babe 50e3 ad40
00000210: 293e 013f e40d a640 8c26 af40 650d 09bf
00000220: 53de 2f3f 391f b1bf 28fc 853f 7020 ab3f
00000230: f419 dc40 a086 c840 f55f 7ebf 867b 65bd
00000240: 4fe0 c43f 145b a1be 9019 12bf 3a31 bdc0
00000250: 9d3a 0741 d8d7 22bf 338b b440 c55a 44c0
00000260: b7f9 a940 075a 3d3f 30b1 c140 1eea 07c0
00000270: 5a82 1e40 58d7 9e3f a8d2 103d 92c8 0440
00000280: e347 83bf 819d 61bf ec5e a140 d709 7ebf
00000290: 0a01 d1bf b149 df3f 83f4 80bf fbd9 babf
000002a0: a540 91bf 2718 823e 28ec b33e 6588 d940
000002b0: e715 d13e e2bc 1a40 f37b 78c0 29d5 883f
000002c0: dd55 a4be 31b8 9e3f ca61 e040 8b89 683f
000002d0: a734 5940 e089 d33f 7e23 683e 1661 c73f
000002e0: 2776 c43f 0f0a f73f 01f5 9cbf 9750 553e
000002f0: 520f 1c40 c59e 8640 9cf7 d33f f213 95be
00000300: 9687 4a40 d674 303f 1bde 0040 a64b b13e
00000310: d7ef 1e40 3898 d23f 2a1c 1ac0 6204 413f
00000320: 282c 7c3e 6e2a 9a3f 6b20 d33f fb82 b040
00000330: d74f 1040 af1a e83e 31d7 4ebf be25 06c0
00000340: 3310 173e 51a7 583f 5a2f e740 42c0 173f
00000350: 3c08 9abe 4817 81bf e463 8640 075e f83e
00000360: c48e c1be 047e c43f 3e0e aa3f f8ff 82bf
00000370: ab14 2240 c007 3040 4956 fe3e 9012 6140
00000380: 5213 6bbf b575 1d40 590f db40 b7f8 05c0
00000390: 469a 893f 7f9d e9bf 4c58 78bc d849 c83d
000003a0: 1d5d 83bf 139a 6c3e 772c f03e 6a8b f93f
000003b0: e14e 28c0 82f3 6a40 bd82 2e3f 67ba 8bbf
000003c0: 0be9 b63d fb5f 37bf 81c0 a1be 5716 183f
000003d0: 3b69 3a3f 0b62 f63f 2186 3dbf 3cc4 2f40
000003e0: 0be4 953f 89ea f23d 25c5 7ac0 4456 6e40
000003f0: 676a b2bf f94f 8cbf 87a4 2f40 aa13 5fbe
4.917164 2.75467 1.2045429 8.556329 -2.2665043 4.784462 -3.4866927 2.453012
6.99242 1.9480104 4.4377494 1.1080792 -0.73588353 9.177469 5.665714 4.778833
-1.094142 5.033825 0.6744972 1.8392051 0.5101905 0.5524969 -4.2016487 2.2837474
0.96334004 1.7181326 2.3452253 2.2253835 -0.6860393 2.1755474 1.0730166 -2.0777514
-3.9101126 0.11454123 1.3723311 2.877901 -1.3951299 -0.02859472 -0.20192395 0.21820822
-0.6411092 -4.931378 0.083512865 -0.47609368 -0.029305566 2.8929265 0.2512277 1.0262933
0.36443466 -1.5201111 1.8725265 -1.548501 -0.2490834 4.640767 2.209193 2.4443142
2.908489 0.81523454 0.61723197 -0.86051416 0.5828385 -3.322214 0.27586612 6.0271115
3.153328 4.4318876 3.2107909 12.16874 -2.6957211 -3.5047853 -1.6314256 1.5171714
0.6892046 -1.366636 0.7313185 2.1037393 -0.29083216 3.966804 1.1020628 3.2795074
-0.5884133 2.8373497 0.98685336 3.106372 2.363283 -1.2613889 -0.13354944 0.15237832
3.5440388 -0.27687037 3.9656265 1.8861324 3.739418 -0.025555937 2.2149684 -4.278236
1.4013227 -3.5852096 11.301709 -0.86689585 -1.9384838 4.7124405 -5.367998 -2.729586
-1.7344798 1.3489077 -1.8553497 -1.0140191 4.0003896 6.3700123 -0.5420261 -1.8543977
2.0896363 -0.6850244 -2.5417833 -1.2737591 -0.32137424 1.0174059 1.8168775 -0.5490888
10.973837 -1.0073447 2.3404708 -0.38121554 -0.7746612 1.9275118 -0.051467355 -0.25395715
-1.0267428 -1.9471607 -0.3644719 5.433998 0.50485474 5.1891956 5.4734554 -0.53536063
0.68698615 -1.3837653 1.0467577 1.3369274 6.878168 6.2664337 -0.9936517 -0.056026004
1.5380954 -0.315148 -0.57070255 -5.912259 8.45181 -0.636106 5.641992 -3.0680401
5.311733 0.73965496 6.0528793 -2.1236644 2.476706 1.2409468 0.035357147 2.0747418
-1.0256313 -0.88130957 5.042837 -0.99233764 -1.6328442 1.7444364 -1.0074619 -1.4597772
-1.1347853 0.25409052 0.3514111 6.7978997 0.40837023 2.4177785 -3.8825653 1.0690051
-0.32096758 1.2399961 7.011937 0.90834874 3.3938386 1.6526451 0.22669789 1.5576503
1.5348557 1.9299945 -1.2262269 0.20831524 2.438435 4.206881 1.6559939 -0.2911678
3.1645255 0.6892828 2.0135562 0.34628028 2.4833887 1.6452703 -2.407969 0.7539731
0.2462622 1.2044199 1.6494268 5.515989 2.254873 0.45332858 -0.80797106 -2.0960536
0.14752273 0.84630305 7.22453 0.5927774 -0.30084407 -1.008523 4.1996937 0.48509237
-0.37804234 1.5350957 1.3285596 -1.0234365 2.5325115 2.750473 0.49675205 3.516758
-0.91826355 2.4603093 6.8456235 -2.0933053 1.0750206 -1.8251189 -0.01515777 0.097797096
-1.0262791 0.2310565 0.46908924 1.9495671 -2.6298144 3.6711125 0.6816824 -1.091626
0.08931168 -0.7163083 -0.3159218 0.5940909 0.7281682 1.924867 -0.7403279 2.7463522
1.1710218 0.1186114 -3.9182827 3.7240152 -1.3938721 -1.0961906 2.744417 -0.21784845

encoder.1.running_var f4 [256]
00000000: c33f 0a3d f30e c53d d45c c43c 85d1 283f
00000010: c075 f93c 7998 363d 5cf7 0b3e 718e d03d
00000020: bed1 0b3e a5a9 023d bd9e 363e af6d 143e
00000030: 8c37 f23c f66e 093f 1464 923e 1d53 313d
00000040: 4e1b 783e c381 3e3e 1d1c 423d a644 913d
00000050: 5c72 f43c e42d b13c e7f0 1c3e 01bf 993d
00000060: 1c4e 563c d3db 1a3d 3918 233d a2d2 243d
00000070: f0b5 023d 3f93 ed3c 4a96 d53c 3947 233d
00000080: 82bc 703e ce01 5b3d 01db 123d 92ef 0e3e
00000090: a513 ae3c 63ba 033e fb92 383d 6ab9 8f3d
000000a0: bc99 033d 8f77 b03e 61ee 153d 7fde 5a3d
000000b0: 97db 8e3c 941b 6f3e 8450 bb3e 36c8 e43c
000000c0: 537f f43c 941e 423d fe31 a93d f704 6c3d
000000d0: 75f9 b13d 7b32 fc3d 487b 953d d3f1 a33d
000000e0: d5cb 753d 7a73 c03e 9d1e a23d f4c7 4a3d
000000f0: 618c 573d ecb5 733e a911 633d 1813 dd3d
00000100: d54b 373d 1e83 033e 55a1 ae3d 163b 0f3f
00000110: 33cd a33e a610 063e dddb 2b3d a3ec f63d
00000120: d4ca 803d 9646 653d ac36 ec3c ec99 243e
00000130: 3c04 ed3c 2bcc 063e afcc 713d 2dc4 233d
00000140: 6a8c 323e 2f3c 693d 1b46 2c3d 6b72 963d
00000150: 2b10 673d e76f 1e3d 9d3c d83d 98b5 113d
00000160: 7758 3f3e a824 353d a9d3 cc3e 7498 523d
00000170: 7d09 e23e 868f f33c 0078 bd3c 3884 853e
00000180: 8c11 8e3d e05b a53d 0d31 a43e 804c 353d
00000190: 30b1 173e 3b2b 323d 09ef 123e fec9 e63d
000001a0: de3e 7d3d 51cd 113d 25db 623e ae24 6c3e
000001b0: cf95 ce3d a8dc 6b3d d5bb 6a3e 7da2 a23c
000001c0: 7b00 8b3e 5ec4 893d be13 bb3d 370c 5d3d
000001d0: 1ca4 173d 2884 cf3d fc29 aa3d 05b0 da3c
000001e0: a90b 013f c3f7 113d aa8d bf3d 3710 743d
000001f0: 27d6 983d c489 823c 7c08 003d c13d 113d
00000200: 2c6e 253d 91f1 a83c eecc ab3d e020 783e
00000210: 7032 003d ba18 693e c918 753e 80ba 783c
00000220: 989d 193d 56b3 303e f377 d83c 6ad0 963d
00000230: b258 373f 13d9 673e feb6 6f3d 8180 a33d
00000240: 424f 413d 7bbe a13c 60b3 193d 2e22 0c3f
00000250: 3b29 3a3f c933 8d3c b2a7 403d bac9 fd3d
00000260: 4ddb 103f 54ac 8b3c b47d 8c3e f4e8 283d
00000270: 40d4 c33c e843 bb3c 6e96 ca3d 7d2a 973d
00000280: 1576 173d a166 8d3d 3d73 0f3f f7b4 ad3c
00000290: 10de 023e a8ae a93d 3a28 3d3d 90c0 903c
000002a0: a2c6 b93d f3dd 0c3d c42a 293d 52f4 d03d
000002b0: 740d 713d 0705 903e c757 bc3e feec 023d
000002c0: 8ccd 1f3d a5d0 003d 909c 103e 1fd0 3d3e
000002d0: a7b7 253e 74a9 f13d 543d 913d 9ce1 cc3d
000002e0: 63b8 503d ad9c a53d 5c80 ff3d eb68 663d
000002f0: f49a 413d e861 a03e 8f7b 033d 99bd 9c3d
00000300: ccbb 8b3d 1210 d43d 1262 843e ca98 0b3e
00000310: 7d11 513d 862b 653e f93d 2b3e b4d4 a73d
00000320: 42e4 f73c 7f83 093d a05e bd3d 727d 933d
00000330: 102b 573d 5c95 083d cca7 933c e7d4 513d
00000340: 1086 153d c627 983c a50f 0f3f 835a 103e
00000350: ce51 2b3d 6d9a c23c cf43 733e 2a73 cb3c
00000360: a933 073d 2e96 b93c ee1f 253d bdbe 433d
00000370: 99b5 8a3d 68d4 293e 5b10 e23d acab 073e
00000380: 9221 ab3d 0345 cc3e 4d7b 043e 4137 113e
00000390: b478 963d 8a4b 8c3d 06fd 2e3e 1151 f63c
000003a0: 2d5d 693d 33e8 ce3d 451a 5b3d 1ef0 c43c
000003b0: c4ab 283e e985 273d c0cb a23c 4dfa 8c3c
000003c0: c485 5f3d 1b83 bc3d 3ed3 283e 80e7 163d
000003d0: ed8d 5f3c 9367 d73d 5dbd 333d 15dd 323d
000003e0: 1c99 703d f3fa 0e3d f98a 833d 8b84 763e
000003f0: ce45 593d 6d81 023d 4f34 853d 9ad1 a93d
0.033752214 0.09621992 0.023970045 0.659447 0.030451655 0.044579003 0.13668579 0.101834185
0.13654229 0.031900067 0.17833991 0.14494966 0.029567502 0.5368494 0.2859198 0.043292154
0.24229166 0.18604188 0.047390092 0.07093172 0.029839687 0.021628328 0.15326272 0.07507134
0.013080146 0.037807297 0.039818022 0.040239938 0.03191179 0.029000876 0.02607264 0.039862845
0.2350941 0.053468518 0.03585339 0.13958576 0.021249602 0.1286407 0.045062046 0.07017787
0.032129034 0.34466216 0.03660429 0.053434845 0.017438693 0.23350364 0.36584866 0.0279275
0.02984587 0.047392443 0.082614884 0.057621922 0.08690158 0.12314316 0.07298905 0.08005109
0.060008842 0.37588102 0.07915995 0.049507096 0.05262411 0.23799866 0.055436764 0.107946575
0.044750053 0.12842986 0.085268654 0.55949533 0.31992492 0.13092288 0.041957725 0.120568536
0.062886864 0.05597552 0.028834663 0.16074342 0.028932683 0.13163821 0.059033092 0.03998201
0.17436376 0.05694216 0.042059045 0.07346042 0.056411903 0.038680937 0.10558436 0.035573572
0.1868609 0.04422441 0.40005234 0.051414922 0.44147864 0.029731523 0.02312851 0.26077437
0.069369406 0.080741644 0.32068673 0.04426241 0.14813685 0.04349826 0.14348997 0.11268996
0.061827533 0.035596196 0.2215391 0.23060867 0.100871675 0.05758348 0.22923215 0.019852871
0.27148804 0.06726907 0.09134625 0.053966727 0.03702174 0.10132629 0.08308789 0.02669526
0.50408417 0.035636675 0.09353192 0.059585776 0.07462721 0.015934832 0.03125809 0.035459284
0.04038827 0.020623 0.083886966 0.24231291 0.0312981 0.22763339 0.23935236 0.015181184
0.03750381 0.17255911 0.026424384 0.073639706 0.71619713 0.22641401 0.058524124 0.079834945
0.047194727 0.019744148 0.03752458 0.54739654 0.7271916 0.017236607 0.047034927 0.12391992
0.56584626 0.017049946 0.27439654 0.041237786 0.02390492 0.022859529 0.098919734 0.07381151
0.036977846 0.069043405 0.56035215 0.021204455 0.12780023 0.08285266 0.04618094 0.017669946
0.09071089 0.034391355 0.04130055 0.102028504 0.05885072 0.28128836 0.3678572 0.031964295
0.039014384 0.03144898 0.14122224 0.18536423 0.16183339 0.11799899 0.070917755 0.10003969
0.050957095 0.08086524 0.124756545 0.0562524 0.047266915 0.31324697 0.032100257 0.076533504
0.06822929 0.10354628 0.25856072 0.13632503 0.05104207 0.22379884 0.1672286 0.08194867
0.030260209 0.03357267 0.09246564 0.07201661 0.052531302 0.033345565 0.018024348 0.05122843
0.036504805 0.018573653 0.55883247 0.14097027 0.041826062 0.023755277 0.23756336 0.024835188
0.03300825 0.022654619 0.040313654 0.047789324 0.06772918 0.16584933 0.11038276 0.13249081
0.083560124 0.39896402 0.1293766 0.14181234 0.07347241 0.068503454 0.17088708 0.030067952
0.056973625 0.10102882 0.05349185 0.024040278 0.16471773 0.04089919 0.019872546 0.017209196
0.05457093 0.09204694 0.16486832 0.03684187 0.013644678 0.10517802 0.043881763 0.04366787
0.058739766 0.034907293 0.06422991 0.24073999 0.053045087 0.03186171 0.06504118 0.082919315

encoder.4.weight f4 [128, 256]
00000000: 96ec 483e d801 3d3e ba5e 99bf 4a1e b6bc
00000010: e98b dfbe 9252 85be 13c5 12be f424 e93d
00000020: 7ee4 313e ba6d 3a3c 22e9 22be f81c 8c3e
00000030: 419f 553c 1591 943c 144e 1abe fd80 1fbf
00000040: b3c2 fd3b cbe3 8bbd ad8a c23d 6801 0a3f
00000050: 4cc2 37be abe6 573e 4d4e 0dbe 9f2b 65bd
00000060: 613a 17be 3d40 98be 2a02 ebbe 88ed a83d
00000070: c3b8 b53e d393 563e 7285 b2bd 7f50 193e
00000080: 52a1 883d 9e56 033e 6b93 b3bd a488 08bf
00000090: bf1b 343f f365 dabe d69a b0bd cd11 94bd
000000a0: 7aa7 2ebf 4d74 5bbc e517 b53d a59c a83e
000000b0: 2d30 013f 128d 9fbd 8600 1dbd 7cde 923d
000000c0: 9b01 04bd 59ea bfbc 7352 39be 3fb5 e93e
000000d0: 89e0 0e3d 11bb 3a3e 921e babe 394b 31bc
000000e0: a23c e8be 6056 15bb a876 c8be c520 213f
000000f0: 1ad9 12be b80f 1dbd d4e8 9c3d c2fc 0ebe
00000100: dd87 093e 8f79 f83d 9537 afbc d73a 21be
00000110: 7463 34bc fee8 81be 30db f53e 6a48 173e
00000120: 8dfb 54bf 364e 893e 3367 543e d1b9 cabd
00000130: c534 cd3d 0fa2 443f d57f 4bbe d7a6 b1bd
00000140: 6c34 94bd 7fdc 863d 4fed c2be 6940 0abe
00000150: 2fd7 483d 6a37 86bc 4b18 b63d 808b 413e
00000160: 01a9 913d b12e a2bd 83c2 5aba 195c 22bf
00000170: 1c3f 1d3e 216e 4a3e 5070 1a3e a545 82b9
00000180: ad5a 78bf e312 333e 1798 183e 2046 5e3e
00000190: c4b9 02bd 79eb df3d 17c4 4b3d ed12 34be
000001a0: 1232 d33e 0d22 813d 4d5e d0bc f532 acbb
000001b0: 9159 5fbf c585 833e fc0c 84bd d40a 683e
000001c0: a2df 5dbd eaa0 f7bd bfc0 e03d e262 85bd
000001d0: 6956 0cbe 7cf0 a8bc a7ec c0be 1217 6b3f
000001e0: 1087 1f3d 8dd3 d73e 82b7 76be 0d48 2cbc
000001f0: e8a7 ff3e 89ff dabd 8fb1 843e 3a08 24bf
00000200: 24f0 313d 7529 6c3e 8d2b e3be dbcc a83b
00000210: 0ae1 69be 4c22 55bd e1e9 073e db0d b13e
00000220: 4441 703d c846 3fbe a1af 233d 59ae 17bf
00000230: 2405 803c 4b8d 5dbc ca47 44bf a434 d4bd
00000240: 4fe2 26be 3c16 913d 9741 1fbf e263 34bd
00000250: c212 43be ffaf 123d d7c6 a43e cc7a 583e
00000260: d8fc 24bd f60a c43d 2efd 4fbc 738d 7b3e
00000270: 7f59 1dbe 29d0 213e 654e 0fbe 1e3e a0be
00000280: 04ed 103e 83e9 60bd 59a9 b5bd 0f35 cabe
00000290: 25e8 963e 410c 4a3e 8551 913e 7cc8 c1be
000002a0: 5a77 6f3d 25df 9a3c fc5c 2c3f fe5a fbbb
000002b0: e552 9c3e de66 b63d 1617 e73d b2d3 47be
000002c0: 2e77 2c3f 8db8 063f ef6a 013e 9fd6 93be
000002d0: 31af 4d3e c04f 50bd 3f5a bebe 0156 323f
000002e0: 2c10 6abf 4bae cfbe 8ee7 d53d f3d4 9d3e
000002f0: 00ee 433d 4d10 d1bd 9264 f13c caa5 49be
00000300: 1b94 60be b144 e239 da9d 50bc ac73 473d
00000310: c1f5 e3bc 1699 adbc b136 0e3e b1be 7fbd
00000320: b451 a1be 1754 b43e f685 dfbe 0fdd a7bc
00000330: feb3 96be e732 4e3d beb0 59bd d9bc fdbb
00000340: d4fd be3d 30af fcbe 5e65 25be 78f9 823b
00000350: dd48 813f 18f8 833d 9bcf 26be b221 f1bd
00000360: e48f d13e 31d8 80be 7d2c be3e fabf 3cbd
00000370: 80ef c13d eb68 7cbe 7067 923d c23a 903d
00000380: 6672 b43e 547a bebe 5aea 12bd 56cd 883e
00000390: bc85 3c3d 9a86 82bf 0bf7 9cbd 6fa8 9c3c
000003a0: 4f81 8c3e a3c6 7a3d 11c9 17bc 6dcd 14be
000003b0: 47e4 03be a80c abbc 7624 97be b6bf 86bd
000003c0: 832b 2ebf 3854 85bd 34b4 563d ce08 913e
000003d0: 225a 063e cecb 96bd 506b 95bd e26f ddbd
000003e0: 3164 043e db72 2abe dcd0 d83d 8d07 f73d
000003f0: 3463 2bbe 5331 f43e cc73 1fbd 9df8 64bd
0.196215 0.18457735 -1.1982033 -0.02223124 -0.4366143 -0.2603956 -0.1433299 0.113840014
0.17372319 0.0113787 -0.15909246 0.2736585 0.013038457 0.018135587 -0.15068847 -0.62306195
0.007744157 -0.068305574 0.094991066 0.53908396 -0.17945212 0.21084087 -0.137994 -0.055949803
-0.14768364 -0.2973651 -0.4590009 0.082484305 0.35492525 0.20954828 -0.08716859 0.14972113
0.066713944 0.1282601 -0.08768352 -0.533335 0.7035484 -0.42655906 -0.086232826 -0.07229958
-0.682243 -0.0133944275 0.08842448 0.3293201 0.50464135 -0.07790579 -0.038330577 0.07171342
-0.032228094 -0.023427175 -0.18097858 0.45646092 0.034882102 0.18235423 -0.36351448 -0.010821157
-0.4535876 -0.002278708 -0.39153028 0.6294063 -0.1434063 -0.03834507 0.07661596 -0.13963607
0.13430734 0.121325605 -0.021388808 -0.15745102 -0.01101004 -0.2537307 0.4801879 0.14773718
-0.83196336 0.26817483 0.20742492 -0.09898723 0.100198306 0.7680978 -0.19872983 -0.086744
-0.07236561 0.06585025 -0.38071677 -0.13501133 0.04903334 -0.016383845 0.08891352 0.18900871
0.07112313 -0.07919062 -0.00083450245 -0.6342178 0.15356106 0.19768573 0.15081906 -0.0002484742
-0.9701336 0.17487673 0.14901768 0.21706438 -0.03191544 0.10933585 0.049747553 -0.17585345
0.41249138 0.06305323 -0.025435591 -0.005255098 -0.8724604 0.25687996 -0.06447789 0.2266038
-0.05416835 -0.12091239 0.109742634 -0.06513001 -0.13704838 -0.020622484 -0.3768055 0.9183208
0.038947165 0.42153588 -0.2409344 -0.010515225 0.4993279 -0.10693271 0.25916716 -0.6407505
0.043441907 0.2306269 -0.44369164 0.005151374 -0.22839752 -0.05203466 0.13272811 0.34580883
0.058655992 -0.18679345 0.039962415 -0.5925041 0.015627451 -0.013522456 -0.7667204 -0.10361603
-0.16297267 0.07084319 -0.6220946 -0.04404057 -0.19050124 0.035812374 0.32182953 0.21140593
-0.040280193 0.09572403 -0.01269464 0.24565677 -0.15366171 0.15802063 -0.13994749 -0.31297392
0.14152914 -0.054910194 -0.08870191 -0.39493605 0.29473987 0.19731237 0.28382507 -0.3784827
0.058463432 0.018905232 0.6732938 -0.007670759 0.30531994 0.08906339 0.112837 -0.19514349
0.67369354 0.5262535 0.12638448 -0.2887468 0.20086361 -0.050857306 -0.37178227 0.6966248
-0.91430926 -0.40562662 0.10444556 0.3082653 0.047834396 -0.10208187 0.029466901 -0.1969215
-0.21931498 0.00043157258 -0.012732947 0.048694298 -0.027827146 -0.021191161 0.1388805 -0.062437717
-0.31507647 0.35220405 -0.43656892 -0.020491151 -0.29434198 0.050341513 -0.05314707 -0.0077434597
0.093257576 -0.49352407 -0.1615195 0.003997024 1.0100361 0.064438045 -0.16290133 -0.11774005
0.40930092 -0.2516494 0.37143317 -0.04608152 0.09469509 -0.24649398 0.071486354 0.07042457
0.3524353 -0.37202704 -0.035868026 0.2671916 0.046025977 -1.0197327 -0.07664307 0.019123284
0.27442405 0.06122459 -0.009264247 -0.14531489 -0.1288005 -0.020880058 -0.29520005 -0.06579535
-0.68035144 -0.06510204 0.05241795 0.2832703 0.1312032 -0.073630914 -0.07295859 -0.108123556
0.12928845 -0.16645376 0.10586712 0.12061987 -0.16737062 0.4769388 -0.038928792 -0.05590116

encoder.4.bias f4 [128]
00000000: f6cb 78bd b80c ba3b 8eeb b33c 7c14 b0bc
00000010: 7784 a93c 9b8d 80bc bbc7 463d 0713 a3bc
00000020: cc20 f0bc 2f6c 3a3d a865 5e3d e343 8e3c
00000030: 5cf4 5b3d ac74 33bd 98ae b33b 2922 debc
00000040: de4f c93c 0c14 74bd cbaa 513d 3f8d 44bc
00000050: 42ae 32bd 8e78 9c3a c311 44bd 977f 4c3d
00000060: bb61 fb3c 214f ccbc 5c5b ebbc adbe c33c
00000070: d315 4c3b 6b51 c73c 834f 013d f4c2 05bd
00000080: 8133 38bd 7306 a0bc ee69 073d ddaa dabb
00000090: 3789 9e3c 7173 133c c0ef 6c3d 0db2 07bd
000000a0: 61c3 1dbd 6b9d 60bd 6525 fdbc b3a1 383c
000000b0: f226 27ba 6339 50bd 701c ebbc d106 51bd
000000c0: 1d82 01bd fcd4 cabc b07b 2d3d a4cb 383d
000000d0: 480c 0abd 239a 9cbc 8668 46bc 231e 2f3d
000000e0: f6d6 373d b68b dd3c f053 3cbd 8f2d febc
000000f0: 5f5d 97bc 802d 67bd 4ddf 08bd fc20 d7bc
00000100: 020b 3b3c c5e8 693c 6bec 283d a4d2 ea3a
00000110: e60a 04bd f4e6 6e3d c798 57bd 3a7b 813c
00000120: f19c f63c 562b 8c3c bf89 d4bc 9b32 823b
00000130: 8187 60bd 71c7 473a 60a2 e33c 072c 7d3d
00000140: 65de 7739 eef7 78bd 0d8f 8fbc cb48 fa3c
00000150: 9eb3 6abc 4cb3 37bd b2bc 55bd af1f 95bc
00000160: c1b7 123d fe5d 02bd 957e 57bd 7ea0 1abd
00000170: 31df c13b 8dfe fa3c 1d51 7bbc e847 09bc
00000180: 1a4a 3e3d 2990 08bd f4b0 223c 8a08 743d
00000190: a6d0 7cbd fd2d 5fbd 7632 47bc 1dd7 ef3c
000001a0: 0bf8 103d 4674 1dbd debb 183c 449a 15bd
000001b0: 4f45 5d3c 86af 223d d55d 593d 059c 2f3d
000001c0: 1fde 36bd cb9c 57bd 093e e9bc 3d97 78bd
000001d0: 3e89 6bbd f760 7abd d640 7dbd d1cc 1cbd
000001e0: 30a7 53bd fa60 643d 14e4 26bd 905f 43bd
000001f0: 0f75 243d 8cc9 23bc 0330 b03a ccec b73c
-0.060741387 0.0056777857 0.021962907 -0.021494143 0.020693047 -0.015692523 0.04853032 -0.019906534
-0.029312514 0.04551333 0.054296166 0.017366355 0.053699836 -0.04381244 0.0054834597 -0.027115898
0.024574216 -0.05958943 0.05118827 -0.011996566 -0.043623216 0.0011937784 -0.0478685 0.049926367
0.03068625 -0.024940075 -0.028730087 0.023894632 0.0031140938 0.024330815 0.03156997 -0.032656625
-0.044970993 -0.019534325 0.033060007 -0.0066732005 0.019352539 0.008999691 0.05784583 -0.033128787
-0.038516406 -0.054837625 -0.03090162 0.011269021 -0.0006376348 -0.05083598 -0.028700083 -0.05103189
-0.031618226 -0.024759762 0.042354286 0.04511608 -0.03370312 -0.019116467 -0.012109881 0.04275335
0.044882737 0.027044158 -0.045978487 -0.031027583 -0.01847714 -0.056439877 -0.03341608 -0.026260845
0.011416199 0.014276688 0.04124109 0.0017915559 -0.032236956 0.058325723 -0.052635934 0.01580583
0.030104132 0.017110508 -0.025944589 0.003973318 -0.054816727 0.00076209666 0.027787387 0.061809566
0.00023638604 -0.06078332 -0.017524267 0.030552289 -0.014325051 -0.044848725 -0.052181907 -0.018203584
0.035819773 -0.03182792 -0.052610952 -0.037750714 0.005916499 0.030638957 -0.015339163 -0.00837896
0.046457388 -0.033340607 0.009929884 0.059578456 -0.06172242 -0.054487217 -0.012158027 0.029277379
0.035392802 -0.038440965 0.009322135 -0.036524072 0.013505294 0.039718173 0.053068 0.0428734
-0.044645425 -0.052639764 -0.028471963 -0.060691107 -0.05750393 -0.06112763 -0.06182941 -0.038281266
-0.051673114 0.055756547 -0.040744856 -0.047698557 0.0401507 -0.009996783 0.0013442043 0.02245178

encoder.5.weight f4 [128]
00000000: e475 6e3f 52b9 963f a010 873f 6dc8 6a3f
00000010: c76e a73f a102 5c3f f45d 793f ae43 813f
00000020: 771f 6f3f 23f9 743f a380 643f 40e5 803f
00000030: 08a3 783f d13d 683f e804 773f 4aa0 8c3f
00000040: b500 8c3f d0a5 5e3f 093d 553f 916f 813f
00000050: fc25 943f b389 c03f aa2e 983f b028 803f
00000060: d588 a03f a317 693f 32c9 903f 0b6c 883f
00000070: ea88 5a3f a0f6 743f 2bbe 893f f323 353f
00000080: 34a1 713f fe27 783f b9c6 513f 78bb 953f
00000090: 6cf7 913f 249f 763f ecb4 793f 69e8 4e3f
000000a0: e5fb 5d3f 1a11 833f ec74 643f e598 953f
000000b0: 0065 883f 212f 703f b777 753f e7e0 653f
000000c0: d38a 893f 6ef9 9a3f 25bd 7a3f 0478 653f
000000d0: 0d98 7e3f b88a 6a3f bd67 743f 3829 873f
000000e0: b4f0 803f 4e85 7b3f de17 963f 706d 4b3f
000000f0: a36f 9b3f fd50 9b3f fa41 643f f2a3 6b3f
00000100: 9343 773f 3162 913f 95f2 6d3f d960 563f
00000110: b969 713f 8853 7d3f c796 9b3f 35d8 893f
00000120: c6f8 4d3f 18e9 533f 813e 6b3f 04ec 583f
00000130: 77d9 7d3f eaa0 783f 3eca 923f 045e 743f
00000140: c3ca 7e3f fd2c 7d3f 7216 5b3f e654 673f
00000150: 3d67 6a3f b963 633f 116a 8e3f c0fd 4e3f
00000160: 1f5d 683f fa3f a33f b2a5 4f3f c908 423f
00000170: 73fc 3a3f 3054 763f f828 c33f a231 593f
00000180: ce44 9b3f 680a 7e3f dc2f 9d3f 7642 723f
00000190: 6c70 6c3f 916a 853f f63d 7e3f ccce 843f
000001a0: 230c 963f 2480 5e3f c1a5 873f 394e 4e3f
000001b0: e801 af3f a1e3 713f da20 693f de6e 8c3f
000001c0: 1922 643f 3b53 663f ee32 623f 7bb4 a23f
000001d0: 2ad3 9a3f 388b 8d3f 1bfd 4a3f 4f36 7f3f
000001e0: ba17 9b3f 9bce 6c3f 7f07 543f 796c 9a3f
000001f0: eade 7d3f 9cc1 583f 0522 7f3f a218 6c3f
0.93148637 1.1775305 1.0551949 0.91712075 1.3080682 0.8594151 0.97408986 1.0098779
0.93407387 0.9569265 0.89258784 1.0069962 0.97123766 0.90719324 0.9649186 1.0986416
1.0937716 0.8697176 0.8329626 1.0112172 1.1574092 1.5042022 1.1889241 1.0012417
1.2541758 0.9105169 1.13114 1.0657972 0.85365164 0.9568882 1.076116 0.7075798
0.943866 0.96936023 0.8194385 1.1697836 1.1403632 0.9633658 0.9754169 0.8082338
0.86712486 1.0239594 0.8924091 1.1687285 1.0655823 0.93821913 0.95885795 0.897963
1.0745491 1.210737 0.9794486 0.89636254 0.9945076 0.9161792 0.9547079 1.0559454
1.0073457 0.9825028 1.1726034 0.79463863 1.2143444 1.2134091 0.8916317 0.92047036
0.96587485 1.1358091 0.92948276 0.8374153 0.94301945 0.98955584 1.2155389 1.0769106
0.80457723 0.8277755 0.9189225 0.8473513 0.9915995 0.97120535 1.146797 0.95455956
0.9952814 0.9889677 0.85581124 0.9036392 0.9156378 0.8882404 1.1126119 0.8085594
0.9076709 1.2753899 0.81112206 0.75794655 0.73041457 0.9622221 1.5246878 0.8484136
1.2130373 0.9923463 1.228023 0.9463266 0.9235904 1.0423146 0.99313295 1.0375609
1.1722454 0.8691428 1.0597459 0.8058811 1.3672457 0.9448796 0.9106575 1.0971334
0.8911453 0.8997075 0.8835896 1.2711328 1.2095692 1.1058111 0.7929246 0.99692243
1.2116616 0.92502755 0.8282394 1.2064353 0.99168265 0.84670424 0.99661285 0.92225087
