models/arp_mitm_model.pth (torch, 603142 bytes, 32 tensors)

encoder.0.weight f4 [256, 114]
00000000: 2946 c7be 6502 f1bd 9919 653f f000 82be
00000010: d7d2 6bbe a03a 013f f124 ce3c 787c 27be
00000020: a38a ae3e 4f6d 43bf ce92 53be 15e8 983e
00000030: 4f77 24bf 9f7c 0abe 454c 8e3e bb3a 8fbe
00000040: 1ba5 31be 6e78 543f 5e18 e9bd bf7d 223c
00000050: d311 123f 9111 ba3d 8598 0bbe 934f be3e
00000060: 52e2 cbbe 6a37 41be 25c0 923e d845 643e
00000070: 3384 11be b229 c03e ae07 b2be be76 33bd
00000080: fcba 3e3f 7d9e 343f 616c 793f 7d3c 913f
00000090: 4cac 7ebe 4466 d0bd a441 0b3e b004 213f
000000a0: bc1b 0e3f e8ec 2a3f 70dc 883f f2e5 64be
000000b0: 6543 9d3d 8207 c53c 1416 ba3e a504 8f3e
000000c0: 1948 7c3e 113b d43f 1a00 193e 6449 d7be
000000d0: 6073 a2bc e26f 863e c36e f6bc 2f33 c03d
000000e0: beb3 a53e 384f 893e 610a 763e 2b99 a8bd
000000f0: 12d2 8b3e 61ce 583d e0e7 e93d 480a 02be
00000100: 64a9 363f 10c1 a5be d947 0abe 7efe 18bb
00000110: 7eac 44be 735e 25bd 9237 84bd 50a4 683d
00000120: b2e6 80bd 1db1 e83c c539 c8be eba0 36bd
00000130: cfb6 fe3e 4e28 113e dd06 293e bc7a fa3e
00000140: c8bc 89be 828e 8abc c7fb 103e 1adf 35be
00000150: 6fc8 953e 9510 4abe ddab 2abe 1705 41be
00000160: 56ba 54bc b635 b13d 6563 04bb 3f61 103e
00000170: 720e a0bd 8ca4 eabd b45e 3f3d d447 083e
00000180: 19c7 273e 2f8d 1fbd 40a7 6d3e 89bd 47bd
00000190: cbd1 1e3d 6862 04bf 835c 81bc 0260 5c3e
000001a0: 5c03 f6bc 0ab8 f23d 71f5 0f3f 2bfc f53e
000001b0: b134 53be 1025 a13c 3371 903e eb58 bcbd
000001c0: d832 4f3e 66e0 10be 1276 76be e7bd f6bd
000001d0: 0e58 003f 7cb5 d1be 353c fabd 5875 d83e
000001e0: 825f 2abd 3479 ffbd cc1d b0bc 00c9 3d3f
000001f0: 5ef9 62bd 5a5a aebe 7fee f43e e4b2 52bd
00000200: cbb6 aabe 8f16 2ebe 7e41 b5bd 7f28 d93e
00000210: 5dfe e5be ff4a 4fbe 8d5a 993e 4e6d 57be
00000220: c5b1 87bd ebdf c7bc b803 c03e 653a 5e3c
00000230: 07e6 98be 26ee 6d3d 238c 813d e453 83be
00000240: 683a 1fbe 1b65 0c3a cbf1 853e 04da 2dbe
00000250: f650 7a3e ce52 14be 639e ebbd af33 acbe
00000260: 380f d4bc 4ef3 a63e e4ce 3ebe c954 333e
00000270: 026b 07be 52df 563d d592 cabc 9719 b6bd
00000280: 20ae 953b 61c7 cabe 7acf 22bd bb62 8a3d
00000290: f701 b03d 83ff 9a3e b5e6 80bc 512c 03be
000002a0: df86 f9be 3bad bdbe 3b0c 7c3e 6a36 32be
000002b0: 064d 6e3b 137c 6c3d abbc 75be 81b7 14bf
000002c0: 4414 e0be dfd5 223e 4298 f33d f15b 0ebe
000002d0: 5746 4a3d 71e8 a23e 5568 fabe 5e56 efb8
000002e0: b007 f13e da59 4cbe 0f11 d7bc 9136 2a3e
000002f0: e6c1 f53e 8e36 8d3d fd8c ba3e 9969 c93d
00000300: 4ba4 4abb c3f1 863e 37c5 d83f 097a 0d3e
00000310: 5a85 70be c57d 4ebd d7e5 53be a771 0ebe
00000320: e34c 83be 2efd 993f 7c91 a53d e17d 83be
00000330: 3962 55be d242 22be a9cf 933e b78b 163e
00000340: 9d9a 423f 6fe8 f63c 0edb 62bd 61b8 8abe
00000350: fb2e 5cbe dd43 f93d b102 9abd 7611 643d
00000360: 4e5d aabd ced8 51be a222 7abe ca5e b1bd
00000370: 2f44 653e a2b4 2cbe 2516 d0be 5ebc f4bc
00000380: 3099 30be f459 82be cfc3 93bd 8406 c13e
00000390: d6c8 0ebf 8c7c c4bc 2176 0ebf 8ea2 1ebf
000003a0: 1063 c9bc 25b5 c5be e6ba cbbe cf0c ed3d
000003b0: febb 2e3e eaad 6a3d 1c68 3d3e 6af3 ed3e
000003c0: 4b63 d9bd 0dbf cd3d 33cb bf3e 4577 78bc
000003d0: 6fe3 7c3e cf69 42bf 1165 f0bd ccf2 3f3e
000003e0: b0c6 2abf 270b 4b3d a86e 8d3e 8dbc ccbd
000003f0: ad94 4c3e f239 8d3e add2 883e e67e 3dbc
-0.38920715 -0.11768035 0.89492184 -0.2539134 -0.23029648 0.5048008 0.0251641 -0.16356075
0.34090146 -0.76338667 -0.2066147 0.29864565 -0.6424455 -0.13524102 0.27792564 -0.27974495
-0.17348139 0.8299626 -0.11381601 0.0099176755 0.5705845 0.09085382 -0.136324 0.37170085
-0.39821106 -0.18868795 0.2866222 0.22292268 -0.14210586 0.3753181 -0.34771484 -0.043814413
0.74504066 0.70554334 0.97431 1.1346585 -0.24870414 -0.101757556 0.13599259 0.6289778
0.5551107 0.6676774 1.0692272 -0.22353342 0.0767887 0.024051432 0.3634497 0.2793323
0.24636878 1.6580526 0.14941445 -0.4204818 -0.019830406 0.26257235 -0.030082112 0.093847625
0.32363695 0.26818252 0.24027397 -0.082323395 0.27308708 0.052931193 0.1142118 -0.12699234
0.7135222 -0.32373857 -0.1350397 -0.0023345049 -0.19206426 -0.040373277 -0.06455912 0.056797326
-0.06294002 0.028404767 -0.39106575 -0.044587057 0.49748847 0.14175531 0.16506524 0.48921764
-0.2690184 -0.016913656 0.14158545 -0.17760888 0.2925448 -0.19732888 -0.16667123 -0.18849598
-0.012983879 0.08652823 -0.0020200845 0.14099596 -0.07815255 -0.11457166 0.046721175 0.1330865
0.16384543 -0.038953003 0.23208332 -0.04876474 0.038774293 -0.51712656 -0.015791183 0.21520999
-0.030030899 0.11851509 0.5623389 0.4804395 -0.20625569 0.019670993 0.28211364 -0.09196647
0.20234239 -0.14148101 -0.24068478 -0.1204794 0.5013436 -0.40958774 -0.12218515 0.42277026
-0.04159499 -0.124742895 -0.021498583 0.74134827 -0.055413596 -0.34053308 0.47838208 -0.051440135
-0.33342585 -0.17000793 -0.08850382 0.4241371 -0.44920626 -0.20243452 0.29951897 -0.2103779
-0.06625704 -0.024398765 0.37502837 0.013563727 -0.29862997 0.058088444 0.06325557 -0.2564994
-0.15549624 0.0005355642 0.26161036 -0.16977698 0.24444947 -0.14484712 -0.11504819 -0.3363318
-0.025886163 0.32607502 -0.1863361 0.17512812 -0.13224414 0.05245907 -0.024728218 -0.088915996
0.0045678765 -0.3960524 -0.039748646 0.067571126 0.08594125 0.30273065 -0.01573501 -0.12809874
-0.4873571 -0.37046227 0.2461404 -0.1740357 0.0036361828 0.057735514 -0.23997752 -0.58092505
-0.4376546 0.15901898 0.11894275 -0.1390226 0.049383488 0.31817964 -0.48907724 -0.00011412495
0.47076178 -0.1995615 -0.026253251 0.16622378 0.47999495 0.06895171 0.3643569 0.09834594
-0.003092068 0.26356325 1.6935185 0.13816084 -0.2348837 -0.050412912 -0.20693146 -0.13910542
-0.25644597 1.2030389 0.080843896 -0.25681975 -0.2083825 -0.15845802 0.2886937 0.14701734
0.7601717 0.03014013 -0.055384688 -0.27093795 -0.21502297 0.12171147 -0.075200446 0.055680715
-0.08318578 -0.2049286 -0.24427274 -0.08660658 0.22389291 -0.16865781 -0.40641895 -0.029874977
-0.17245936 -0.25459254 -0.07215082 0.37700284 -0.557752 -0.02398517 -0.55649 -0.6196679
-0.02458337 -0.38614765 -0.3979103 0.11574709 0.17063901 0.057294764 0.18496746 0.46474773
-0.10614642 0.10046206 0.37459716 -0.015165155 0.24696134 -0.759427 -0.11738027 0.18744963
-0.66709423 0.049571183 0.27623487 -0.09996901 0.1997859 0.2758327 0.26723233 -0.0115658995

encoder.0.bias f4 [256]
00000000: 3c1e 88bd 9288 47bd 949e 52bc 4933 a1bd
00000010: 8b0a d53c 38c6 6dbb 95fb 69bd 8072 39bd
00000020: bbcd df3c 0de1 24bc 695e e3ba 8794 7c3d
00000030: 4a48 293d 3f44 973d 6bd0 6cbd 7e2b 76bd
00000040: f868 33bd 3d3b 773c cb06 ae3c 38b6 b0bd
00000050: 008a 433d eb05 71bd 56c8 83bd fa43 98bb
00000060: 5ebc bdbd d323 093d 875f 34bd 6800 853d
00000070: df05 2dbd 7c98 653c 1313 c43b d0d9 65bd
00000080: 58f3 7dbc 602e 423d 3f68 9b3c 7edb 793d
00000090: 669e 5abd 9753 f63b 9dcb 19bd b788 30bd
000000a0: 4c0e 763d 60c9 06bd 868f 503a 7f6f b2bd
000000b0: fa60 7ebd 43e2 18bd bb0d d03c ade0 8bbd
000000c0: d3c2 903d f8e3 bb3d 108b b63d 2fcc a5bb
000000d0: c7ea c9bc 364f f2bc c069 023d f4cc a1bd
000000e0: 826d b2bd 857e 1fbc 5125 a83d ea54 bd3c
000000f0: f0d0 eebc c905 90bd 2276 a73d 8122 e8bc
00000100: 2d13 b23d 1db8 a83c e0de 74bd 8214 3bbc
00000110: e7f9 9ebd 96c8 3bbd e0c6 b5bd 91e1 993d
00000120: 1acc f53c 036d a8bb f42c 8abd a9b8 ba3d
00000130: d041 aebc 82bb 573c a6fc 9a3c e9bd 853b
00000140: bce6 39bc 9add 7b3d c3cc be3c 9232 b93d
00000150: cc96 ac3d b8e9 1e3c 72ca 43bd 25d1 8a3d
00000160: 74be bfbd d002 26bd fb37 b0bc 87a7 d23b
00000170: 7d71 0f3d bbdf 64bd fa1d dd3c 4d20 b13d
00000180: e620 59bd cc54 2a3d 91a3 a8ba 7c60 073d
00000190: 3982 54bd 4e91 b6bd 7486 5a3d bf5d 48bd
000001a0: fe79 b1bd d8b9 a03c 142c 37bd 976c 203d
000001b0: 7eb9 4cb9 6d08 403d 3e76 67bc dfbe 5ebd
000001c0: d694 32bd b7ce 29bc 05f9 893d 279a a4bd
000001d0: 1c6d bebd 0efd 203d 904d 0fbd adc6 90bc
000001e0: 34d2 023d e9a3 1d3d b546 8ebd 60fc 443c
000001f0: 3b64 d63c 8396 94bd 9dd5 a2bc 553c f33c
00000200: 769c 813d a2ac c5bc f7f6 adba 19ae 6c3d
00000210: e269 cbbc 9f35 a93c 13c2 a8bd 3be5 9dbd
00000220: 9f13 923d 536d 5f3d c01b c1bc 36c3 8bbd
00000230: 5331 ac3c b8c1 a23d edfe aebd 4aff 843d
00000240: 6394 86bc 0612 9dbd 4eea 983d a2ef 9ebd
00000250: 7f0d 6b3d cf08 57bd fb6b 273d d782 cf3b
00000260: 27e5 6ebd a4ca b63d 4dd5 683d 36f4 7c3d
00000270: a222 b7bd d210 8c3d bb03 98bd edc0 5c3d
00000280: e92c 753d 49e3 983c 74f8 a03b a773 73bc
00000290: ea60 8a3d c00f 8a3d 3801 b83d 2dd8 6dbd
000002a0: 835f abbc daf6 1c3d bfef afbd eaf1 ac3d
000002b0: e2df 85bd 8f73 bb3d 37dd 6ebd a5ca d9bc
000002c0: 2190 fb3c 115e 143c 6f13 c7bb f00d 53bd
000002d0: d14d 9f3c 07ec 90bd 3bc8 afbd 9ec0 8abd
000002e0: dacf a8bd c0f6 36bd 9e8c a33c 72b2 89bd
000002f0: 6803 e9bc 646f 873d 80a1 9ebc 08f1 013d
00000300: 81bf bdbc d883 263d a9b1 a9bc d7ca d5bb
00000310: 3b28 70bd c587 bd3d 44b1 843d f4bf a13d
00000320: 3130 edbc b005 df3c f529 20bd 9fd2 79bd
00000330: 94ed 953d 8f32 b73d bb22 3e3c a610 1ebd
00000340: ce87 a5bd c7b0 313d d1bd 05bd 06a1 41bd
00000350: 34f0 1f3d a0f7 2dbb 2d45 8abd 4bea 883d
00000360: 3855 83bd d094 90bd 6830 04bd b9ef 163d
00000370: 790e 1dbd 8193 7c3c 8b07 033b 39ba b8bc
00000380: 95b0 fbbc 9417 f83c a3cd b63c f89c 63bd
00000390: a8d5 b2bd 0902 68bd 011e 96bd 7bda b53d
000003a0: c2a8 7c3d f160 b6bd 05a8 9b3c 2ee5 8fbd
000003b0: 23da 44bd 4a86 093d 6c1a 903b ea09 b03d
000003c0: 7997 bf3d a872 a0bd f92f 543d 8c9f 3bbc
000003d0: 89c8 a83d 521a 5fbc 693f 983d 29f6 9b3d
000003e0: 1558 bebd cb30 8dbd aa0a 03bd 6d73 80bd
000003f0: 969a 013d f9b9 07bd 7d21 58bc 8636 fd3c
-0.06646392 -0.048714228 -0.012855191 -0.0787111 0.026006004 -0.0036281478 -0.057124693 -0.04527521
0.02731978 -0.010063422 -0.0017346862 0.061665084 0.041328706 0.07386064 -0.05781595 -0.06010007
-0.043801278 0.015089807 0.021243474 -0.086285055 0.04773903 -0.058843534 -0.064346954 -0.0046467753
-0.09264444 0.03348143 -0.044036414 0.06494218 -0.042241927 0.014013406 0.005983719 -0.056115925
-0.015499912 0.047407508 0.018970607 0.06100034 -0.053373717 0.007517289 -0.037547696 -0.04309913
0.06007223 -0.03290689 0.0007955957 -0.087126724 -0.062104203 -0.037325155 0.025397172 -0.06829963
0.0706841 0.09174341 0.08913243 -0.005059741 -0.024648083 -0.029578786 0.031839132 -0.0790042
-0.08712293 -0.009734754 0.082102425 0.02311178 -0.029152364 -0.070323534 0.08176829 -0.028336765
0.08695064 0.020595605 -0.059782863 -0.011418464 -0.07762509 -0.04584559 -0.08875823 0.075137265
0.03000455 -0.0051399483 -0.067468554 0.091172524 -0.021271616 0.013167264 0.0189193 0.004081477
-0.011346515 0.061490633 0.023290997 0.09042849 0.084272 0.009699278 -0.04780049 0.067781724
-0.09362498 -0.040530026 -0.021511069 0.006428662 0.03502034 -0.05587743 0.026991833 0.08648739
-0.05300989 0.041584775 -0.0012866129 0.033051 -0.051882003 -0.089144334 0.05335088 -0.04891753
-0.08665846 0.019619867 -0.04471977 0.03916606 -0.00019524057 0.046883035 -0.014127312 -0.054381248
-0.043598972 -0.010364226 0.0673695 -0.08037215 -0.09298155 0.03930383 -0.03498608 -0.017672861
0.031938747 0.038486395 -0.0694708 0.0120230615 0.02617084 -0.0725527 -0.01987725 0.029691854
0.06328671 -0.02413017 -0.0013272454 0.05778322 -0.024830762 0.020655451 -0.08240142 -0.07709738
0.07132649 0.05454762 -0.023572803 -0.06824343 0.021019613 0.07947105 -0.08544717 0.06494005
-0.016428178 -0.07669453 0.07466565 -0.0776055 0.057385918 -0.052498635 0.040874463 0.006332736
-0.058324005 0.089253694 0.056844044 0.061756335 -0.089421526 0.06839146 -0.074225865 0.053894926
0.059857283 0.018663066 0.0049124304 -0.014859117 0.06756766 0.06741285 0.089846075 -0.05806749
-0.020919567 0.038321353 -0.0859065 0.08444579 -0.06536843 0.091529004 -0.058316436 -0.026585886
0.030708374 0.00905563 -0.0060753147 -0.051526964 0.019446285 -0.07076269 -0.08583113 -0.0677502
-0.082427695 -0.044668913 0.019964512 -0.06723489 -0.028444007 0.06613043 -0.019364119 0.031724006
-0.023162605 0.04065308 -0.020714598 -0.0065244245 -0.058632117 0.092544116 0.06479123 0.0789794
-0.028953644 0.027224392 -0.039102513 -0.06099188 0.07320705 0.0894519 0.01160496 -0.038590096
-0.08082543 0.04338148 -0.032651726 -0.047272705 0.039047435 -0.00265453 -0.067514755 0.06685313
-0.064127386 -0.07059634 -0.032272726 0.03684971 -0.03834388 0.015416027 0.001999351 -0.022549735
-0.03072385 0.03028468 0.022314852 -0.05556962 -0.08732158 -0.056642566 -0.073299415 0.088795625
0.061684377 -0.08905209 0.019001016 -0.070261344 -0.048059594 0.033575334 0.004397681 0.08595641
0.09355063 -0.07834369 0.051803563 -0.011451613 0.08241374 -0.013617115 0.074339695 0.07615311
-0.09294144 -0.06894072 -0.031992592 -0.06272016 0.031641565 -0.03313634 -0.013191578 0.030909788

encoder.1.weight f4 [256]
00000000: b96f 623f 936f 893f 684b 803f 5457 b13f
00000010: 33c6 5b3f 14e7 b13f 1acd 133f fba6 473f
00000020: 3787 cb3f 0e5b 5b3f 8e2a 913f bf63 3d3f
00000030: a19b 683f 1d2d 673f 66e7 a63f c21e 9c3f
00000040: 8beb 6f3f aa4b 8a3f db3d 3f3f 1291 6e3f
00000050: f245 653f 3a4f 8b3f 7e49 5d3f 97b9 a73f
00000060: eee9 833f 57ec 713f 16c7 6d3f 7b1a 843f
00000070: c361 883f 3101 993f 459f 733f e470 3c3f
00000080: 9616 993f 5fbd 5e3f e370 b03f 6e75 9a3f
00000090: b576 5b3f 4041 603f 1a21 8d3f c72a 5d3f
000000a0: 0f28 6a3f b16a 6f3f 9e1f 833f 5f13 913f
000000b0: f342 523f 4250 593f 7983 343f 8765 913f
000000c0: b90f 623f 7c40 943f 3516 ac3f 195f aa3f
000000d0: 04cd 8f3f d85d 903f 7d3d 473f cd18 8d3f
000000e0: 70ab 873f d352 913f 79e9 793f 4c01 2d3f
000000f0: be25 863f 5465 9a3f 85ed 503f 87eb 753f
00000100: dfe1 8a3f d65a 6d3f b236 963f 2e24 883f
00000110: e70f 803f ff51 783f a0a5 963f 32df 8a3f
00000120: 041a 8a3f 183c 8a3f 9c5d 813f f1f9 a93f
00000130: 3bb8 ac3f 9a18 853f 55eb 873f 12f1 963f
00000140: 6716 b73f 7c57 8e3f 86e0 3b3f c175 913f
00000150: e678 7e3f 4714 603f 59bb 813f 60cf 953f
00000160: 604d a13f ca7b 4e3f e424 993f 70d2 883f
00000170: 816b 4b3f 028f 633f d914 9c3f 31de 693f
00000180: 15ff 8f3f 559d 5f3f fc7c 873f 098b 513f
00000190: c1e1 683f 7ba9 8a3f 8687 7b3f 50dc 683f
000001a0: 2a9c 1e3f f6b3 663f a230 873f 0141 5a3f
000001b0: 0e0a 6b3f c8d0 663f 16c3 943f d701 813f
000001c0: e5ea be3f c2ae 313f 301d 8d3f 1840 9d3f
000001d0: d36d a63f be93 493f 8cf3 833f d209 6e3f
000001e0: a2fa 7e3f 750b 813f 97c7 9f3f bf9a a43f
000001f0: cac7 813f ceb0 553f 6108 6f3f 4fb9 703f
00000200: e00a 9d3f f9a1 953f 5519 433f cdd5 af3f
00000210: 2613 923f 4e9f 9b3f 181c 883f a6ba 923f
00000220: ce3c 353f 49c9 973f debf b13f 09da 573f
00000230: 1b42 893f a883 d93f 5fa3 5c3f 88fd 603f
00000240: 57f4 723f 4b80 cb3f 522b 6e3f ca41 9e3f
00000250: a94f a93f 81ab 763f b355 823f b924 a83f
00000260: b500 613f 3ca5 873f a469 973f e114 9d3f
00000270: 35f6 413f ee2d 6a3f 3d02 5c3f 87c6 833f
00000280: 19bd 813f a3bb 803f 77af 7f3f bed5 893f
00000290: 70b9 863f 32f8 383f 31b3 7b3f f428 823f
000002a0: 27dd 7d3f 34fa 703f 8f6e a23f ec9d 663f
000002b0: f4f7 3e3f b6f4 453f a443 9e3f 328f 733f
000002c0: 3655 7f3f 5adf 7e3f b8eb 6f3f e206 5e3f
000002d0: fa52 843f d48f 5f3f 2b7f 523f f369 983f
000002e0: df93 623f 8501 693f e3ac 873f e6b0 8a3f
000002f0: 508c b33f 99c0 653f 007c 923f ceed a03f
00000300: 5eed 873f ed10 933f 4629 6d3f c36f 7c3f
00000310: db67 a03f 0bb9 a23f 7b66 8a3f 2b55 713f
00000320: 4219 8d3f 2ece 613f 5720 633f cd36 af3f
00000330: 1732 6a3f 2618 613f aefe 703f 8041 393f
00000340: 2835 913f a1aa 903f 32fc 4c3f ed6e 853f
00000350: a7cb 333f 3072 ac3f 0e4e 6f3f 34c5 ae3f
00000360: 6973 723f 51cf 5c3f 9c01 773f 9bad c63f
00000370: 7fca 523f a58c 743f b546 ac3f 25fa 013f
00000380: a773 8c3f 633d 8e3f a333 733f 38f4 823f
00000390: 2c2c 853f 31dc 703f 710a 4b3f 4220 a73f
000003a0: f07f 683f 225c a23f 3d32 603f 3afe 8d3f
000003b0: 8771 8d3f c08f 833f e832 903f b741 9a3f
000003c0: e49b 853f 2f95 9b3f 4b37 2b3f fe5f 833f
000003d0: 3a13 ac3f 154c 4a3f e30e 863f d068 6d3f
000003e0: c381 b83f b213 643f d068 513f e5f4 5a3f
000003f0: 9f96 5c3f 6336 853f 669f 853f 076d 5e3f
0.88451725 1.0737175 1.0023012 1.3854775 0.85849303 1.3898644 0.57734835 0.77989167
1.5900639 0.85685813 1.1341112 0.73980325 0.9086247 0.9030321 1.3039367 1.2196887
0.93718785 1.0804341 0.7470376 0.9319011 0.89559853 1.0883553 0.86440265 1.3103513
1.0305765 0.9450125 0.92881906 1.0320581 1.0654835 1.1953489 0.951649 0.7360976
1.1960018 0.8700771 1.378445 1.2067087 0.8572801 0.87599564 1.1025727 0.863934
0.91467375 0.93522173 1.0244024 1.1334037 0.82133406 0.8488809 0.7051311 1.1359109
0.8830524 1.1582179 1.3444277 1.3310272 1.1234441 1.1278639 0.778282 1.1023194
1.0599194 1.1353401 0.97621876 0.67580104 1.0480268 1.2062173 0.81612426 0.9606251
1.085018 0.9271673 1.1735442 1.0636041 1.0004853 0.97000116 1.1769295 1.0849364
1.0789189 1.0799589 1.0106692 1.3279401 1.3493723 1.0398133 1.0618693 1.1792319
1.4303712 1.1120448 0.7338947 1.1364061 0.99403226 0.8753094 1.0135299 1.1703911
1.2601738 0.8065764 1.1964383 1.068922 0.7946091 0.8889009 1.2193862 0.9135466
1.124972 0.87349445 1.0585017 0.81852776 0.90969473 1.0832971 0.9825367 0.9096117
0.6195704 0.9011835 1.0561717 0.8525544 0.9181222 0.90162325 1.1622036 1.0078686
1.4915434 0.69407284 1.1024532 1.2285185 1.3002266 0.7874106 1.03087 0.92983735
0.99601185 1.0081621 1.2482785 1.2859725 1.0139096 0.8347291 0.9337216 0.9403276
1.2268944 1.1690055 0.7621053 1.3737122 1.1412094 1.2157991 1.0633574 1.146321
0.70795906 1.1858302 1.3886678 0.8431707 1.0723299 1.6993303 0.86186785 0.8788686
0.94904083 1.5898527 0.9303485 1.2363827 1.3227435 0.96355444 1.0182403 1.3136207
0.87891704 1.05973 1.1829114 1.2271997 0.7576631 0.91476333 0.85940915 1.0294961
1.0135833 1.0057262 0.99877113 1.0768354 1.0525341 0.72253716 0.983203 1.0168748
0.99165577 0.9413178 1.268999 0.9008472 0.74597096 0.77326524 1.2364392 0.95140374
0.99739397 0.9955956 0.93719053 0.8672925 1.0337822 0.8732884 0.8222529 1.1907333
0.88506883 0.91017944 1.0599636 1.0835235 1.4027195 0.89747006 1.1444092 1.2572572
1.0619314 1.148954 0.92641103 0.98608035 1.2531694 1.2712721 1.0812525 0.9427058
1.1023333 0.8820523 0.8872122 1.3688599 0.9148268 0.8792747 0.9413861 0.7236557
1.1344347 1.1302072 0.8007232 1.0424477 0.70232624 1.3472347 0.93478477 1.3653932
0.9470735 0.8625384 0.9648683 1.552173 0.82340235 0.95527107 1.3459078 0.50772315
1.0972794 1.1112484 0.95000666 1.023078 1.0404105 0.94085985 0.7931281 1.3056719
0.9082022 1.2684367 0.8757666 1.1093209 1.1050271 1.0278244 1.1265535 1.2051305
1.0438199 1.2154902 0.66881245 1.026367 1.3443367 0.7902234 1.0473293 0.92738056
1.44146 0.8909255 0.81800556 0.8552993 0.8616733 1.0407223 1.043927 0.8688511

encoder.1.bias f4 [256]
00000000: 023a cebe ebf6 6ebf 9d5c cabe 0afa d6be
00000010: 403f 0fbf 0781 63bf 888a b03d a4ae bfbd
00000020: b406 27bf 6ffb 8cbf 9bf3 47bf 154b d9bd
00000030: 7a0d 90be 5c74 97bf 67bd e1be a363 6bbf
00000040: 6d3f 04be e301 28bf 0047 5c3e f8e3 8abf
00000050: 194e 5bbf bf80 94be 5664 e9be cc32 5bbf
00000060: fe76 2dbf cc4a f3be 4d27 66bf 8b99 80bf
00000070: 83e6 ffbe d4d0 58bf 6fc6 3abf b225 3cbf
00000080: 5e46 54bf 3793 8dbe 137e 0dbf b3b2 34bf
00000090: e92f 08bf d868 afbf 26c3 17bf 5eac 85bf
000000a0: 5dbc abbf 9a26 77bf 6ee8 56bf 3e9e b8be
000000b0: 67e8 90be 6a9c a7bf 7cd1 f5be 9dfb e0be
000000c0: 2319 55bf 8b81 20be 7b6b 06bf 4e09 cbbe
000000d0: 7a30 b9bd e887 4dbf 13ea 35bd 563a f3be
000000e0: 5099 6cbf 7ff5 abbe 7d56 b0be bcdc 053e
000000f0: 1bb5 63be 40d5 5bbf ef98 49bf 856f 2fbe
00000100: e0d7 dfbe 451c 13bf ddab d9be 8509 48bf
00000110: 6de3 42bf f3e0 bfbe 13c6 05bf d686 04bf
00000120: 3d6a d1be 9b23 12bf 0c33 22bf 5f9a 27bf
00000130: a072 a8be 5247 8cbf 36c2 22bf 58dd 1fbf
00000140: d61c 03bf 4fca 1dbf f517 f2be f3e3 66bf
00000150: 4e2c 0bbf efe8 d53b 73af 8abe 136c d5be
00000160: f951 42bf 1621 aabc 6e63 19bf 93b6 b3be
00000170: bc81 2bbf 6309 a6be f802 09bf 1bf3 9fbf
00000180: cbdb 0ebf c863 c23d e519 acbe cbdf 34be
00000190: 7ab4 29be 25cb 6bbf 3419 e9bd a548 a8bf
000001a0: 8dc0 f33d 9c49 edbe d70c 82bf 08a7 f6be
000001b0: d6db 5fbe eefc d1be 0f3d 36bf b329 babe
000001c0: 9972 2bbf d7fc 52be 2044 9dbf 0711 28bf
000001d0: 6a78 ddbe f7db 70bd f410 a7be 11f3 93bd
000001e0: 5a1e cabe 9c1d 94bf 383c 7dbf 6a28 c6be
000001f0: 29f9 66be e97b 3dbe bd69 91be 06ee d3bd
00000200: 5fee d5be 0048 21bf 5fb1 2ebc 2276 f0be
00000210: 28b9 00bf a2c9 91bf f92f d3be 6f11 b3bf
00000220: 59be 36be ab79 48bf dd03 01bf 1d91 813d
00000230: 0f87 37bf 7960 39bf 0109 c8be 68d2 8fbe
00000240: 41b5 7bbf ab2d 34bf 9d5e 93be 662e 88bf
00000250: a13e 1abf b8e5 09bf 038b 98bf c02b a9be
00000260: 9594 11bf a6b7 01bf ff44 d2be c467 8ebf
00000270: df61 c0bd 051a 7cbf 0f5c 2abf 251b 99be
00000280: aa3d abbf 7408 29bf 8e1e 2bbf f0b4 e3be
00000290: 5ee7 74bf 65a3 88be f88b fabe 78c3 50bf
000002a0: dba5 bfbf 2da5 47bf 9b8e 03bf 8bfe 90be
000002b0: 04f7 11bd 7eac 99be d492 abbe 7774 abbe
000002c0: dcb2 15bf 01af a3bf cfec d5bd 2bc9 d6be
000002d0: 2532 6bbf e713 56bf 61ac 683e d7dc 14bf
000002e0: e057 a6bd 1fac c0bd 6fce 8fbf fb66 cebe
000002f0: 7f8c 56bf c067 4bbf 68f0 f1be 5e55 0bbf
00000300: 4068 abbf 4b0b 60be dfb5 b4bf 257e f3be
00000310: f860 dcbe ac89 a8be e720 9cbe a816 a9bf
00000320: da37 32bf e1cc ccbe 129b e7be f52c 78bf
00000330: fdf1 a6bf 7a29 76bf d040 a0bf 1c77 88be
00000340: 7167 d4be 011e 54bf 2c21 8dbf b31d c4be
00000350: 538c 77bf 0cee 5ebf 3963 1ebe 85d6 1cbf
00000360: 3341 1ebf 42d8 95bf 3039 92be 0560 2cbf
00000370: 9f4e 41bf 8e06 c7be 8a39 d5be d638 d6ba
00000380: 7fea c6be 0053 d83b e63a 18bf d6e6 80bf
00000390: 6a70 7bbe 29f5 e6be c884 a3bf 07f3 5bbf
000003a0: bc85 96be fde5 d3be 7941 63bf bd91 62bf
000003b0: 8733 11bf bb4c 0dbf eab8 dfbe 68f5 52bf
000003c0: 54d2 073d ab6d e1be 32c6 fcbe 6c76 11bf
000003d0: 8072 d4be 61f3 eebe 4e91 6bbf befc 86bf
000003e0: 85d6 07bf 266c 09bf 95d6 8abe 8eda abbe
000003f0: 4dc0 68bf 3b3d 97bf 3f89 41bf 968f 60bd
-0.4027863 -0.93345517 -0.39523783 -0.4198764 -0.55955887 -0.88868755 0.08620173 -0.09359482
-0.65244603 -1.1014231 -0.7810609 -0.10610024 -0.28135282 -1.1832385 -0.44089815 -0.9194891
-0.1291482 -0.6562788 0.2151146 -1.085082 -0.8566604 -0.29004475 -0.45584363 -0.85624385
-0.6775969 -0.47518003 -0.8990372 -1.0046858 -0.49980554 -0.84693646 -0.72959036 -0.7349502
-0.8291987 -0.2765138 -0.552705 -0.70585173 -0.53198105 -1.3703871 -0.5928215 -1.0443227
-1.3416859 -0.96543276 -0.8394841 -0.3605823 -0.2830231 -1.3094609 -0.48011386 -0.43941966
-0.8324148 -0.15674417 -0.5250775 -0.39655536 -0.09042449 -0.802855 -0.044412684 -0.47505444
-0.92421436 -0.33585736 -0.34440985 0.13072485 -0.22237055 -0.8587227 -0.78748983 -0.17132385
-0.43719387 -0.5746501 -0.42513934 -0.78139526 -0.76128274 -0.3747631 -0.5225536 -0.51768243
-0.40901366 -0.5708558 -0.6335914 -0.65469927 -0.32899952 -1.0959265 -0.6357759 -0.6244712
-0.51215875 -0.61636823 -0.47283903 -0.9019157 -0.5436448 0.006528012 -0.27086982 -0.41684017
-0.7590633 -0.02076773 -0.5991734 -0.3510023 -0.66994834 -0.32429036 -0.53520155 -1.2496065
-0.5580413 0.09491688 -0.33613506 -0.17663495 -0.16572753 -0.9210685 -0.1138176 -1.3147169
0.119019605 -0.46345222 -1.0160168 -0.4817431 -0.21861205 -0.41013283 -0.7118692 -0.3635994
-0.6697174 -0.20604263 -1.2286415 -0.6565098 -0.4325593 -0.058803525 -0.32630122 -0.072240956
-0.3947628 -1.1571536 -0.9892001 -0.38702708 -0.22555985 -0.18504299 -0.28400984 -0.10348134
-0.41783425 -0.6300049 -0.010662406 -0.46965128 -0.50282526 -1.1389658 -0.41247538 -1.3989695
-0.1784605 -0.7831065 -0.5039652 0.06326506 -0.7169046 -0.7241283 -0.3906937 -0.28090215
-0.98323447 -0.70382184 -0.28783122 -1.063916 -0.60251814 -0.5386615 -1.1917423 -0.3304119
-0.56867343 -0.5067085 -0.41068265 -1.1125417 -0.093936674 -0.984772 -0.6654672 -0.29903522
-1.3378193 -0.66028523 -0.668435 -0.44473982 -0.9566554 -0.2668716 -0.48934913 -0.8154826
-1.497249 -0.77986413 -0.51389474 -0.283192 -0.035635963 -0.30014414 -0.33510458 -0.33487293
-0.5847604 -1.2787782 -0.10445558 -0.41950354 -0.9187339 -0.8362412 0.22722007 -0.58149475
-0.081222296 -0.094078295 -1.1234874 -0.40312943 -0.8380813 -0.79455185 -0.47253728 -0.54427135
-1.339119 -0.21879308 -1.4118003 -0.47557178 -0.4304273 -0.32917535 -0.30493852 -1.3210039
-0.6961647 -0.4000006 -0.45235497 -0.969436 -1.3042599 -0.9615704 -1.2519779 -0.26653373
-0.4148517 -0.8285828 -1.1025748 -0.3830391 -0.9669849 -0.8708198 -0.15467538 -0.6126483
-0.61818236 -1.1706622 -0.28559256 -0.67334014 -0.7551059 -0.38872188 -0.4164546 -0.0016343843
-0.3885078 0.0066016912 -0.5946487 -1.0070446 -0.24554601 -0.45108917 -1.2774897 -0.85917705
-0.29398906 -0.41386405 -0.8877178 -0.8850363 -0.5671925 -0.55195206 -0.43695766 -0.8240571
0.03315957 -0.44028983 -0.4936996 -0.5682132 -0.41493607 -0.46670058 -0.9201859 -1.0545881
-0.53061706 -0.53680646 -0.27116838 -0.33565181 -0.9091843 -1.1815561 -0.75600046 -0.054824434

encoder.1.running_mean f4 [256]
00000000: f5ac b840 640b b3bf 0278 d43f 8315 f2c0
00000010: 8f1f cdbe 745a 4540 3885 9bc0 bc61 d13e
00000020: 8b45 a740 278b 36c0 f2be 93bf 1445 3740
00000030: f7a6 643f 9e80 1e41 920c 103f 06f9 8140
00000040: d778 cdbe 67fc 9440 3327 dabe 54ea 0cc0
00000050: bff4 c4be d11a 4640 7882 fd3e 6218 8940
00000060: c156 89bf 3e02 2340 91b2 7fbe 1294 4a40
00000070: 327d 26bf dbef 5fbd 4c83 42bf 3759 14bc
00000080: 0149 8dbe 6903 db40 59a2 d640 9034 5f3f
00000090: 8672 073f 0307 a33f eb2c 26bf c1a7 a5bf
000000a0: 5a1d 3340 52e7 8140 ea00 763f f5de 0c41
000000b0: 7c7e 2d40 9dda 1dc0 3e8f ab40 aee5 db3f
000000c0: 6063 1fbf 788a c540 ea25 ac40 2885 8ebf
000000d0: c18a c63f 1ad9 b2bc ba51 a740 e0c7 e33f
000000e0: 9d3b eebe fd45 813d 2638 8140 be4d 593f
000000f0: 2cfe 4540 c331 7f3f febb b33f 7765 a540
00000100: 17e1 8d3f 2125 d6bf cf21 a9bf ea51 5e3f
00000110: 60fe eec0 4e6a f740 f5fa df40 1d1f 0140
00000120: 6094 3ac0 af95 c13f 0631 1cc1 b066 8dc0
00000130: 334d cd40 b467 7640 220c 0ac0 38d8 b13f
00000140: 5bbd 6540 bac6 5cc0 3220 a540 3fdf 6f40
00000150: 9d2e 3440 f958 46c0 11c1 b23f c79b 2440
00000160: d571 2540 dedc 2f40 ae80 9c3f 9179 e040
00000170: c45b e4bf 6e1f efbf e864 b1bf 0a32 4c40
00000180: 2c31 0ac0 6935 56bf acc7 7cbf 3f06 083e
00000190: b729 32c0 a949 aebe 7efb c03f 1edd a43e
000001a0: f105 3abf f768 ea3f b077 b83e 7d49 89c0
000001b0: 3ece 4f3f 5414 8140 0f49 2440 5fba b8bf
000001c0: 5827 ec40 c2a0 00c0 2ab2 1340 fdad 6040
000001d0: 463c c4c0 e4b3 b23e e5f8 94bf 5b4f 32bf
000001e0: 921d a740 1733 a23f e0e0 40c0 2798 e540
000001f0: f382 fbbf d3b0 c340 8bfd 1fc0 5c1f 94c0
00000200: 45ac 0240 bc8c 2640 0b35 83c0 9adf a440
00000210: 78d6 4c40 35d6 21bf 5c37 0dc0 c4ce 0b40
00000220: b969 bfbf a772 5b40 73c2 4d40 7770 9540
00000230: 65a0 6f40 b5ea 0641 472c 403f dafa 4fc0
00000240: b27e 9d3f fa30 0e41 8eaf cf3d fea6 66c0
00000250: e0be 0b41 391e bebe 144e bc3f ff5a 76c0
00000260: 95c6 033f bac2 143f 5d0d aa40 56c9 1e40
00000270: f64f 31be cdf5 6d40 3640 02c0 98f9 0dc0
00000280: 7b7a d43f cdd7 e4c0 079c 013e 4696 12c1
00000290: a194 223f 1599 3c40 4317 9340 fc1e 77c0
000002a0: 5aa8 4440 2b19 683f f5c2 c83f 617f acbf
000002b0: 49fb b940 26a9 ca3f e74b d3bf 7f65 c140
000002c0: 8243 173f 132b fa3f d059 2e40 e4da fd3e
000002d0: bb09 db3f 6dda a5bf 16a7 81bf 6e13 ee40
000002e0: bbec 1940 f78a 35c0 e14e 823f 0789 2dc0
000002f0: 90e5 8740 ebf3 f8c0 387c d1bf 33c9 3cbe
00000300: 3873 3940 32ed 0441 b828 be3e 0a32 e2bd
00000310: 9356 533f f899 c240 98c8 8bbf 4ff9 823f
00000320: 85c3 a740 2e26 17c1 e289 583f 6218 ce3f
00000330: 507f 6440 2497 3cc0 88ed 62c0 a9b6 f13e
00000340: 886d ddbd 231b cabf ed36 cd3f 4498 b640
00000350: 6f57 fdbf fa61 8a40 190d 76c0 4667 b23f
00000360: fdbf 00c1 c30c 523f c869 b93f 190f e03f
00000370: 4436 3cc0 67d9 5140 a5b4 01c1 3cc2 5840
00000380: 28bd 5f40 1c6f 1540 4462 4440 acba 5fbe
00000390: b39f 83bd e39f 9ec0 6136 4dbf ee70 2840
000003a0: 73b9 66bf 06dc 32c0 bd0c 82c0 7128 4f40
000003b0: ecc6 56bf 209b e23e 9410 e8bf 8b20 b840
000003c0: c338 a340 08e3 a73f 44c3 0bbf 3948 21bf
000003d0: 227d a63f 494e 8f3f 6c32 fdbf 9c03 f93e
000003e0: 4d02 4340 c1f6 88be 0b59 57c0 de03 e83f
000003f0: 7ee4 10bf 0160 b33f 1377 14bf a07a 2540
5.771113 -1.3987851 1.6599123 -7.565126 -0.4006314 3.0836458 -4.860012 0.40894878
5.227239 -2.8522432 -1.1542647 2.8635912 0.8931727 9.906401 0.5626918 4.0616484
-0.40131256 4.655811 -0.42608032 -2.2018023 -0.38467976 3.0953867 0.49513602 4.2842264
-1.07296 2.5470119 -0.24970461 3.1652875 -0.6503478 -0.054672103 -0.75981593 -0.009054474
-0.2759476 6.8441663 6.707318 0.8718958 0.52909124 1.2736515 -0.6491229 -1.294182
2.7986665 4.0594873 0.96095145 8.804433 2.710845 -2.466468 5.3612356 1.7179468
-0.6226101 6.173153 5.379628 -1.1134386 1.5511094 -0.021832038 5.2287264 1.7795372
-0.46529856 0.06312177 4.038104 0.8488425 3.0936384 0.99685305 1.4041746 5.168636
1.1084317 -1.6730081 -1.3213443 0.8684374 -7.4685516 7.7317266 6.9993844 2.017524
-2.915306 1.5123805 -9.761969 -4.418785 6.4156737 3.8500795 -2.1569905 1.389411
3.5896823 -3.4496293 5.16018 3.7480009 2.815345 -3.0991805 1.3965169 2.572008
2.5850728 2.7478557 1.222677 7.0148396 -1.7840505 -1.8681467 -1.3858919 3.1905541
-2.1592512 -0.8367525 -0.98742175 0.13283633 -2.783796 -0.34040573 1.5076749 0.3219995
-0.72665316 1.8313283 0.36028814 -4.2902207 0.81174076 4.0337315 2.5669591 -1.4431876
7.3798027 -2.0098119 2.3077493 3.5106194 -6.1323576 0.3490287 -1.1638457 -0.69652337
5.2223597 1.2671841 -3.0137253 7.1748233 -1.9649338 6.115335 -2.49985 -4.628828
2.0417645 2.6023397 -4.100225 5.152295 3.2005901 -0.6321748 -2.2065039 2.184495
-1.4954139 3.4288728 3.2149932 4.6699786 3.7441647 8.4323015 0.7506756 -3.2496858
1.2304289 8.886957 0.10140906 -3.6039424 8.7341 -0.37132433 1.4711328 -3.849304
0.5147489 0.5810963 5.3141313 2.4810386 -0.17315659 3.7181275 -2.0351691 -2.218359
1.6599878 -7.151343 0.12657176 -9.161688 0.6350804 2.9468434 4.5965896 -3.8612661
3.0727754 0.90663403 1.5684496 -1.3476373 5.8119245 1.583287 -1.6507539 6.0436397
0.59087384 1.9544395 2.7242317 0.49581063 1.7112345 -1.2957283 -1.0129116 7.439872
2.405074 -2.8366067 1.0180322 -2.7114885 4.246773 -7.779775 -1.6366034 -0.18436126
2.8976574 8.307909 0.3714044 -0.110447004 0.82553977 6.081295 -1.0920591 1.0232333
5.242617 -9.446821 0.8458539 1.6101191 3.5702705 -2.946725 -3.5457478 0.4720967
-0.10811907 -1.5789531 1.6032387 5.706087 -1.9792308 4.32446 -3.8445494 1.3937767
-8.046872 0.8205072 1.4485407 1.7504607 -2.940812 3.2788942 -8.106603 3.3868551
3.4959202 2.3349066 3.0684977 -0.21848553 -0.064269446 -4.9570174 -0.801611 2.6318927
-0.90126723 -2.7946792 -4.064055 3.2368433 -0.8389728 0.44258976 -1.8130059 5.7539725
5.100679 1.311616 -0.54594827 -0.6300083 1.3006938 1.1195766 -1.9781013 0.48635566
3.0470154 -0.26750758 -3.3648098 1.812618 -0.5659865 1.4013673 -0.5799419 2.5856094

encoder.1.running_var f4 [256]
00000000: 3e60 663e 2753 2c3d b2cf c03d 6449 2b3f
00000010: 66e2 1c3e f337 f33e 7e8f fc3d 6456 6e3e
00000020: 8edf cd3f 10ef bd3d 201a 623e 44fd 4d3e
00000030: 7b5e 8e3d b239 3f3f d0c1 c83c 2ce8 7e3e
00000040: f25c 0f3e 49b8 203f 32e0 673d 749e d93d
00000050: 435d cd3d 234e 983e 1d5c d13d f7f2 903e
00000060: cf35 8d3f b8d8 303e 96e7 4c3f fcfb 083f
00000070: ee6c 043f 2dae f63d e10c 3b3e 0f81 263d
00000080: df9e 1f3e 9347 ed3e 5ddf a23f 6cef 233e
00000090: af4c 133e ecb7 833f c1f2 bb3d 6e89 0d3e
000000a0: 8e12 9b3e d855 993e 13b5 c83f 6e24 013f
000000b0: c1ba d63e d39a fd3e b7ef ad3d 9199 4d3d
000000c0: a561 603d ae50 373e 670f d23e a6ef dc3e
000000d0: 7433 0a3e df8b f13e d2b1 643e e4ad f23d
000000e0: 6c92 c83e 702a 463d 5423 d73d 9936 bf3d
000000f0: 0411 0440 9ba9 7a3d 22e5 d43d cf72 a83e
00000100: 8d7e 073e 14e2 df3d d5e0 513d 1224 dd3d
00000110: 9570 6440 ee11 333f c052 b63e e1fa 403e
00000120: 6bd4 603e de15 ab3e 12d8 8640 b3a9 1b3e
00000130: 080a 2b3f 87c3 bc3d 14f2 403e 7700 353e
00000140: 01ab 7e3f f762 0a3f 2bc6 ee3d 09b6 063e
00000150: 607b 123e b22b 083e 182b a83d 43a8 4a3e
00000160: 35c3 233e 02c0 0f3e 72fa 8e3d 932f 1d3f
00000170: 607c db3d 3ab6 8c3d 1307 5a3e d43b 4f3e
00000180: 4d8b 093e 08f1 193d cfc1 363f 5506 7f3c
00000190: 2390 383e edc8 1d3e 867c 103e da6a 0b3e
000001a0: 670d a73c 4be0 cc3d 99da 5f3e 30f5 6e40
000001b0: e4a3 223e 0ba8 fb3e 7e7d 873e f557 fc3d
000001c0: e9fa ae3f 8425 fc3e add8 943e ae9b 713e
000001d0: ee24 ab3e 1657 6a3e 0ae0 233d d961 b63d
000001e0: f5fb 1b3f d8fb a83d 9eef b93d 9a1c c13f
000001f0: 1124 be3e c7de b63d 0f39 1b3e c35a 053e
00000200: 36df 273e b85f 2a3e 4b80 293e f907 a43f
00000210: e924 623e 9f9a 683e db25 ec3e 0321 993d
00000220: 74b3 133e 2599 af3f 9b51 ff3e 4e28 483e
00000230: ff8e 773e 16a7 9f3f caa1 ea3e dda8 383f
00000240: ef30 203e a1e9 6c40 90cf 413e ef13 cd3d
00000250: 7124 5a3f 6f3a 313e c600 cf3e f021 143e
00000260: b961 923d 4447 2b3e 7603 d43e 2a4f 913d
00000270: 8fe5 123e 814a 873e 09fa 8c3d acaa 4d3e
00000280: ceaf 8c3d c500 3e40 0360 c33d ed25 133f
00000290: e344 113d 7ffd 873d a2e9 263f c1b9 a83f
000002a0: b823 293e e8e5 0b3e 9aa1 503f 16e8 463e
000002b0: 6c3a 3f3e 4b12 ba3d 8dc7 813d fb98 dd3d
000002c0: c496 493e 5c40 9a3e 7c55 8f3e 0b40 0a3f
000002d0: b456 843d 8053 c53d c13b 6d3d d578 2f40
000002e0: 9e78 173e 85d2 0f3d f242 183e 84a3 ef3c
000002f0: 2415 ea3e cb66 ee3f d4e8 a03e 280a 763e
00000300: cd86 963e 5815 943f f4af 8f3e b0bd 3b3d
00000310: fff3 c43d d437 e33f 0d0a 833d 4d97 483f
00000320: 4724 b13e 8851 b540 db13 053e 4b26 8d3e
00000330: 8b47 2b3e c316 943d d0e5 db3e df42 b23d
00000340: 5345 933e dd57 d33d c9be 523e 4c2e 023f
00000350: 8c56 e93e b161 823e 2402 d43d 479f 9f3d
00000360: 566d 0c40 2d4e 233e 2a4d 313d 88cd 273f
00000370: 9f51 483d f520 b23d 5892 7b3f 47d7 003e
00000380: 52cc cf3e 6d26 e33d 2ed8 333e 7cb2 ea3e
00000390: 4f57 803e 4a38 083f 044b be3f c028 573e
000003a0: 6a88 ee3d d433 193e 5a74 953e 4fb1 043f
000003b0: ffa7 103e d0f6 e93d 12d7 a53d 9ab7 843e
000003c0: a676 9f3e 6c4d a13d 57b2 603d 23f2 043e
000003d0: d9bb 853e 5644 f93d ee28 793e 71a5 c23d
000003e0: be13 023e 4773 4e3e 9ba7 c93d 995c 023e
000003f0: e2ed 1a3f 9cc4 873d 7149 083f 0536 133e
0.22497651 0.042071488 0.09414615 0.6690886 0.15320739 0.47503623 0.123320565 0.23275143
1.6083848 0.09274113 0.22080278 0.20116144 0.069516145 0.7469741 0.02450648 0.24893254
0.140003 0.62781197 0.056610294 0.10625926 0.10027554 0.29747114 0.10222647 0.28310367
1.1032046 0.17270172 0.8004087 0.535095 0.51728714 0.1204494 0.18266632 0.040650424
0.15587948 0.4634367 1.2724415 0.16009301 0.14384721 1.0290504 0.09177161 0.13821957
0.30287594 0.29948306 1.568026 0.5044621 0.41939357 0.49532184 0.084929876 0.05019528
0.05478062 0.1790187 0.41027376 0.43151587 0.1349619 0.47177026 0.22333458 0.11849573
0.3917421 0.048380315 0.10504785 0.093365856 2.0635386 0.061196905 0.10395266 0.32900092
0.13231869 0.10931793 0.051239807 0.107978955 3.5693715 0.69949234 0.35610008 0.18845703
0.21956031 0.3341512 4.213876 0.15201454 0.6681218 0.092169814 0.18842345 0.17675959
0.9947968 0.5405726 0.11658891 0.13155378 0.14304876 0.13297918 0.082113445 0.19790749
0.15992434 0.14038089 0.069813624 0.6140072 0.10717082 0.068706945 0.21291761 0.20237666
0.13432045 0.03758338 0.7138948 0.0155654745 0.18023734 0.15408678 0.14110002 0.1361498
0.020392133 0.10003718 0.21860732 3.733715 0.15882832 0.49151644 0.2646293 0.12321464
1.3670322 0.49247372 0.2907156 0.23594543 0.33426613 0.22884783 0.040008582 0.08905382
0.6093133 0.082511604 0.090789065 1.5086854 0.3713689 0.0892921 0.15158485 0.13022904
0.16393742 0.16638076 0.16552846 1.2814933 0.22084393 0.22715233 0.4612263 0.074769996
0.14423925 1.3718611 0.49866948 0.19546625 0.24175642 1.2472866 0.4582656 0.72132665
0.15643667 3.7017596 0.18926835 0.10013568 0.85211855 0.17307447 0.40430278 0.14466071
0.07147545 0.16726404 0.4140889 0.070951775 0.14345382 0.2642403 0.06883628 0.20084637
0.068694696 2.968797 0.09539797 0.57479745 0.035466086 0.066401474 0.65200245 1.3181688
0.16517532 0.13661921 0.81496584 0.19424471 0.1867463 0.0908552 0.063368894 0.10820194
0.19686419 0.30127227 0.27994907 0.5400397 0.0646185 0.09635067 0.057918314 2.74175
0.14792106 0.035112876 0.14869288 0.029252775 0.45719254 1.862512 0.31427634 0.24027312
0.2939972 1.1569014 0.2806393 0.045835197 0.09616851 1.7751412 0.063984014 0.78355867
0.3459799 5.6662025 0.12995856 0.27568278 0.1672651 0.07230904 0.4294877 0.08704161
0.28763828 0.10319493 0.20580591 0.50851893 0.45573843 0.25465158 0.10351971 0.077940516
2.1941733 0.1594779 0.04328648 0.6554799 0.048905965 0.08697692 0.9827018 0.12582122
0.40585572 0.110913135 0.17562935 0.45839298 0.2506661 0.5321089 1.4866643 0.21011639
0.11647113 0.14961177 0.29190332 0.5183305 0.14126585 0.11424029 0.08097662 0.25921327
0.3114521 0.07876095 0.054857578 0.12982993 0.2611988 0.12171237 0.2433202 0.09504212
0.12702844 0.20161162 0.09846421 0.12730636 0.6051923 0.06629297 0.5323706 0.14376076

encoder.4.weight f4 [128, 256]
00000000: 3527 2bbe bbd5 bd3d 2345 d03e 1524 a2bd
00000010: 37d9 2f3e 9156 19be 6ef0 193d 1d13 0dbe
00000020: 3ddc 13bd f0ff e83e 3def 89be af4a 4ebd
00000030: e212 ea3e cbe4 55bf a0cc 91bf dd69 71be
00000040: 7e1c 873d f4a3 e6be 5545 b43a 7930 893f
00000050: 530c cdbe e2d1 d3be 921b dc3e 9697 663e
00000060: 5fc0 8cbf 3715 d83d 9085 9bbf a6d3 1abf
00000070: 3817 8a3e aba1 b73e 0ad2 fb3e 9270 3b3e
00000080: 934e 393c 318f c33e 0e44 a63e 3df7 2c3f
00000090: dfe0 443d 2c6b 633d 3654 953d 43a1 773f
000000a0: d480 4f3f 0a24 cfbe c783 21bf 868a 583e
000000b0: 5efb 7dbd de5f e4be 13eb 683c 9767 7dbe
000000c0: 699d a63e 6783 3e3e b118 973f 7cb7 f2be
000000d0: bb0c eb3d 5f06 b9bd afc0 573e 4feb 953d
000000e0: b373 a6bd 2869 9c3e 28de 70bf ec8a 40bd
000000f0: 86e4 6dbe da1c 843e bb0e 05bd b588 053e
00000100: d277 253d cd77 49be c1eb 2abd a9ed c23e
00000110: 1c8f 48bf ce96 143e e7ad f8bd de86 fd3d
00000120: 4693 b03e 4e12 d6bd a012 20bf cbb1 f9bd
00000130: 8992 59be d3ed 1fbf 137b 663e c172 44bf
00000140: c8a0 293f 6d79 60bf 922c 283f e328 a63e
00000150: 7397 a7be 4c1a b1bd 67bd dabe 5029 36bf
00000160: ebff 0a3f fed6 80be dc0f 70be 703d cc3e
00000170: 9610 f23d f22e fc3d a9ee edbe 55c6 243f
00000180: 3038 b4bd e6ab 89bc 552f d8bd fa8c 1a3f
00000190: 5c86 9bbe 57c0 0bbe eafc b13d b932 193e
000001a0: e55f 023f bcdc f33c 2c33 0dbd d38f 33bf
000001b0: d7f4 32be 9bf2 adbe c64f 083f 7282 ef3d
000001c0: 282d 9b3d 65ba fc3d 42ec 073f cbab 94be
000001d0: 44fd d33e 1908 b7bd 99b6 463e 47e0 98be
000001e0: 66ae 8ebd 7c97 193e c6ec d9bd 3cb3 95be
000001f0: f256 b23c 2696 353e bcfa 88bd 5409 5e3e
00000200: 135f 19bf 8e85 3dbf 4e25 1a3e c0da 933e
00000210: 76e5 533d c6e7 173f 0312 853e bd68 523f
00000220: 1eea 60bd 10ac bc3c 96da f53e f93d 21be
00000230: dd69 08be fb50 693e b983 373f 31e9 a9be
00000240: a047 123f 9e2d 343e 1d7a e73c c35b bd3e
00000250: 27bb 9d3d b760 be3e 7be4 ae3e a1d5 2fbe
00000260: 081e fc3e b4b1 efbd 36b1 2cbf c9b3 25be
00000270: 35e5 a53e 162c 9c3d b8ac 89be 688f 543d
00000280: 1565 c2bd 2d76 33bf 4e1f abbe 9ce4 39be
00000290: a26d fc3e 7114 d23c 25e4 d43c 2161 64bf
000002a0: 5f8f 183f 46d3 42bf 7f76 54be 5813 513e
000002b0: 4742 703c 4633 0c3f 1a49 e33e 1a8a cc3e
000002c0: 96a0 703e 643e 933e 0a00 863e e4a9 1e3f
000002d0: b70f d9be 6115 05be c330 e13d d56f ba3e
000002e0: 4558 86bb 4b3e 653c 1ba6 113e 71a8 d03e
000002f0: da30 073e bc7d 4cbf 23d1 b9be 8e0f 80be
00000300: 46bc 823e 927a 2bbd 3c17 3abd 8102 5cbe
00000310: 8e0f 03bd 7103 85bd df4c 573e c4a2 25bf
00000320: 3ba7 473e 18be f8bd 68a1 c7be 95b3 51bc
00000330: bd30 5a3f 2f11 c4bd bdb6 88be 5923 d53c
00000340: 1cad 123e 48d3 013f 648f 57bf a432 79be
00000350: cb24 373e 8531 42be 7656 cbbe 1b7a b0bf
00000360: a896 48bf e86b 323f 1b5f d3be 8aa1 fa3e
00000370: fae3 fdbd 4ad8 debe 0d92 34be 406a 833e
00000380: 4a63 683e 34ed bbbd 4350 70be 0c3c 6dbf
00000390: 9e17 37be 650e a43d 7aa3 013f 88d3 76bc
000003a0: b0ad fe3d 6c7d 463e 4405 02bf 0b17 9dbe
000003b0: dce3 94bb c677 f7be cb55 4fbf 093a cdbf
000003c0: 3ab5 57bd e688 77bf 759b 8a3e 9a53 a6be
000003d0: 28e0 57bf d8e4 20bf 8b19 04bf 9788 f83e
000003e0: ae80 bcbf 09c8 943e dfa4 0abf 39ec 4abf
000003f0: bead 71bf aae6 9f3e a59f cbbc 3f1a aa3e
-0.16714175 0.092692815 0.40677747 -0.07917038 0.17172705 -0.14974429 0.037582807 -0.13776822
-0.036098707 0.45507765 -0.26940337 -0.050364193 0.4571753 -0.83552235 -1.1390572 -0.2357554
0.06597231 -0.4504696 0.0013753573 1.0717918 -0.40048465 -0.41371065 0.42989784 0.22518763
-1.0996207 0.105509214 -1.2150135 -0.604792 0.2697084 0.3586553 0.49183685 0.18304661
0.011310237 0.38195184 0.32473797 0.67564756 0.048066016 0.05552213 0.072914526 0.9673044
0.8105595 -0.40457183 -0.630917 0.21146592 -0.0620073 -0.4460439 0.014216202 -0.24746548
0.3254197 0.18604814 1.180441 -0.47405612 0.114770375 -0.09034418 0.21069597 0.07320272
-0.081275366 0.30548978 -0.94088984 -0.047007486 -0.23231706 0.25803262 -0.03248475 0.13040431
0.040397473 -0.19674607 -0.04172874 0.38071945 -0.7834337 0.14510652 -0.12142544 0.123792395
0.3448736 -0.1045271 -0.6252842 -0.121921144 -0.21247305 -0.62472266 0.22507887 -0.767376
0.6626096 -0.8768528 0.6569301 0.3245307 -0.32732734 -0.08647594 -0.42722628 -0.7115679
0.5429675 -0.25164026 -0.2344355 0.39890623 0.1181957 0.123136416 -0.46471146 0.6436513
-0.087997794 -0.0168056 -0.10555903 0.60371363 -0.30375946 -0.1364759 0.08690818 0.14960755
0.50927573 0.02976834 -0.03447263 -0.70141333 -0.17476211 -0.33974156 0.53246725 0.11694802
0.07576972 0.123402394 0.53094876 -0.29037318 0.41404164 -0.089370914 0.19405593 -0.2985861
-0.069668576 0.14999193 -0.10640864 -0.29238307 0.021769974 0.17733058 -0.06688449 0.21683246
-0.59910697 -0.74031913 0.15053293 0.2887783 0.051732503 0.59338033 0.25990304 0.8219107
-0.05491077 0.023031265 0.4801833 -0.15746297 -0.13321634 0.22784798 0.7168537 -0.33185723
0.5714054 0.17595527 0.02825647 0.3698407 0.07701712 0.37183163 0.34158692 -0.17171337
0.49241662 -0.11703816 -0.674579 -0.16181864 0.32401434 0.07625596 -0.26889586 0.051894575
-0.09491936 -0.70102197 -0.3342232 -0.18153614 0.49302393 0.025644513 0.025987694 -0.89210707
0.59593767 -0.7610363 -0.20748328 0.20417535 0.014664239 0.5476574 0.4439171 0.39949113
0.23498759 0.28758538 0.26171905 0.6197798 -0.42394802 -0.12996437 0.10995629 0.36413446
-0.004099878 0.013991903 0.1422352 0.4075351 0.13202229 -0.79879355 -0.3629237 -0.25011867
0.25534266 -0.04186494 -0.045432314 -0.2148533 -0.031997256 -0.06494797 0.21025418 -0.64701486
0.19497387 -0.121456325 -0.3899033 -0.012799163 0.8523062 -0.0957359 -0.26701918 0.026017832
0.14323848 0.50713015 -0.8420317 -0.24335724 0.17885129 -0.18964203 -0.39714402 -1.3787264
-0.78354883 0.696959 -0.41283497 0.4895137 -0.12396999 -0.4352439 -0.17633839 0.25667
0.22694126 -0.09176102 -0.23468117 -0.9266975 -0.17880103 0.08010558 0.5064007 -0.015065081
0.12435472 0.19383782 -0.50789285 -0.30681643 -0.0045437645 -0.48333567 -0.80990285 -1.6033336
-0.052663065 -0.96693265 0.2707173 -0.32485658 -0.8432641 -0.6284919 -0.51601475 0.4854171
-1.472677 0.29058865 -0.54157823 -0.792667 -0.94405735 0.3123067 -0.024856398 0.3322315

encoder.4.bias f4 [128]
00000000: 929e e9bc c407 8ebb f868 e9bb d930 5f3d
00000010: 0740 5cbd c905 06bc 9288 133d 0d23 623d
00000020: 69e1 473d fd6c 0abc 5a4a 253d 11a8 4ebd
00000030: 1464 1e3d 4b42 67bc 4863 0dbc a8a3 a038
00000040: 0c46 7cbd 5e18 adbc 4617 d63b cb7c 50bd
00000050: 28ca 06bc b6ae 653c ade8 e1ba 43ff d33c
00000060: d7d5 de3c e2be 643d c52d 203b 7d48 223d
00000070: ca69 95bc da94 2d3c f0dd c53c 15c4 5ebc
00000080: c56d 2b3c fcbc e0bb 1289 7fbc 3d6a 393d
00000090: 2f61 2ebd c4fa 693d 914b 493b a3d4 5b3b
000000a0: 160c 3f3d 2202 713c 936d 53bd 7117 eabc
000000b0: 5e5a cbbc 1006 27bc 7927 3ebd 0815 f63c
000000c0: 0f88 4abc 163c 733c c0b4 7abc 0af8 6c3d
000000d0: 7702 6cbd 5384 2ebd efc0 08bd f80a 9c3c
000000e0: e0ba bf3c 3051 e23c 9962 a2bc d153 3c3d
000000f0: 399c 9bbc b42b 2bbd 0024 14bd 31b9 29bc
00000100: 24e9 c5bc 8f0c 04bd f06c c9bc 1107 2abd
00000110: 3b35 ebbc 0f21 e33c 4ecd 9abc 33ee 1ebd
00000120: 088f f2ba ec25 5cbd 9da5 1a3c 470c 483d
00000130: 06ce 39bd f221 a03c 744b 37bd 30c2 2dbd
00000140: b1ff 2abd 681f 0fbc 7178 593d 3e8b 42bc
00000150: d2cc 67bd 336e 05bd f14d 003d c10d 143d
00000160: 4408 023d 48f3 ef3c d27b 003d bdfb 5f3d
00000170: 0aca 7a3b c798 443c 3b0b 6a3d 924c 5cbd
00000180: 5faa fa3c c348 243d dffa 10bc e74a 89bb
00000190: 3340 2abd c77f 9abc a0f9 703d 6389 6abc
000001a0: 2b16 02bb f34a 63bd 0e88 65bd b38c 20bd
000001b0: 0d28 c1bc bbce 6abd e004 1e3d cd79 0dbd
000001c0: 1f42 6ebd 1b49 473d efbc 2a3d 0ba2 613d
000001d0: c524 173d ed2c 32bd 9b43 1c3d e4d2 cebc
000001e0: 48a4 5f3b 9bbf e23c 4286 c9bc b7b2 bcbb
000001f0: 1787 7dbc b1b6 543b 3167 5fbc a810 12bd
-0.028517995 -0.004334422 -0.007123109 0.054489944 -0.053772 -0.00818009 0.036018915 0.05520921
0.048798952 -0.008448836 0.04035411 -0.05045325 0.03866966 -0.014114927 -0.0086296275 7.659878e-05
-0.06159024 -0.021129783 0.006533536 -0.05090026 -0.008226909 0.014018705 -0.001723548 0.025878554
0.027201576 0.055846103 0.0024441343 0.03961991 -0.01823892 0.010594571 0.02415368 -0.013596554
0.010463183 -0.006858466 -0.015596645 0.045267332 -0.04257315 0.057123914 0.0030715207 0.003354349
0.046642385 0.014709981 -0.05161817 -0.02857563 -0.024823364 -0.0101943165 -0.046424363 0.030039325
-0.01236154 0.014845869 -0.015301883 0.057853736 -0.05761954 -0.042606663 -0.03338712 0.019048199
0.023404539 0.027626604 -0.019822406 0.04597837 -0.018995391 -0.041789725 -0.036167145 -0.0103590945
-0.024159022 -0.03223854 -0.024588078 -0.041510645 -0.028711906 0.027725725 -0.018896725 -0.038801383
-0.0018505761 -0.053747103 0.009438899 0.048839834 -0.045362495 0.019547436 -0.044749692 -0.04242152
-0.041747753 -0.008735515 0.053093378 -0.011874018 -0.056591816 -0.032575797 0.03132433 0.03614593
0.031746164 0.02929081 0.031368084 0.054683436 0.0038267397 0.011999316 0.057139616 -0.05378396
0.030598817 0.040108453 -0.008848875 -0.0041898373 -0.04156513 -0.018859757 0.05883181 -0.014314982
-0.001984964 -0.0554914 -0.056037955 -0.03919668 -0.023578668 -0.05732606 0.038578868 -0.034539986
-0.058168527 0.048653703 0.041684087 0.055086177 0.0369003 -0.043499876 0.03815041 -0.025247045
0.003412502 0.027679255 -0.024600152 -0.005758609 -0.015474102 0.0032457525 -0.013635443 -0.035660416

encoder.5.weight f4 [128]
00000000: 563e a53f 5879 933f 99d1 803f 48c3 7f3f
00000010: b75a 713f 44d7 853f acd2 c13f 90a0 8d3f
00000020: 1419 663f c7cc 9b3f 6c94 413f 4b01 b43f
00000030: 3c96 c53f 44f2 3b3f e8ad ad3f b5d3 6d3f
00000040: c62e ab3f 0800 2d40 f9c5 a53f a5dd 613f
00000050: cad4 1b3f f509 943f 21e2 cc3f 1598 c23f
00000060: 6502 863f 0566 9f3f 5a75 d43f 8845 9a3f
00000070: 4ead 713f ff9f 913f 9f8e 8e3f d94d 873f
00000080: 9c27 393f 4a6c 803f b7b4 913f 7989 893f
00000090: c0d3 813f c804 883f 9394 983f 2e62 8a3f
000000a0: 957b 923f d527 a73f 2295 843f d820 933f
000000b0: b2f9 8f3f 240f 863f 533e 613f af5f 9f3f
000000c0: 805d 743f 4031 8c3f 2f66 703f 35b5 a73f
000000d0: f94c 4a3f ef4e 883f 8e15 913f cadf 893f
000000e0: 393b 833f 3a77 623f ecb8 aa3f 20fa 9c3f
000000f0: 2a65 4c3f 98f7 553f 6bbc 693f cc78 963f
00000100: 1215 a53f fcbf 763f 0ef7 b53f 574b 8a3f
00000110: 7799 923f df5a 713f 4393 893f c4eb 893f
00000120: 4d6d 533f 798c 9b3f c7c6 813f d0d6 803f
00000130: f4d2 a73f c43c 713f 9848 883f 7b19 b93f
00000140: 3507 4b3f 23c8 f33f 1198 6b3f 0dc3 9f3f
00000150: a9a4 893f c3b4 203f f37b 593f 9be2 723f
00000160: 98a7 833f 0cd2 553f f0fe 993f 3888 c03f
00000170: d4d8 313f 27c2 863f 7094 a43f b64c 8a3f
00000180: b787 ad3f 46ba 713f 98a4 913f 5e6b b03f
00000190: d142 8f3f 94ca 9b3f 6d38 9a3f 787b 913f
000001a0: f344 553f c98e 843f d450 8c3f 47ce 7e3f
000001b0: f6ee a63f 273c 743f 6c8c 793f aa80 963f
000001c0: 1ea7 843f 94b1 723f b018 843f b6da a43f
000001d0: 9c3a 923f a931 b43f 95f4 543f 17eb 4c3f
000001e0: a8d6 8e3f 9305 833f 17f5 663f 7d1f 733f
000001f0: 83bc 803f a095 c73f 86c6 8f3f c40e 9b3f
1.2909648 1.1521406 1.0063964 0.9990735 0.94279045 1.0456319 1.5142417 1.1064625
0.89882016 1.2171868 0.756171 1.4062895 1.5436473 0.73416543 1.3568697 0.92901164
1.3373649 2.703127 1.2951041 0.8822883 0.60871565 1.1565539 1.6006509 1.5202662
1.0469481 1.2453009 1.6598313 1.2052469 0.94405067 1.1376952 1.1137275 1.0570632
0.72326064 1.0033047 1.1383275 1.0745078 1.0142746 1.0626459 1.1920341 1.0811212
1.1443964 1.3059031 1.0358012 1.1494398 1.1248076 1.047337 0.87985724 1.2451075
0.9545517 1.095253 0.9390592 1.3102175 0.790237 1.0649089 1.1334703 1.077142
1.0252448 0.88463175 1.3337684 1.2263832 0.79841864 0.83580923 0.9130313 1.1755614
1.2897055 0.96386695 1.421602 1.0804242 1.1453084 0.94279283 1.0748066 1.0775075
0.82588655 1.2152244 1.0138787 1.0065556 1.3111253 0.94233346 1.0647154 1.4460901
0.7930787 1.9045452 0.9202891 1.24814 1.0753375 0.6277582 0.84954756 0.9487702
1.028552 0.8352363 1.2030926 1.5041571 0.6947148 1.0528 1.28578 1.080466
1.3557042 0.94424856 1.1378355 1.3782766 1.1192266 1.2171197 1.204847 1.1365805
0.83308333 1.0356075 1.0962167 0.99533504 1.3041675 0.95404285 0.9747989 1.1758015
1.03635 0.9480221 1.0320034 1.2879245 1.1424136 1.4077655 0.831857 0.8004622
1.1159258 1.0236076 0.9021773 0.9496992 1.0057529 1.5592537 1.123246 1.2113881
