models/autoencoder_model.pth (torch, 603329 bytes, 32 tensors)

encoder.0.weight f4 [256, 114]
0.077688575 0.052970685 0.03552696 -0.14322919 0.09539507 -0.07445075 -0.004734346 0.10811126
-0.049465265 -0.11043406 0.19519109 -0.18142562 0.02636846 0.115351975 -0.20874676 0.01911037
-0.061570987 0.08875615 -0.15148686 0.03318568 0.028926486 -0.0577752 0.17127857 -0.07622513
-0.0051633082 0.17772268 -0.28477645 -0.105442196 0.15381399 -0.24601017 -0.06280442 0.051152688
0.03433783 0.011709149 0.012290142 0.04263052 0.04661003 -0.14105521 0.039077517 0.080904715
-0.07080412 0.022640685 -0.07612552 -0.043079667 -0.12336468 0.068453446 0.012233554 0.10393965
-0.17815597 -0.05585096 0.03542132 -0.12825172 0.12291438 -0.20818377 0.1676232 -0.2634112
-0.061136615 0.20990558 -0.06368982 0.11793166 -0.1972472 0.117986284 -0.29336676 0.08740097
0.06021264 -0.009938093 0.03952277 -0.0034395477 -0.13699816 -0.041326042 0.050290193 -0.14258082
-0.09885942 0.12275575 -0.04812403 -0.0619463 0.11186389 -0.09246054 -0.048048176 -0.026215045
0.12093992 0.05517365 0.13876629 -0.030660609 -0.00031993032 -0.028588302 -0.08824079 0.0024556243
0.015619046 0.1058607 0.05725805 -0.018514551 -0.026829131 -0.057503942 0.113879845 0.08973358
-0.024693701 0.06981765 -0.031680208 0.026663609 -0.08071934 0.24521148 0.07362049 -0.105832376
0.110709056 -0.12932433 0.07392898 0.06985451 0.21762998 0.060509566 -0.15268293 0.22691663
-0.20403428 0.12982132 -0.102415465 -0.060431883 -0.06312722 -0.23514584 -0.13976724 -0.121799104
-0.20212851 -0.092480026 -0.041066635 -0.017961415 -0.032404993 0.049056515 -0.19592182 -0.13267908
0.027621837 -0.2214571 -0.196909 -0.12635675 -0.115980595 -0.19108437 -0.09871635 -0.19652131
-0.070581235 -0.031102084 -0.09924964 -0.09360383 0.03826024 -0.0459665 -0.08896642 0.08137841
-0.14892334 -0.14098668 -0.13361257 0.06507216 -0.023137286 0.07206098 0.024396885 -0.2508689
-0.17359468 -0.15452269 0.12974158 0.01695765 -0.0010063853 0.0016163582 -0.03816801 -0.058036722
-0.15685762 0.13608643 0.21685342 -0.19823404 -0.050990913 -0.043455876 -0.0050339126 0.075024106
0.04625392 0.101055205 0.014511219 -0.12153652 -0.12553668 0.03104475 0.033821654 0.14626096
0.122742176 0.050390996 -0.074486025 -0.12930849 -0.063700005 -0.065527335 -0.15599027 0.034078162
0.08660601 -0.04362374 -0.0030427082 -0.024396393 0.0519556 -0.02543179 0.10007698 0.004439188
-0.00083754805 -0.04059752 -0.28262752 -0.010938237 0.124746434 -0.028766071 0.100086965 0.051461786
-0.0019661859 -0.13806836 -0.06025126 -0.025080614 -0.09707291 0.11613687 0.07255441 -0.005261004
-0.13942662 -0.03661616 0.06384076 0.049605288 0.1141093 0.07440676 0.058420256 0.036742672
0.055214684 0.13017209 0.010735816 0.077264644 -0.037507653 -0.0043425024 0.11416659 0.040260304
0.145684 0.093831815 0.049256027 -0.09241955 0.036454674 -0.07011511 0.22482988 -0.112632
0.106201015 0.17483544 -0.11225513 0.14003119 -0.002693361 -0.24134383 0.22276396 -0.0046801106
-0.14855465 0.103786536 -0.0775993 0.05636114 -0.031317823 0.1544133 -0.11730605 0.059753414
0.110047266 -0.10395669 0.09395278 0.09932582 -0.109570876 0.08772267 -0.025515128 -0.2862715
00000000: 301b 9f3d caf7 583d b884 113d acaa 12be
00000010: 7e5e c33d a379 98bd 9322 9bbb 7069 dd3d
00000020: 179c 4abd 412b e2bd 2ce0 473e a3c7 39be
00000030: ab02 d83c a83d ec3d b6c1 55be 5a8d 9c3c
00000040: dc31 7cbd c9c5 b53d 5f1f 1bbe b5ed 073d
00000050: 3df7 ec3c b0a5 6cbd a663 2f3e ec1b 9cbd
00000060: f830 a9bb effc 353e 38ce 91be 14f2 d7bd
00000070: 6a81 1d3e 17ea 7bbe 9b9f 80bd 7b85 513d
00000080: d3a5 0c3d bbd7 3f3c 975c 493c 579d 2e3d
00000090: 29ea 3e3d c770 10be bf0f 203d 5fb1 a53d
000000a0: c001 91bd f578 b93c b2e7 9bbd 4e74 30bd
000000b0: 9fa6 fcbd 5231 8c3d 3f6f 483c 50de d43d
000000c0: 856e 36be fac3 64bd f215 113d 6b54 03be
000000d0: 89ba fb3d 202e 55be 6ba5 2b3e d5dd 86be
000000e0: 636a 7abd 7df1 563e cf6f 82bd 2786 f13d
000000f0: 2cfb 49be cba2 f13d 2b34 96be 48ff b23d
00000100: 87a1 763d 62d3 22bc a1e2 213d 096a 61bb
00000110: 3f49 0cbe 7f45 29bd 17fd 4d3d b500 12be
00000120: cf76 cabd 5e67 fb3d b41d 45bd 67bb 7dbd
00000130: e518 e53d f45b bdbd 2ace 44bd efc0 d6bc
00000140: 59af f73d c4fd 613d c018 0e3e f52b fbbc
00000150: 52bc a7b9 0432 eabc 96b7 b4bd 8aee 203b
00000160: 07e7 7f3c 7fcd d83d 6b87 6a3d d4ab 97bc
00000170: c4c8 dbbc 4189 6bbd d639 e93d 3dc6 b73d
00000180: 724a cabc 8efc 8e3d 1bc3 01bd a46d da3c
00000190: 2e50 a5bd b818 7b3e 57c6 963d a5be d8bd
000001a0: 6ebb e23d 996d 04be 1468 973d e20f 8f3d
000001b0: 65da 5e3e e1d8 773d ea58 1cbe d55c 683e
000001c0: 5dee 50be e1ef 043e 33bf d1bd 6c87 77bd
000001d0: d848 81bd 12ca 70be 251f 0fbe cf71 f9bd
000001e0: c7fa 4ebe 2b66 bdbd 7d35 28bd d123 93bc
000001f0: 19bb 04bd 7cef 483d bb9f 48be 06dd 07be
00000200: 3147 e23c a6c5 62be 83a2 49be aa63 01be
00000210: 3c87 edbd 9fab 43be cc2b cabd e23c 49be
00000220: e58c 90bd ccc9 febc 6543 cbbd 5db3 bfbd
00000230: c5b6 1c3d 5e47 3cbd 0734 b6bd b9a9 a63d
00000240: 5c7f 18be d05e 10be bcd1 08be 8d44 853d
00000250: 688a bdbc b594 933d fadb c73c e371 80be
00000260: cec2 31be 323b 1ebe fada 043e c5ea 8a3c
00000270: b0e8 83ba fbdb d33a 0f56 1cbd eab7 6dbd
00000280: 499f 20be 3e5a 0b3e d30e 5e3e ddfd 4abe
00000290: d9db 50bd cafe 31bd 85f3 a4bb 3da6 993d
000002a0: c074 3d3d 08f6 ce3d 77c0 6d3c 24e8 f8bd
000002b0: b08c 00be 8f51 fe3c 9388 0a3d 6fc5 153e
000002c0: 4060 fb3d ca66 4e3d 218c 98bd 7269 04be
000002d0: 2675 82bd 3233 86bd eabb 1fbe 8b95 0b3d
000002e0: 7e5e b13d cfae 32bd 2c68 47bb f2da c7bc
000002f0: 65cf 543d 5456 d0bc 29f5 cc3d 9c76 913b
00000300: e68e 5bba 9649 26bd 8eb4 90be 4b36 33bc
00000310: 0f7b ff3d d3a6 ebbc 65fa cc3d 98c9 523d
00000320: 20db 00bb cb61 0dbe 06ca 76bd dc75 cdbc
00000330: 29ce c6bd 2bd9 ed3d 6897 943d 8064 acbb
00000340: dac5 0ebe d4fa 15bd f2be 823d ea2e 4b3d
00000350: 23b2 e93d 9262 983d 144a 6f3d 7c7f 163d
00000360: cb28 623d d54b 053e 47e5 2f3c ed3c 9e3d
00000370: a0a1 19bd 8d4b 8ebb 2cd0 e93d fde7 243d
00000380: 302e 153e e52a c03d b0c0 493d 7646 bdbd
00000390: 7f51 153d 8398 8fbd ce39 663e 9bab e6bd
000003a0: eb7f d93d 1008 333e 05e6 e5bd 5664 0f3e
000003b0: 1983 30bb d622 77be 3c1c 643e 9d5b 99bb
000003c0: b61e 18be 098e d43d 62ec 9ebd f0da 663d
000003d0: 1e47 00bd 851e 1e3e 283e f0bd ffbf 743d
000003e0: 7660 e13d 3fe7 d4bd 516a c03d 566b cb3d
000003f0: b266 e0bd f1a7 b33d 1a05 d1bc 2e92 92be

encoder.0.bias f4 [256]
-0.03219564 -0.029063135 -0.07731114 -0.052930698 -0.012959693 0.07930587 -0.088580795 0.0781414
0.045551244 0.021194123 0.07089772 0.010997984 -0.07492081 0.029294524 0.08730123 0.08052853
0.08229513 0.08158102 0.0019403422 -0.013094732 0.033029635 0.031500395 0.009070007 -0.09071341
0.08303492 0.0037196006 -0.020128515 -0.028075872 -0.05274245 0.036765266 0.09036547 0.088267684
-0.0014474061 -0.08113236 0.041360702 -0.014403661 0.070236936 0.066633165 0.019879928 -0.041962888
0.024172816 -0.07379273 -0.060578108 -0.00849728 0.052443385 -0.0014179125 0.034361638 -0.02140002
-0.043866478 -0.046584353 0.0126005635 -0.07637167 -0.084868394 -0.01857036 -0.003552271 0.017528271
0.06505407 0.04215879 -0.07457683 -0.07710604 -0.058228295 0.016307363 -0.029938044 -0.0144731235
-0.0388457 -0.029600412 -0.06746795 -0.09108922 -0.050841436 0.07035123 0.08703017 -0.059899725
-0.06298822 0.065512665 0.028107509 0.039369546 -0.07073265 0.054034803 0.023438707 0.073865265
0.08297144 0.068768226 0.029344838 -0.00433783 0.052913494 -0.06233397 -0.056406863 -0.012443072
-0.07586668 0.078466736 0.05239963 -0.022456683 -0.033329006 0.04859851 0.039265774 0.023830535
0.023883337 0.018131454 0.073564276 -0.059104275 0.08033021 0.007587464 -0.017760668 -0.049699478
-0.06650754 -0.018145597 -0.03756356 -0.09020719 -0.04176728 -0.0066711595 0.06608422 -0.044031013
0.007954911 -0.086300336 0.016770244 -0.019291395 0.041604146 -0.069906704 -0.07071021 -0.06500368
-0.08937511 0.028296659 -0.043867618 0.036127213 -0.0060902922 0.0023831776 0.06043412 0.09212591
0.0015232529 -0.008894734 -0.015936205 0.028536605 -0.04006406 0.05725069 -0.012264254 0.038807623
0.08257771 -0.0027121434 0.06098992 -0.057419807 0.02828885 -0.05782129 -0.053371597 0.06269646
0.015539293 0.048869018 -0.078459404 -0.081074245 -0.08314431 -0.06350444 0.0753403 0.041624643
-0.053468484 0.07917904 0.049129795 -0.04521987 -0.013526366 0.08874815 0.038970802 -0.046918817
-0.065929584 -0.07402445 -0.040866308 0.039602403 0.016119484 -0.06293364 0.046265613 -0.070699304
0.048626438 0.06973976 -0.06548389 -0.0588559 0.053030208 -0.021216502 -0.048913218 0.057403874
-0.012059694 0.08073023 -0.046856876 -0.07130681 -0.05050996 -0.029262953 0.041608278 0.017232563
-0.0014498832 0.007739763 0.07227241 -0.019326007 -0.048804864 0.080178685 -0.059008434 0.061304554
-0.03296206 -0.050154496 0.050364193 -0.092578515 -0.0704208 -0.00070617953 0.00786522 0.02478562
0.04712867 0.0074989363 0.07438621 -0.017654128 -0.020688755 0.060663328 -0.00013763044 -0.07304998
0.0864445 -0.017107313 0.018517178 -0.05581162 -0.0859394 0.039893515 0.073293686 0.06317284
0.002836942 -0.06278811 0.06647837 0.05287304 0.028766328 -0.049822144 -0.032676555 0.08223136
-0.084177546 -0.016397212 0.066771485 0.06358484 0.034234405 0.06644345 0.007546239 0.07611912
-0.021826245 0.060791794 0.058772247 -0.08182187 0.048769973 -0.0503403 -0.064810164 0.04691579
-0.09209857 -0.027276985 0.054464135 0.049744677 0.036705665 0.05969163 -0.040106993 -0.027244767
-0.057677682 -0.06406408 -0.08346256 0.052792735 0.0481098 0.09203118 0.0039957515 0.01261849
00000000: 93df 03bd d015 eebc 4e55 9ebd dccd 58bd
00000010: e454 54bc 1e6b a23d d969 b5bd 9908 a03d
00000020: f193 3a3d 4c9f ad3c d332 913d e330 343c
00000030: 1570 99bd 12fb ef3c fdca b23d 24ec a43d
00000040: 598a a83d f313 a73d 1553 fe3a 498b 56bc
00000050: 154a 073d 8f06 013d 5e9a 143c f4c7 b9bd
00000060: 360e aa3d 8bc4 733b 8ee4 a4bc 5fff e5bc
00000070: 7808 58bd 2d97 163d 8811 b93d b0c5 b43d
00000080: e4b6 bdba b928 a6bd d769 293d 55fd 6bbc
00000090: 62d8 8f3d f876 883d 3bdb a23c 47e1 2bbd
000000a0: 1206 c63c a520 97bd c020 78bd 2d38 0bbc
000000b0: e0ce 563d 40d9 b9ba cabe 0c3d 184f afbc
000000c0: 56ad 33bd 3ccf 3ebd 9872 4e3c c068 9cbd
000000d0: 7bcf adbd de20 98bc 38cd 68bb 7397 8f3c
000000e0: 113b 853d b2ae 2c3d bdbb 98bd c6e9 9dbd
000000f0: cb80 6ebd 0597 853c a140 f5bc ae20 6dbc
00000100: ab1c 1fbd 907c f2bc a32c 8abd fc8c babd
00000110: 1c3f 50bd 4e14 903d e03c b23d 6a59 75bd
00000120: f8ff 80bd 812b 863d b841 e63c f641 213d
00000130: 48dc 90bd 9953 5d3d 8802 c03c ac46 973d
00000140: eeec a93d 5bd6 8c3d 9664 f03c 5b24 8ebb
00000150: d2bb 583d e851 7fbd e20a 67bd 07de 4bbc
00000160: fd5f 9bbd 2bb3 a03d ffa0 563d 14f7 b7bc
00000170: ff83 08bd 3b0f 473d 26d5 203d 4138 c33c
00000180: fda6 c33c 6a88 943c dea8 963d 5317 72bd
00000190: 2a84 a43d 43a0 f83b d27e 91bc ae91 4bbd
000001a0: 1b35 88bd 13a6 94bc 3fdc 19bd 8cbe b8bd
000001b0: 2b14 2bbd be99 dabb 2a57 873d dd59 34bd
000001c0: 5155 023c 3bbe b0bd c061 893c fd08 9ebc
000001d0: 1c69 2a3d 3f2b 8fbd 84d0 90bd a620 85bd
000001e0: 4c0a b7bd 65ce e73c 88ae 33bd 21fa 133d
000001f0: 1391 c7bb 162f 1c3b c589 773d 82ac bc3d
00000200: e3a7 c73a 38bb 11bc a58c 82bc 99c5 e93c
00000210: 361a 24bd b37f 6a3d 02f0 48bc bef4 1e3d
00000220: 811e a93d 37be 31bb 91d0 793d 0831 6bbd
00000230: 05be e73c 04d6 6cbd 2d9c 5abd 0067 803d
00000240: 8598 7e3c e12a 483d 53af a0bd 410a a6bd
00000250: 9047 aabd 9e0e 82bd 044c 9a3d 9a7e 2a3d
00000260: c501 5bbd 9f28 a23d 533c 493d 7838 39bd
00000270: b19d 5dbc 97c1 b53d d99f 1f3d f22d 40bd
00000280: 1706 87bd 219a 97bd 6e63 27bd 2136 223d
00000290: 020d 843c 5ae3 80bd 0381 3d3d ccca 90bd
000002a0: 842c 473d b8d3 8e3d 6b1c 86bd e212 71bd
000002b0: 3436 593d 3bce adbc 3a59 48bd 5320 6b3d
000002c0: 0696 45bc e455 a53d ffec 3fbd 4e09 92bd
000002d0: 88e3 4ebd dcb8 efbc 716d 2a3d 4e2b 8d3c
000002e0: 020a beba d69d fd3b 8f03 943d 9351 9ebc
000002f0: 9ce7 47bd b934 a43d d4b2 71bd 7c1a 7b3d
00000300: 3a03 07bd cd6e 4dbd af4a 4e3d ce99 bdbd
00000310: c838 90bd e81e 39ba 20dd 003c 360b cb3c
00000320: fe09 413d a3b9 f53b cc57 983d 649f 90bc
00000330: 777b a9bc 1c7a 783d e450 10b9 3a9b 95bd
00000340: d009 b13d a324 8cbc 56b1 973c ba9a 64bd
00000350: ff00 b0bd 6267 233d 001b 963d c360 813d
00000360: fdeb 393b 0d97 80bd d025 883d 6791 583d
00000370: 5da7 eb3c 4e12 4cbd dad7 05bd ea68 a83d
00000380: 4765 acbd 7253 86bc 7dbf 883d c538 823d
00000390: 6039 0c3d 8113 883d 7146 f73b 57e4 9b3d
000003a0: f4cc b2bc d100 793d 2bbb 703d 3992 a7bd
000003b0: 06c3 473d a131 4ebd 31bb 84bd c52a 403d
000003c0: 2d9e bcbd fc73 dfbc c915 5f3d 13c1 4b3d
000003d0: ae58 163d 367f 743d 3b47 24bd 6b30 dfbc
000003e0: 6f3f 6cbd 0734 83bd 6bee aabd 323d 583d
000003f0: c80e 453d d87a bc3d cbee 823b c8bd 4e3c

encoder.1.weight f4 [256]
0.87341845 0.8085369 0.8837026 0.9317106 0.8652934 0.9798467 0.93354154 0.8632374
0.8575878 0.8592062 1.0224001 1.0335493 1.0243024 0.98722225 0.9152021 1.0522392
1.0309877 0.92512906 0.9799991 1.0224618 0.88879234 1.0026201 0.9201423 1.0118325
1.0262917 0.945431 0.89891803 0.9013613 0.9034392 0.9572599 0.9149205 1.1325716
0.9301087 1.0076538 0.8080875 1.0286281 0.8695284 0.9222585 0.8440633 0.9144769
0.96451557 0.9611395 0.85059464 0.9347503 0.8955227 0.91979223 0.80520433 0.8769929
1.0662699 0.94531965 0.8543882 0.8635307 0.97261506 1.0196065 0.94981766 0.97531444
0.9512018 0.82181686 0.9072145 0.8569522 0.985753 1.0490805 0.90580577 0.9839932
0.8968476 0.9680948 0.8881062 0.9723924 0.846158 0.89440197 0.92388964 0.9468007
0.9888321 0.97392887 0.8866899 1.023492 1.1034826 0.86163706 0.9942988 0.90844667
0.8981357 0.9044408 0.9249143 1.0222659 0.945688 0.8893801 1.0935695 0.987973
0.90064055 0.9186302 1.0163027 0.97999907 0.83401275 1.0942696 0.93451667 0.9997655
1.0372515 0.82194275 0.9282953 0.86416376 0.79273456 0.92747504 0.9324883 0.84772074
0.88097817 0.8991109 0.9680942 0.9509843 0.8305151 1.05536 0.8730677 0.9552953
0.9200071 0.9632433 0.8250951 0.9622052 0.9123274 0.9138975 0.9580418 1.0759077
0.8676872 0.91715527 0.87140524 0.93554336 0.7931195 1.0791943 1.1104372 0.92317235
0.9552838 0.8946443 1.045715 0.9419359 0.9461826 0.98305357 0.89918965 0.8561253
0.9086758 0.9119283 0.8946521 0.9054275 0.97572243 0.9233893 0.97077847 0.91400874
0.89304024 1.042989 1.0024145 0.95753974 0.983633 0.8755125 0.919146 0.9915201
1.0185411 0.8852016 0.9454184 0.9873895 0.87807786 0.8609716 0.9080877 0.98499525
1.0156695 0.96401316 0.9686769 0.9826622 0.823021 0.95119977 0.9245747 0.8260826
0.8403095 0.97884685 1.0201311 1.0367228 0.9968482 0.8279902 0.8963669 0.87547207
1.0247394 0.9080595 0.9625499 0.9613529 0.90407443 0.9094552 0.94627595 0.8759738
0.9549659 0.9727399 1.0364774 0.92255807 0.9326257 0.9777598 1.1190367 0.9087674
0.90595424 0.95024383 1.0566065 1.000971 0.90467614 0.851859 0.93207544 1.0697464
0.92817056 0.86518145 0.9039956 0.9577015 1.0254014 1.017754 0.8411802 0.9750638
1.0481278 0.9004947 0.8405468 0.8921611 1.0091455 0.8245611 0.8448655 0.9408842
0.9083051 0.90456796 0.9211016 0.9059111 0.9033678 0.93788266 1.1331756 0.9700242
0.9040783 0.89119434 0.8868483 0.908489 0.998789 1.0092443 1.0476544 0.9518401
1.0390875 0.9245632 1.0157585 0.9724028 1.0964832 0.82633054 0.9970792 0.88769907
0.8418228 0.9590082 1.0485812 0.96659845 0.97610724 0.9647801 0.9787307 1.0241591
1.0300537 0.8143461 0.8047975 1.0031353 0.8465192 0.885884 0.7530547 0.8786519
00000000: 5a98 5f3f 46fc 4e3f 553a 623f 9684 6e3f
00000010: de83 5d3f 3cd7 7a3f 94fc 6e3f 20fd 5c3f
00000020: e08a 5b3f f0f4 5b3f 02de 823f 584b 843f
00000030: 571c 833f 99ba 7c3f af4a 6a3f c6af 863f
00000040: 68f7 833f 42d5 6c3f 39e1 7a3f 07e0 823f
00000050: e587 633f db55 803f 728e 6b3f ba83 813f
00000060: 875d 833f c407 723f 7e1f 663f 9dbf 663f
00000070: cb47 673f fc0e 753f 3b38 6a3f 1bf8 903f
00000080: 9b1b 6e3f cdfa 803f d3de 4e3f 16aa 833f
00000090: 6a99 5e3f 2219 6c3f 8814 583f 281b 6a3f
000000a0: 7eea 763f 3d0d 763f 92c0 593f cc4b 6f3f
000000b0: fa40 653f 8177 6b3f df21 4e3f 9b82 603f
000000c0: 887b 883f 7800 723f 2fb9 5a3f 5910 5d3f
000000d0: 4dfd 783f 7782 823f 4027 733f 35ae 793f
000000e0: f681 733f 9762 523f 363f 683f 3861 5b3f
000000f0: 4f5a 7c3f 4548 863f e3e2 673f fae6 7b3f
00000100: ce97 653f 10d5 773f ee5a 633f b5ee 783f
00000110: d09d 583f 87f7 643f 0884 6c3f 8861 723f
00000120: 1a24 7d3f 6753 793f 1cfe 623f c901 833f
00000130: eb3e 8d3f 3f94 5c3f 5e8a 7e3f f68f 683f
00000140: 39ec 653f 6f89 673f 2fc7 6c3f 9cd9 823f
00000150: 9c18 723f 6aae 633f 16fa 8b3f cceb 7c3f
00000160: 6190 663f 592b 6b3f 3516 823f 38e1 7a3f
00000170: dc81 553f 0711 8c3f 7c3c 6f3f a2f0 7f3f
00000180: a8c4 843f d76a 523f c3a4 6d3f d639 5d3f
00000190: a7f0 4a3f 016f 6d3f 8eb7 6e3f 3a04 593f
000001a0: c987 613f 222c 663f 06d5 773f b573 733f
000001b0: a39c 543f 0916 873f 5d81 5f3f 3c8e 743f
000001c0: 9685 6b3f 1d97 763f 6f39 533f 1453 763f
000001d0: 4a8e 693f 30f5 693f 3a42 753f 58b7 893f
000001e0: c020 5e3f b0ca 6a3f 6a14 5f3f c57f 6f3f
000001f0: e109 4b3f 0a23 8a3f ce22 8e3f 0655 6c3f
00000200: 7b8d 743f 6907 653f fdd9 853f b622 713f
00000210: 0639 723f 66a9 7b3f 4b31 663f 072b 5b3f
00000220: fa9e 683f 2274 693f ec07 653f 19ca 673f
00000230: f2c8 793f 3e63 6c3f f084 783f 7afc 693f
00000240: 499e 643f aa80 853f 1e4f 803f 5321 753f
00000250: 5fcf 7b3f 9621 603f 274d 6b3f 43d4 7d3f
00000260: 8e5f 823f 929c 623f f106 723f 8fc5 7c3f
00000270: b6c9 603f a368 5c3f 6f78 683f a628 7c3f
00000280: 7501 823f 91c9 763f 36fb 773f c08f 7b3f
00000290: 81b1 523f d481 733f edb0 6c3f 267a 533f
000002a0: 861e 573f b595 7a3f a893 823f 55b3 843f
000002b0: 7231 7f3f 2af7 533f 4d78 653f f01e 603f
000002c0: a92a 833f 9676 683f ac69 763f 391b 763f
000002d0: 6c71 673f 0ed2 683f 243f 723f d23f 603f
000002e0: a578 743f 7b05 793f 4bab 843f c42c 6c3f
000002f0: 8fc0 6e3f 774e 7a3f 983c 8f3f fba4 683f
00000300: 9eec 673f 2e43 733f e23e 873f d11f 803f
00000310: db98 673f 6e13 5a3f 7f9c 6e3f 73ed 883f
00000320: 969c 6d3f 887c 5d3f 416c 673f ed2b 753f
00000330: 5a40 833f c345 823f 9657 573f c89d 793f
00000340: 0d29 863f d286 663f 132e 573f ab64 643f
00000350: ae2b 813f 7016 533f 1b49 583f c9dd 703f
00000360: af86 683f c491 673f 51cd 6b3f cae9 673f
00000370: 1d43 673f 1419 703f e60b 913f 8253 783f
00000380: ad71 673f 5025 643f 7d08 633f bc92 683f
00000390: a3b0 7f3f eb2e 813f 8a19 863f cbab 733f
000003a0: d200 853f 2db0 6c3f 6004 823f 64ef 783f
000003b0: 9059 8c3f 668a 533f 9540 7f3f 3f40 633f
000003c0: b381 573f 9081 753f e937 863f ff72 773f
000003d0: 2ae2 793f d4fb 763f 188e 7a3f a517 833f
000003e0: cdd8 833f fc78 503f 3507 4e3f bd66 803f
000003f0: 7bb5 583f 4bc9 623f 31c8 403f 55ef 603f

encoder.1.bias f4 [256]
-0.47395298 -0.50522476 -0.39402294 -0.5817211 0.10950777 -0.23396356 -0.38258323 -0.35790104
-0.43355155 -0.5052982 -0.3620966 -0.50326675 -0.43090454 -0.22394417 -0.4710155 -0.15146707
-0.5727277 -0.27468207 -0.46028224 -0.33509824 -0.22328514 -0.57728404 -0.47364962 -0.13794184
-0.2820502 -0.51435196 -0.38020194 -0.39734483 -0.519297 -0.5061985 -0.35407904 -0.32778808
-0.21879053 -0.31860536 -0.7889652 -0.4211856 -0.34903038 -0.4837649 -0.5850062 -0.41564766
-0.47341928 -0.21931891 -0.4939526 -0.61305857 -0.56377167 -0.285906 -0.4684791 -0.26400504
-0.20757426 -0.33933863 -0.5598339 -0.34771982 -0.49503446 -0.3117105 -0.5295458 -0.699937
-0.40910733 -0.033453677 -0.47074878 -0.35281515 -0.2802941 -0.32544506 -0.37774813 -0.6933846
-0.61825013 -0.50112414 -0.5172029 -0.42437392 -0.34956285 -0.46912643 -0.6432524 -0.7975617
-0.08741167 -0.547369 -0.18195078 -0.6149515 -0.2669866 -0.72832835 -0.34669745 -0.45658994
-0.35958424 -0.7241538 -0.2274688 -0.39372596 -0.47066623 -0.22108154 -0.53073573 -0.44244215
-0.03370162 0.03108327 -0.35218143 -0.5390043 -0.5093181 -0.33177093 -0.22606649 -0.4559594
-0.08034591 -0.5309616 -0.4993858 -0.71469367 -0.7655543 -0.57267416 -0.51990414 -0.25776815
-0.4602612 -0.40767044 -0.10334722 -0.4838177 -0.62388515 -0.3445929 -0.3619617 -0.44762146
-0.44539732 -0.5897398 -0.66062385 -0.71156484 -0.46034983 -0.5041485 -0.46474904 -0.5493859
-0.22085293 -0.40722442 -0.29148185 -0.17649837 -0.6797033 -0.42202437 -0.20877711 -0.4871045
-0.3915477 0.05267393 -0.19187413 -0.50172955 -0.33398047 -0.3629984 -0.3323796 -0.41640237
-0.40127718 -0.53589374 -0.45430225 -0.13625066 -0.41640317 -0.12371366 -0.2422221 -0.4286871
-0.4170804 -0.43849602 -0.55831015 -0.1695017 -0.3393604 -0.88813645 -0.23672463 -0.4968767
-0.22435103 -0.31608605 -0.43864802 -0.28144687 -0.48616904 0.03587469 -0.57164675 -0.40021515
-0.52145475 -0.48372874 -0.4055161 -0.6639438 -0.47768438 -0.30235714 -0.550835 -0.60065556
-0.0039903275 -0.1824491 -0.3478293 -0.085586905 -0.17210849 -0.39638335 -0.36408108 -0.33761007
-0.47652844 -0.430905 -0.1929825 -0.41549948 -0.102636784 -0.030666215 -0.532962 -0.5241314
-0.6863478 -0.10587979 -0.4713047 -0.54146564 -0.4243121 -0.23754942 -0.2557206 -0.48907846
-0.3839259 -0.45729992 -0.43354028 -0.32017586 -0.42338505 -0.41283545 -0.48557425 -0.3642497
-0.22334781 -0.2429967 -0.6229051 -0.40878496 -0.40012595 -0.19778699 -0.5539089 -0.35384727
-0.14246143 -0.45544946 -0.41878828 -0.36570036 -0.4429526 -0.4015433 -0.49435043 -0.34608746
-0.5834665 -0.41816086 -0.36769912 -0.13823958 -0.49816412 -0.5466675 -0.50039107 -0.5997083
-0.40359154 -0.3545682 -0.14189993 -0.5247999 -0.26110592 -0.19115037 -0.64027053 -0.74105513
-0.4073846 -0.109738134 -0.39799795 -0.6414529 -0.30494747 -0.4669462 -0.44300583 -0.384254
-0.53261644 -0.5345478 -0.5546163 -0.3912675 -0.6488421 -0.4811491 -0.3867726 -0.4953913
-0.5159216 -0.6021313 -0.3382272 -0.41074076 -0.4813718 -0.37837622 -0.43697158 -0.1893083
00000000: f7a9 f2be 6956 01bf 60bd c9be adeb 14bf
00000010: 9c45 e03d 2594 6fbe f3e1 c3be ce3e b7be
00000020: 78fa ddbe 395b 01bf ba64 b9be 17d6 00bf
00000030: 859f dcbe 9f51 65be f228 f1be 2f1a 1bbe
00000040: 489e 12bf 21a3 8cbe 1daa ebbe ff91 abbe
00000050: dca4 64be e3c8 13bf 3482 f2be a040 0dbe
00000060: e268 90be 92ac 03bf d4a9 c2be c870 cbbe
00000070: a6f0 04bf 3a96 01bf d949 b5be d7d3 a7be
00000080: a00a 60be 3e20 a3be a0f9 49bf a4a5 d7be
00000090: 1cb4 b2be 08b0 f7be f7c2 15bf c5cf d4be
000000a0: 0364 f2be 2395 60be 5be7 fcbe 68f1 1cbf
000000b0: 5753 10bf 4562 92be 7edc efbe ab2b 87be
000000c0: 598e 54be cbbd adbe 4651 0fbf 5508 b2be
000000d0: 2875 fdbe 8598 9fbe 5090 07bf 122f 33bf
000000e0: 8476 d1be b906 09bd fc05 f1be 30a4 b4be
000000f0: b582 8fbe bca0 a6be 3468 c1be a781 31bf
00000100: a445 1ebf ac49 00bf 6967 04bf 8a47 d9be
00000110: e7f9 b2be 5731 f0be 30ac 24bf 012d 4cbf
00000120: e404 b3bd 6020 0cbf 4e51 3abe 766d 1dbf
00000130: 78b2 88be ba73 3abf 5482 b1be 28c6 e9be
00000140: 6d1b b8be 2562 39bf 95ed 68be 7396 c9be
00000150: 2afb f0be 3363 62be 4cde 07bf c787 e2be
00000160: b60a 0abd 58a2 fe3c 2051 b4be 30fc 09bf
00000170: ac62 02bf e1dd a9be f97d 67be 8373 e9be
00000180: 658c a4bd 19ed 07bf 7faf ffbe 2af6 36bf
00000190: 5efb 43bf c69a 12bf 7018 05bf 30fa 83be
000001a0: 5ba7 ebbe 2eba d0be b5a7 d3bd f4b6 f7be
000001b0: f0b6 1fbf 7b6e b0be 0b53 b9be a42e e5be
000001c0: 1e0b e4be 30f9 16bf a51e 29bf 1d29 36bf
000001d0: f9b2 ebbe e00f 01bf 96f3 edbe 8ea4 0cbf
000001e0: 4527 62be b87f d0be 1c3d 95be fdbb 34be
000001f0: 0901 2ebf 9413 d8be abc9 55be c365 f9be
00000200: f178 c8be 9ec0 573d a77a 44be 5971 00bf
00000210: 7dff aabe edda b9be a92d aabe b132 d5be
00000220: 3474 cdbe 5530 09bf 4e9a e8be 4b85 0bbe
00000230: cc32 d5be 965d fdbd 1209 78be e07c dbbe
00000240: 908b d5be 8d82 e0be 6aed 0ebf db91 2dbe
00000250: a5c0 adbe e95c 63bf f167 72be 9f66 febe
00000260: 47bc 65be 08d6 a1be 7996 e0be ce19 90be
00000270: 26eb f8be 57f1 123d 7157 12bf 00e9 ccbe
00000280: 0f7e 05bf 4bab f7be ce9f cfbe 39f8 29bf
00000290: 0c93 f4be 8ece 9abe 8603 0dbf 90c4 19bf
000002a0: 4bc1 82bb f0d3 3abe af16 b2be 3048 afbd
000002b0: 353d 30be c2f2 cabe d668 babe 3adb acbe
000002c0: 89fb f3be 959f dcbe 349d 45be 59bc d4be
000002d0: 3c33 d2bd b737 fbbc 3370 08bf 7a2d 06bf
000002e0: 7db4 2fbf 81d7 d8bd da4e f1be 7e9d 0abf
000002f0: 703f d9be 2840 73be cfed 82be 7e68 fabe
00000300: f091 c4be 3723 eabe fef8 ddbe 17ee a3be
00000310: edc5 d8be 2b5f d3be 309d f8be f07e babe
00000320: 4ab5 64be 20d4 78be b576 1fbf 434c d1be
00000330: 4fdd ccbe ac88 4abe f9cc 0dbf 782b b5be
00000340: 69e1 11be ac30 e9be 6b6b d6be 143d bbbe
00000350: afca e2be 1597 cdbe 801b fdbe 6032 b1be
00000360: 0f5e 15bf 2e19 d6be 0f43 bcbe ad8e 0dbe
00000370: 5e0f ffbe 67f2 0bbf a119 00bf 7c86 19bf
00000380: 8da3 cebe f789 b5be 374e 11be 4959 06bf
00000390: adaf 85be ecbc 43be c5e8 23bf cab5 3dbf
000003a0: b794 d0be 63be e0bd 63c6 cbbe 4236 24bf
000003b0: 1322 9cbe 9313 efbe a9d1 e2be f1bc c4be
000003c0: 8d59 08bf 20d8 08bf 55fb 0dbf 3754 c8be
000003d0: 841a 26bf 2d59 f6be 0f07 c6be eea3 fdbe
000003e0: 7013 04bf 4725 1abf 1e2c adbe 9d4c d2be
000003f0: 5d76 f6be 87ba c1be bdba dfbe 09da 41be

encoder.1.running_mean f4 [256]
1.2851499 -2.2003596 0.25504935 0.49543208 3.7774298 1.2121968 -2.1050239 -0.21138425
1.2565882 2.1558762 1.2407862 -0.9503304 -1.8595423 0.72728723 1.1871165 2.4125264
1.3651441 -1.9095837 1.3943028 -0.09037542 1.2333373 1.6536378 1.7168375 0.20561327
0.4913968 0.17056333 0.7647745 0.4743743 1.6887934 0.22897615 1.8396844 -2.4756238
0.33973733 0.6139674 0.44123957 -2.7521784 2.044511 0.5670461 0.47373152 0.44533607
-1.1187092 -1.788192 0.76777804 0.7824869 2.4484098 1.9604335 1.1544894 1.4824364
1.8447659 2.5237396 2.1487036 4.0786533 1.2517432 -2.0667315 1.9036397 1.3769215
1.0076922 3.4401288 0.7597894 0.20837682 -0.6950783 0.28508988 1.2145499 0.7258884
2.2226534 -0.9552337 1.5415891 -1.407027 -0.17839311 -2.5514767 2.018295 1.6849601
-2.043268 -2.5721812 1.3043942 1.1307951 -1.9588612 0.81160766 2.4958537 0.9602874
0.05730124 0.73043275 1.7287372 1.9831419 0.019283874 2.0157502 0.062198114 0.22252753
1.1420254 3.6047766 1.1302519 0.8504129 1.8516392 -1.2797357 -0.24381568 2.0054767
0.48504037 -1.9913481 0.48163426 1.0535518 1.7312211 0.30734122 1.1739902 0.67971796
1.5445654 -0.49078766 0.36357504 1.1299121 -2.9095373 0.95081514 -0.92337275 -0.45966905
0.97296 -0.48343372 -0.41492423 0.8778443 -2.4034338 0.37657613 3.6745286 2.3053193
-0.026469424 0.52547455 -1.9909909 0.7460318 1.2282636 1.3061652 -0.6999171 -0.4081057
1.593147 2.6112325 1.8648558 0.09556327 0.44999978 1.0887483 -1.0887012 2.3073914
-1.9593328 3.356383 -0.02722369 -1.5839428 1.6331048 0.80387926 -0.48677224 1.4065567
-1.9394006 1.1297048 1.6990875 -0.5610503 1.2747767 0.58868545 1.8795625 0.5766386
-2.7200265 1.9199742 -3.6347232 0.12052242 2.650801 -1.9519964 2.0055068 -0.8067948
1.037103 -0.22945316 1.670587 -0.38187537 -0.12392492 1.9899645 0.6030506 2.901146
-0.9273003 2.0682907 1.3063167 1.2351214 2.6282957 1.082651 2.801326 -2.10202
2.4096177 -0.5003367 -0.045720086 1.694463 2.436312 -2.0273552 0.71477944 1.3085304
1.7785178 1.0365177 1.3407108 0.86426055 1.5400791 -0.4872695 0.9169196 -0.18489194
-1.6239291 1.7216423 0.7379466 1.6448499 -3.4123316 3.5730069 1.4094627 1.766845
3.004936 2.0971537 0.57194054 -3.1626296 -2.6377594 -0.26695117 3.1296606 0.028612105
0.5590783 -0.69412106 -2.4779606 0.14112508 2.1239593 2.5967405 3.0488224 1.8664539
0.87772536 0.041021455 2.6166055 0.025389124 0.06349445 2.8726761 -1.2674518 0.036463
3.29648 -1.8562739 0.79968166 0.62702554 1.0298972 2.6202614 0.41593364 0.69275355
-2.698966 -0.7756827 1.0526716 2.5557294 1.3891313 0.71705425 -3.2143195 -2.2390003
0.89182484 0.4584187 0.550586 2.4067347 1.6450014 -0.0051034647 1.8016871 0.27735427
-1.9925711 0.9765776 0.78859437 1.2519083 -1.0210727 -0.5586615 -0.943816 2.7335935
00000000: cb7f a43f b1d2 0cc0 d495 823e 46a9 fd3e
00000010: 69c1 7140 4429 9b3f b6b8 06c0 1d75 58be
00000020: e2d7 a03f e0f9 0940 15d2 9e3f da48 73bf
00000030: 7b05 eebf 7f2f 3a3f 6ff3 973f d566 1a40
00000040: 0bbd ae3f 3d6d f4bf 8478 b23f c016 b9bd
00000050: ffdd 9d3f 67aa d33f 55c1 db3f 498c 523e
00000060: 5d98 fb3e 27a8 2e3e 43c8 433f 30e1 f23e
00000070: 622a d83f b978 6a3e c77a eb3f 9f70 1ec0
00000080: 0df2 ad3e f82c 1d3f 27ea e13e b123 30c0
00000090: 45d9 0240 ef29 113f f08c f23e 1703 e43e
000000a0: dd31 8fbf 7ae3 e4bf 1a8d 443f 1051 483f
000000b0: bfb2 1c40 7cef fa3f 4fc6 933f 7ac0 bd3f
000000c0: 4a21 ec3f f384 2140 5c84 0940 5484 8240
000000d0: 1f39 a03f 5445 04c0 77aa f33f f73e b03f
000000e0: 0ffc 803f 122b 5c40 8f81 423f bc60 553e
000000f0: a7f0 31bf 4df7 913e 5f76 9b3f d2d3 393f
00000100: f43f 0e40 328a 74bf cb52 c53f 7619 b4bf
00000110: afac 36be 654b 23c0 bf2b 0140 c6ac d73f
00000120: e7c4 02c0 9e9e 24c0 64f6 a63f e5bd 903f
00000130: f7bb fabf 85c5 4f3f 11bc 1f40 65d5 753f
00000140: b4b4 6a3d a4fd 3a3f 4347 dd3f 98d7 fd3f
00000150: 37f9 9d3c 0d02 0140 73c3 7e3d 42de 633e
00000160: e32d 923f a9b4 6640 18ac 903f a9b4 593f
00000170: 8302 ed3f 61ce a3bf d1aa 79be bb59 0040
00000180: 3657 f83e 7fe4 febf c498 f63e c9da 863f
00000190: a798 dd3f d45b 9d3e 5045 963f ff01 2e3f
000001a0: 52b4 c53f 8548 fbbe 8226 ba3e f6a0 903f
000001b0: dc35 3ac0 9f68 733f 2862 6cbf be59 ebbe
000001c0: e813 793f a084 f7be f370 d4be 67ba 603f
000001d0: dcd1 19c0 96ce c03e 7a2b 6b40 5a8a 1340
000001e0: 68d6 d8bc 8085 063f cad8 febf f1fb 3e3f
000001f0: be37 9d3f 6c30 a73f c42d 33bf 3bf3 d0be
00000200: 3eec cb3f 6f1e 2740 98b3 ee3f adb6 c33d
00000210: 5f66 e63e 1b5c 8b3f 905a 8bbf 4dac 1340
00000220: 6bcb fabf fbce 5640 3704 dfbc a3be cabf
00000230: 9409 d13f 08cb 4d3f 363a f9be 0d0a b43f
00000240: 473e f8bf 2b9a 903f b37b d93f fea0 0fbf
00000250: e22b a33f 17b4 163f 8195 f03f 969e 133f
00000260: ea14 2ec0 b7c1 f53f 4e9f 68c0 75d4 f63d
00000270: b9a6 2940 05db f9bf 395a 0040 1b8a 4ebf
00000280: cbbf 843f c5f5 6abe cbd5 d53f 2b85 c3be
00000290: 59cc fdbd 28b7 fe3f 8661 1a3f 60ac 3940
000002a0: 8d63 6dbf e05e 0440 6335 a73f 7518 9e3f
000002b0: ff35 2840 4f94 8a3f ed48 3340 7f87 06c0
000002c0: 2d37 1a40 1116 00bf fc44 3bbd 2ae4 d83f
000002d0: 89ec 1b40 30c0 01c0 c9fb 363f ed7d a73f
000002e0: 79a6 e33f 9dac 843f 699c ab3f 2e40 5d3f
000002f0: 5021 c53f 637b f9be 3ebb 6a3f 5054 3dbe
00000300: e9dc cfbf c65e dc3f 12ea 3c3f 718a d23f
00000310: a463 5ac0 25ac 6440 4669 b43f fa27 e23f
00000320: df50 4040 c437 0640 b26a 123f 8668 4ac0
00000330: 0dd1 28c0 d3ad 88be 5c4c 4840 ef63 ea3c
00000340: c11f 0f3f ebb1 31bf e896 1ec0 1883 103e
00000350: f3ee 0740 ff30 2640 e81f 4340 f6e7 ee3f
00000360: 9cb2 603f 1d06 283d 7776 2740 dafc cf3c
00000370: 6109 823d edd9 3740 dc3b a2bf 3a5a 153d
00000380: 87f9 5240 629a edbf f0b7 4c3f bf84 203f
00000390: acd3 833f 5db2 2740 41f5 d43e 4c58 313f
000003a0: dcbb 2cc0 2493 46bf f1bd 863f 1291 2340
000003b0: 0ecf b13f de90 373f 69b7 4dc0 c84b 0fc0
000003c0: a24e 643f dbb5 ea3e 34f3 0c3f f107 1a40
000003d0: 688f d23f f73a a7bb af9d e63f 6101 8e3e
000003e0: 920c ffbf fd00 7a3f 52e1 493f 883e a03f
000003f0: 83b2 82bf 7104 0fbf ed9d 71bf 32f3 2e40

encoder.1.running_var f4 [256]
0.05226049 0.17327574 0.13578282 0.012849239 0.10796851 0.04595021 0.35407248 0.16277045
0.026924336 0.025627092 0.027625374 0.098437816 0.054584432 0.04995657 0.07059678 0.045613874
0.055316433 0.096852615 0.04289404 0.004362405 0.039411176 0.008273521 0.035449427 0.032406732
0.06653359 0.042363465 0.05853276 0.023350045 0.044370316 0.025382195 0.08326515 0.04053393
0.022986548 0.060525905 0.14771293 0.08070995 0.018062841 0.0299552 0.14288653 0.052668102
0.040520817 0.055198234 0.10557365 0.03480696 0.042021856 0.09754408 0.08545109 0.03801881
0.033744052 0.017119877 0.06124421 0.035572562 0.02340477 0.028850406 0.09403615 0.030565625
0.03685111 0.04064652 0.07164803 0.017396081 0.012154888 0.012790797 0.09232084 0.055526678
0.028556313 0.073130935 0.06284493 0.011856388 0.02989014 0.1040831 0.2620708 0.024918584
0.05648047 0.15310106 0.03662359 0.06850166 0.023627196 0.03254244 0.2705255 0.06766595
0.051387027 0.03751803 0.020397596 0.18016839 0.05360878 0.10954547 0.047149554 0.017567618
0.05296578 0.073673464 0.01970034 0.09648035 0.07738856 0.05478295 0.040794913 0.08836347
0.009536836 0.16009894 0.025512872 0.057242878 0.13458994 0.03018829 0.045617882 0.06856549
0.10128585 0.18176293 0.013550184 0.06507673 0.2527037 0.022291759 0.051749215 0.22055164
0.057133276 0.08219343 0.023786942 0.022384241 0.07863575 0.14764357 0.35072023 0.09009648
0.015378756 0.14307353 0.051234428 0.039902102 0.068175 0.037316225 0.013582057 0.020435592
0.04511582 0.08306002 0.020155067 0.01593616 0.18517776 0.039657176 0.040648844 0.05761992
0.15126367 0.096453354 0.043273 0.03577243 0.039314836 0.0394323 0.04702733 0.040454865
0.27628878 0.062407322 0.040508695 0.029421551 0.0671199 0.029750425 0.027315324 0.021161512
0.08609532 0.07422343 0.07316185 0.018591454 0.27815193 0.047687903 0.18494841 0.14002116
0.015857091 0.09188943 0.1757479 0.023480352 0.05159939 0.029831922 0.013863949 0.13838045
0.04121837 0.049011853 0.0921299 0.007720275 0.0147748515 0.030556407 0.06460828 0.3065644
0.3041973 0.06804209 0.045119874 0.033037484 0.09284382 0.048728786 0.060798477 0.077895746
0.02723584 0.011418131 0.047488626 0.07500704 0.008360774 0.022191131 0.04135454 0.116581075
0.10668059 0.08534854 0.024451002 0.08865994 0.2847145 0.123976916 0.08018621 0.052206937
0.044763885 0.052831613 0.23266527 0.10132942 0.16935822 0.031398654 0.040888894 0.020719524
0.036084585 0.14093286 0.112490475 0.021246076 0.011564269 0.12332022 0.1191307 0.023294488
0.06011927 0.030435536 0.101434395 0.033129476 0.015097988 0.04708418 0.0288115 0.11663822
0.098385945 0.10932697 0.022617487 0.02855119 0.023070201 0.035910122 0.020518081 0.019716717
0.2083836 0.028732065 0.019721821 0.023484897 0.011549004 0.102401964 0.08248174 0.12806246
0.06690648 0.017714135 0.060695544 0.078176156 0.020129845 0.08453174 0.015305232 0.07077682
0.11464856 0.08600211 0.03447643 0.026581125 0.12257282 0.0432786 0.018854551 0.06603382
00000000: 180f 563d 326f 313e a70a 0b3e 9d85 523c
00000010: 981e dd3d 4a36 3c3d fd48 b53e 4cad 263e
00000020: 6d90 dc3c e8ef d13c 9c4e e23c c499 c93d
00000030: ed93 5f3d 439f 4c3d 0b95 903d 9dd5 3a3d
00000040: 7c93 623d aa5a c63d a9b1 2f3d 81f2 8e3b
00000050: 9d6d 213d aa8d 073c 6b33 113d ecbc 043d
00000060: c342 883d 5085 2d3d 0cc0 6f3d 9848 bf3c
00000070: a6bd 353d 52ee cf3c eb86 aa3d e806 263d
00000080: 494e bc3c 03ea 773d 0f42 173e 424b a53d
00000090: 86f8 933c 9c64 f53c d950 123e 82ba 573d
000000a0: 28f9 253d 8b17 623d ff36 d83d be91 0e3d
000000b0: 1c1f 2c3d 31c5 c73d fb00 af3d 9db9 1b3d
000000c0: 3437 0a3d fc3e 8c3c 35db 7a3d 89b4 113d
000000d0: 5cbb bf3c b057 ec3c 0696 c03d c364 fa3c
000000e0: 31f1 163d f77c 263d 34bc 923d 3a82 8e3c
000000f0: 4c25 473c 7e90 513c b512 bd3d f16f 633d
00000100: eeee e93c acc5 953d d8b4 803d 4c41 423c
00000110: 2bdc f43c 8529 d53d 252e 863e 0f22 cc3c
00000120: 1158 673d 86c6 1c3e 9e02 163d 994a 8c3d
00000130: d28d c13c 394b 053d 5182 8a3e 7294 8a3d
00000140: 347b 523d 81ac 193d dc18 a73c 107e 383e
00000150: e194 5b3d 6059 e03d e41f 413d f7e9 8f3c
00000160: a5f2 583d 1de2 963d 9c62 a13c 7d97 c53d
00000170: e57d 9e3d 1664 603d 9118 273d e8f7 b43d
00000180: 6440 1c3c faf0 233e 5f00 d13c 8277 6a3d
00000190: f2d1 093e 6f4d f73c d1d9 3a3d 106c 8c3d
000001a0: f56e cf3d 1020 3a3e 9701 5e3c f346 853d
000001b0: 6162 813e 359d b63c fcf6 533d 4ad8 613e
000001c0: 9504 6a3d 0755 a83d d5dc c23c 285f b73c
000001d0: c80b a13d e02f 173e 9a91 b33e 8184 b83d
000001e0: 2ef7 7b3c de81 123e 31db 513d 6370 233d
000001f0: 569f 8b3d e6d8 183d 4787 5e3c 8b68 a73c
00000200: 5ecb 383d 5f1b aa3d 3d1c a53c 8d8c 823c
00000210: 3d9f 3d3e 906f 223d 677f 263d dd02 6c3d
00000220: dde4 1a3e 5689 c53d 073f 313d 1d86 123d
00000230: 9808 213d c383 213d bb9f 403d 00b4 253d
00000240: b975 8d3e d29e 7f3d 72ec 253d 7705 f13c
00000250: 2876 893d 2ab7 f33c 63c4 df3c e85a ad3c
00000260: be52 b03d 7402 983d e1d5 953d 1b4d 983c
00000270: ee69 8e3e 6454 433d 1e63 3d3e b561 0f3e
00000280: bbe6 813c 8730 bc3d 42f7 333e de59 c03c
00000290: e259 533d 1362 f43c 9e25 633c 9bb3 0d3e
000002a0: 98d4 283d a7c0 483d 9aae bc3d 5cfa fc3b
000002b0: 3812 723c 6e51 fa3c 5951 843d 02f6 9c3e
000002c0: c0bf 9b3e a759 8b3d 9ecf 383d 5052 073d
000002d0: e724 be3d d697 473d d307 793d ce87 9f3d
000002e0: b21d df3c 1d13 3b3c 6f83 423d 4a9d 993d
000002f0: a1fb 083c 2dca b53c 6163 293d 0fc2 ee3d
00000300: 5a7b da3d 37cb ae3d 784d c83c 5893 b53d
00000310: 19c6 913e 9ce7 fd3d ab38 a43d f1d6 553d
00000320: 565a 373d f665 583d ce3f 6e3e cd85 cf3d
00000330: 3e6c 2d3e e09b 003d 1d7b 273d febb a93c
00000340: 6ecd 133d b450 103e 6861 e63d 400c ae3c
00000350: 0f78 3d3c 508f fc3d ccfa f33d 15d4 be3c
00000360: a03f 763d f253 f93c d6bc cf3d c6b2 073d
00000370: 8d5d 773c 57db 403d 1806 ec3c 05e0 ee3d
00000380: 927e c93d d2e6 df3d 4f48 b93c 2fe4 e93c
00000390: b8fd bc3c 7e16 133d 8915 a83c f484 a13c
000003a0: 8362 553e 825f eb3c a88f a13c 6663 c03c
000003b0: 0938 3d3c 1fb8 d13d 30ec a83d ce22 033e
000003c0: 4406 893d 3c1d 913c e49b 783d d21a a03d
000003d0: 58e7 a43c fa1e ad3d ccc2 7a3c 70f3 903d
000003e0: ddcc ea3d e021 b03d 2837 0d3d a9c0 d93c
000003f0: 7507 fb3d e744 313d dc74 9a3c bd3c 873d

encoder.4.weight f4 [128, 256]
-0.0089255795 -0.03699168 0.017478773 0.09335992 0.060013704 0.09444892 -0.05249505 -0.026075333
0.019197244 -0.03957056 0.13315229 0.093411684 0.076784894 0.017951764 0.10374934 0.046805568
-0.21055846 0.07251444 0.26403308 0.14358455 -0.017961154 0.17089112 0.021984888 -0.09373668
-0.26493675 -0.15328515 0.060221925 -0.2552429 0.15295427 0.12043383 0.07176271 -0.03534628
0.044892937 0.046950415 -0.06780898 -0.054961257 0.20400266 0.10050252 -0.047249008 -0.12156302
-0.032050643 -0.013904607 0.020004466 -0.0248595 0.027014272 -0.090947494 0.046698634 0.037971433
0.12431249 0.18183911 -0.052860316 0.26544172 0.21100056 0.06961909 0.14282212 -0.13803035
0.0928248 0.06815773 0.037890173 0.092194036 -0.062027212 0.02928534 0.010694691 -0.19519846
0.05968191 -0.037888277 -0.08910578 -0.32066372 -0.15909733 -0.03784858 -0.06557091 -0.20151526
0.025904613 -0.03222251 -0.21455759 0.26453358 0.010053032 -0.11805421 0.10372332 0.10101925
0.0762384 0.039141063 -0.013254696 0.022771789 -0.001991005 -0.0037403768 -0.1907525 -0.04264166
0.14443384 0.041073963 0.09398672 0.2653189 -0.051297024 0.23462225 -0.16242842 -0.049234748
-0.065025866 0.0061642155 0.101699814 0.007542472 -0.009853503 0.12678517 0.058702633 -0.20332262
-0.02214344 -0.06817163 0.015734132 0.12602367 -0.019067327 0.20352237 -0.12083964 0.07936275
0.0069007874 0.072032996 -0.08401171 -0.090122245 0.041602492 0.04992908 0.12804621 0.16324629
0.10318257 -0.058187038 0.078469574 -0.14404032 -0.11216655 0.007386926 -0.025340164 0.07747352
0.16550809 0.06315384 0.11649826 0.077431194 -0.03952271 -0.23599163 -0.12749138 -0.02721177
-0.058987334 0.029177863 0.20304239 -0.018387694 0.066628955 0.09652124 -0.15040393 -0.006747881
0.05749462 0.08117376 0.1045295 -0.03879018 0.105218485 -0.0340701 -0.09870804 -0.11805029
0.058467183 0.12165848 -0.08084296 -0.120276384 -0.086182036 0.045720797 -0.10861324 0.11953722
0.028541086 0.03683652 0.12606305 0.016506946 0.07718311 -0.11066854 -0.16777664 0.01591856
-0.054943327 0.0636188 0.032122623 0.1707386 0.21578798 -0.020044765 0.00284256 -0.0022496537
0.0055175703 0.13694683 -0.12470853 0.10182691 0.081647955 0.041129857 0.031325575 0.10459738
0.08290328 0.17135045 0.01227416 -0.076595224 0.16293478 -0.15573815 0.045964092 0.06720251
-0.062315144 0.20441788 0.09633785 0.07667037 0.16067821 0.04283858 0.122814156 0.24036905
-0.07270068 -0.03280733 -0.020724177 -0.32318553 -0.058143884 0.0068834913 0.2180876 0.04578208
-0.037825614 0.009913515 0.07503452 -0.07786914 0.37298107 -0.059453458 0.027584951 0.11382825
-0.10659065 0.01980786 -0.15707392 -0.12379968 -0.085411906 0.10318827 0.23218116 -0.014592082
0.022521924 0.058420174 0.09823757 -0.102588795 0.23465125 0.111016504 -0.13749161 0.022805639
-0.08191528 -0.026019031 -0.08598253 -0.05166581 -0.06726513 0.010692149 0.14195961 -0.064251006
0.036155462 -0.11520333 -0.20100199 0.116507374 0.1494755 0.11642758 0.25785288 0.2635802
-0.054518897 0.015163622 0.063261345 -0.009094413 0.10881716 -0.011073856 0.105685204 0.12113803
00000000: 983c 12bc 9684 17bd a52f 8f3c 7c33 bf3d
00000010: eed0 753d 6f6e c13d 0d05 57bd f09b d5bc
00000020: 8a43 9d3c bd14 22bd 1359 083e a04e bf3d
00000030: 6641 9d3d 940f 933c 897a d43d 32b7 3f3d
00000040: a39c 57be 7382 943d 582f 873e d407 133e
00000050: 4523 93bc 15fe 2e3e a719 b43c 04f9 bfbd
00000060: caa5 87be c8f6 1cbe 44ab 763d 33af 82be
00000070: 0ba0 1c3e 03a6 f63d 54f8 923d 43c7 10bd
00000080: a8e1 373d 144f 403d 6fdf 8abd 0e1f 61bd
00000090: 13e6 503e 44d4 cd3d 2d88 41bd 08f6 f8bd
000000a0: 8947 03bd 26d0 63bc 68e0 a33c 26a6 cbbc
000000b0: 094d dd3c ae42 babd 1147 3f3d ef87 1b3d
000000c0: 8c97 fe3d 0834 3a3e 0f84 58bd fae7 873e
000000d0: 8810 583e 7494 8e3d f63f 123e d457 0dbe
000000e0: ee1a be3d 4896 8b3d ba32 1b3d 3ad0 bc3d
000000f0: 3f10 7ebd cfe7 ef3c c938 2f3c 1be2 47be
00000100: 0575 743d bd30 1bbd 177d b6bd 092e a4be
00000110: 69ea 22be 1d07 1bbd 0b4a 86bd 045a 4ebe
00000120: e935 d43c c0fb 03bd fcb4 5bbe f270 873e
00000130: 79b5 243c 68c6 f1bd e46c d43d 2ee3 ce3d
00000140: e122 9c3d 6152 203d 392a 59bc e78b ba3c
00000150: 857b 02bb 1c21 75bb a054 43be 05a9 2ebd
00000160: 77e6 133e 2c3d 283d 1c7c c03d e1d7 873e
00000170: d41c 52bd d140 703e a353 26be 60aa 49bd
00000180: 482c 85bd 30fd c93b fe47 d03d d726 f73b
00000190: 9670 21bc f9d3 013e 2c72 703d ce33 50be
000001a0: 2966 b5bc 919d 8bbd dee4 803c 590c 013e
000001b0: 1533 9cbc 2b68 503e c67a f7bd f088 a23d
000001c0: 0020 e23b 0986 933d 550e acbd 0392 b8bd
000001d0: 6067 2a3d 6f82 4c3d 8c1e 033e 092a 273e
000001e0: 6251 d33d 8855 6ebd a8b4 a03d 4e7f 13be
000001f0: 93b7 e5bd 070e f23b 2d96 cfbc 70aa 9e3d
00000200: f47a 293e cd56 813d a496 ee3d 3f94 9e3d
00000210: 91e2 21bd caa7 71be 1a8d 02be 38eb debc
00000220: b49c 71bd 6a06 ef3c 58ea 4f3e caa1 96bc
00000230: c374 883d eeac c53d 7d03 1abe 541d ddbb
00000240: 7b7f 6b3d 6e3e a63d 9013 d63d 74e2 1ebd
00000250: ca7c d73d 178d 0bbd 7127 cabd 5ac4 f1bd
00000260: 497b 6f3d 1528 f93d fe90 a5bd 7753 f6bd
00000270: 3580 b0bd bb45 3b3d 9e70 debd eecf f43d
00000280: ffce e93c e4e1 163d ac16 013e 9339 873c
00000290: 2e12 9e3d 30a6 e2bd a4cd 2bbe a467 823c
000002a0: 410c 61bd 934a 823d 0393 033d 19d6 2e3e
000002b0: 86f7 5c3e eb34 a4bc 3e4a 3a3b ed6e 13bb
000002c0: bccc b43b ca3b 0c3e 3067 ffbd a18a d03d
000002d0: 0b37 a73d c877 283d 3f4f 003d 2737 d63d
000002e0: 32c9 a93d 7e76 2f3e 8f19 493c f5dd 9cbd
000002f0: 60d8 263e d279 1fbe d844 3c3d 78a1 893d
00000300: 2a3e 7fbd ec52 513e c74c c53d 5b05 9d3d
00000310: d488 243e 8277 2f3d fd85 fb3d 4e23 763e
00000320: 18e4 94bd fb60 06bd c0c5 a9bc 9378 a5be
00000330: 4828 6ebd e98e e13b 5b52 5f3e fe85 3b3d
00000340: 08ef 1abd 4c6c 223c b3ab 993d db79 9fbd
00000350: 60f7 be3e 7885 73bd d6f9 e13c c91e e93d
00000360: 334c dabd 1844 a23c fcd7 20be b08a fdbd
00000370: 70ec aebd 5f54 d33d e6c0 6d3e a113 6fbc
00000380: e67f b83c fe49 6f3d c730 c93d 131a d2bd
00000390: 6b48 703e 9f5c e33d 9aca 0cbe e4d2 ba3c
000003a0: 33c3 a7bd dd25 d5bc 9c17 b0bd 879f 53bd
000003b0: 4dc2 89bd 202e 2f3c dc5d 113e 0896 83bd
000003c0: c017 143d b9ef ebbd 77d3 4dbe 6b9b ee3d
000003d0: 1b10 193e 9571 ee3d 4b05 843e fcf3 863e
000003e0: 354f 5fbd d770 783c 2a8f 813d bc00 15bc
000003f0: 88db de3d 1e6f 35bc 7c71 d83d 3717 f83d

encoder.4.bias f4 [128]
0.011382677 0.046639908 0.018068878 0.057703257 0.028799605 0.029054288 -0.035842758 -0.022319738
-0.03967864 -0.006829204 0.029612694 0.011840401 0.030440126 0.035418067 -0.030639615 -0.009528558
0.052096818 0.04536035 0.04806016 -0.031971786 -0.044287037 -0.0024074204 -0.029205505 0.026661362
0.044376273 0.03800977 -0.0058957716 0.02325419 -0.011489562 0.011574664 -0.050276734 0.043779578
-0.0064264056 -0.040377945 -0.05941961 -0.045293108 -0.05046385 0.004826998 -0.0067280005 0.03927392
-0.021691104 -0.019896252 0.06170695 0.05216402 -0.05814844 0.056342408 0.00038785383 -0.040221624
0.03981933 -0.03805341 0.025427125 0.03384048 -0.042524762 0.022674434 -0.034037217 0.0050441786
-0.0059493603 0.042413883 0.018304098 0.04168461 -0.027555771 0.021742348 -0.0123915775 0.035383005
-0.030070363 0.061326027 -0.021341171 -0.010987544 -0.016917976 -0.022643186 0.06201032 -0.0056613735
-0.04372528 -0.033731908 0.003959655 -0.061102767 -0.002441502 -0.017044835 0.03435917 0.042715017
0.0009500882 -0.039206937 -0.017392918 0.006163733 0.02660929 -0.04790826 -0.043743003 0.06104382
-0.018218664 0.036670953 0.0064611193 -0.038556624 0.050933376 0.020234471 -0.057865176 0.025454577
0.032565158 0.043283492 0.04086146 -0.055627666 -0.0007238112 0.045646444 0.05333868 0.042428352
0.033842415 0.023629716 -0.046212357 0.018143546 0.027609421 0.05103053 -0.037171695 0.030775884
0.042457968 0.05062016 0.040722415 -5.5420956e-06 -0.031430203 0.032896403 -0.053594887 -0.057530805
-0.036443897 -0.0011007882 -0.013330292 0.05022435 -0.04200315 -0.045515973 0.037769962 0.043926753
00000000: 687e 3a3c 7d09 3f3d 2f05 943c 405a 6c3d
00000010: 26ed eb3c 4203 ee3c dbcf 12bd e2d7 b6bc
00000020: 1286 22bd 84c7 dfbb 5296 f23c 3efe 413c
00000030: 925d f93c 8912 113d eeff fabc ab1d 1cbc
00000040: 7963 553d c6cb 393d bbda 443d d9f4 02bd
00000050: 5366 35bd d0c5 1dbb 6240 efbc ee68 da3c
00000060: e5c3 353d 22b0 1b3d 5131 c1bb 927f be3c
00000070: b73e 3cbc a9a3 3d3c faee 4dbd 3752 333d
00000080: 9994 d2bb 5863 25bd fa61 73bd 4485 39bd
00000090: 2fb3 4ebd cb2b 9e3b 8f76 dcbb b1dd 203d
000000a0: 8bb1 b1bc 77fd a2bc 6dc0 7c3d f0a9 553d
000000b0: 0f2d 6ebd 4cc7 663d dc58 cb39 6ebf 24bd
000000c0: 9819 233d e4dd 1bbd 8c4c d03c 519c 0a3d
000000d0: 722e 2ebd bcbf b93c 9c6a 0bbd a349 a53b
000000e0: daf2 c2bb 2eba 2d3d 7af2 953c 7bbd 2a3d
000000f0: a4bc e1bc 021d b23c 0b06 4bbc c5ed 103d
00000100: 1f56 f6bc 0031 7b3d aed3 aebc 1a05 34bc
00000110: 9197 8abc 347e b9bc 89fe 7d3d 0b83 b9bb
00000120: 4719 33bd 782a 0abd febf 813b e546 7abd
00000130: 9b01 20bb 9ca1 8bbc 33bc 0c3d f1f5 2e3d
00000140: 570f 793a 7497 20bd 987b 8ebc 24f9 c93b
00000150: bafb d93c 743b 44bd dd2b 33bd 1609 7a3d
00000160: 4f3f 95bc 4834 163d ccb7 d33b 8ded 1dbd
00000170: 849f 503d c3c2 a53c 0904 6dbd 1e86 d03c
00000180: 0b63 053d 084a 313d 595e 273d d6d9 63bd
00000190: 26be 3dba c4f7 3a3d a979 5a3d 5ac9 2d3d
000001a0: 589e 0a3d 1b93 c13c 2b49 3dbd c6a1 943c
000001b0: 272d e23c 6405 513d 5941 18bd b51d fc3c
000001c0: 68e8 2d3d 1657 4f3d 8ccc 263d 3df6 b9b6
000001d0: f5bc 00bd 61be 063d 5086 5bbd 6ca5 6bbd
000001e0: 3246 15bd 5348 90ba 4c67 5abc 0cb8 4d3d
000001f0: 7f0b 2cbd f56e 3abd adb4 1a3d 8aec 333d

encoder.5.weight f4 [128]
0.92553335 1.1043544 1.2837449 1.0827578 1.0226278 0.9264276 1.0270497 1.035117
1.0983489 0.939886 0.91113174 0.96937734 0.9661688 0.9745345 0.9743943 1.231534
0.9713099 1.0456462 1.2160643 0.89733875 1.0127167 1.0984565 0.9847974 1.1324089
1.002856 0.98230624 1.0178609 0.9675606 0.9737932 1.1074798 1.0853903 0.9808412
1.0932157 1.0848058 0.98446053 1.0365853 1.0454214 1.1365513 0.9244139 1.0502691
0.89832276 1.0451133 1.0727452 1.018189 1.1805602 1.0008696 1.0283735 1.1035069
1.0183321 1.110072 0.9957103 1.0144372 0.98925084 1.0254321 0.9283666 1.0132285
1.042964 1.0914147 0.8887025 0.93004256 1.0563875 0.99977356 0.9779311 0.95324564
0.98256546 1.0455137 1.0662849 0.95387536 1.0699382 0.90038383 1.0783714 1.3080509
1.2109344 0.98778015 0.83920795 1.1049159 1.0540175 0.93621206 0.93777484 0.96718156
0.99024075 1.0493722 1.0299124 1.072058 0.96395975 1.174247 1.0343903 1.0457139
1.0380559 1.0708691 1.1494894 0.90885115 1.0430367 1.0364552 0.99787664 0.9806967
1.0609562 0.98769695 0.97805434 0.97720295 1.1222856 0.96856695 1.0190027 1.1264511
1.048453 0.9788093 1.0085181 1.0063529 0.86820215 0.9971989 1.0566967 1.042739
0.91833264 1.0553837 0.9507393 1.0211887 0.9841194 1.0322824 0.9927591 1.0141817
0.98585147 1.0309082 0.8585364 0.9132525 1.0164732 1.0287808 0.98342377 0.9674847
00000000: c1ef 6c3f 7c5b 8d3f c151 a43f cf97 8a3f
00000010: 78e5 823f 5c2a 6d3f 5d76 833f b77e 843f
00000020: b296 8c3f 5e9c 703f ee3f 693f 1d29 783f
00000030: d756 773f 187b 793f e871 793f e8a2 9d3f
00000040: c4a7 783f bcd7 853f ffa7 9b3f feb7 653f
00000050: b3a0 813f 399a 8c3f af1b 7c3f c6f2 903f
00000060: 965d 803f 6c78 7b3f 4449 823f 0db2 773f
00000070: 834a 793f e6c1 8d3f 12ee 8a3f 6918 7b3f
00000080: 7eee 8b3f ebda 8a3f 9b05 7c3f d4ae 843f
00000090: 5ed0 853f 837a 913f 64a6 6c3f 386f 863f
000000a0: 7bf8 653f 46c6 853f b74f 893f 0454 823f
000000b0: 991c 973f 7f1c 803f bea1 833f b73f 8d3f
000000c0: b558 823f d716 8e3f dfe6 7e3f 14d9 813f
000000d0: 8b3f 7d3f 5c41 833f 6fa9 6d3f 79b1 813f
000000e0: d87f 853f 7ab3 8b3f 0282 633f 4517 6e3f
000000f0: b537 873f 29f1 7f3f b159 7a3f e807 743f
00000100: 6989 7b3f 65d3 853f 067c 883f 2d31 743f
00000110: bcf3 883f 8e7f 663f 1308 8a3f 366e a73f
00000120: e6ff 9a3f 29df 7c3f 55d6 563f e26d 8d3f
00000130: 0cea 863f 98ab 6f3f 0312 703f 3699 773f
00000140: 6b80 7d3f d451 863f 2bd4 833f 3239 893f
00000150: 11c6 763f ba4d 963f e766 843f f4d9 853f
00000160: 04df 843f 3d12 893f 7822 933f 78aa 683f
00000170: 3a82 853f 90aa 843f d874 7f3f f00e 7b3f
00000180: 6acd 873f b5d9 7c3f c561 7a3f f929 7a3f
00000190: 0ea7 8f3f 01f4 773f ae6e 823f 8d2f 903f
000001a0: b533 863f 3f93 7a3f 1f17 813f 2cd0 803f
000001b0: 7f42 5e3f 6d48 7f3f d641 873f 7978 853f
000001c0: d917 6b3f d016 873f a763 733f 50b6 823f
000001d0: 40ef 7b3f d421 843f 7625 7e3f b5d0 813f
000001e0: c360 7c3f cdf4 833f 0bc9 5b3f eaca 693f
000001f0: cb1b 823f 17af 833f a9c1 7b3f 14ad 773f
