models/fuzzing_model.pth (torch, 603037 bytes, 32 tensors)

encoder.0.weight f4 [256, 114]
000000 8b b3 63 be 25 69 b2 3d 7a 1a 57 bd 84 61 e1 be
       -0.22236459 0.08711461 -0.052515484 -0.4401971
000010 b7 14 fa 3c 32 ad b7 bb 58 13 d9 3d b9 7e ba 3d
       0.030527456 -0.0056053633 0.10599393 0.09106202
000020 58 13 c8 bd 0f ec 19 3f d3 fc e5 3d ca 2f c1 3d
       -0.097693145 0.6012582 0.11229863 0.09432943
000030 dd 90 e5 3d 50 b5 7e 3d b9 c1 71 3d 08 54 74 be
       0.11209271 0.06218463 0.05902264 -0.2386018
000040 19 57 40 bd d5 35 92 bd aa 67 01 bf af 18 51 3c
       -0.046958063 -0.07139174 -0.50548804 0.012762233
000050 04 17 b6 bd 6d 3b 7f 3c e3 1f 27 3e f5 97 6c 3d
       -0.08891109 0.015578133 0.16320758 0.057762105
000060 eb 1d 05 3f cc c5 a2 3d b4 d0 43 3d 99 eb bd 3d
       0.51998776 0.07947883 0.047806457 0.09273452
000070 fb b4 04 3e 0a ff 3a 3c 18 6d 74 be 30 45 92 bd
       0.12959664 0.011413345 -0.23869741 -0.07142103
000080 3f db 15 bd a3 d0 40 bd 68 05 77 bc 72 04 74 3e
       -0.036586042 -0.04707397 -0.015076973 0.23829821
000090 59 4d 0c 3e 37 e7 a7 be ab 53 3c 3d 10 b7 29 3d
       0.13701381 -0.3279359 0.04597823 0.041434348
0000a0 b2 13 3f 3d b2 4d 77 bb 00 37 8a 3e 83 df b9 3e
       0.046649642 -0.003773552 0.26995087 0.36303338
0000b0 ff 67 00 bd 55 7f 29 3d 76 45 2d 3d ba e9 f4 3d
       -0.03134918 0.0413812 0.04230257 0.11958642
0000c0 85 0f c7 3d 54 9a 98 3e ec 0e 6d 3e ba 36 10 3f
       0.09719757 0.29805243 0.23150223 0.56333506
0000d0 2f 74 2b 3e c6 41 05 bd 81 03 4c 3e 87 e1 2c 3e
       0.1674354 -0.03253343 0.19923212 0.16882907
0000e0 0f 6f b5 bd 47 7e d6 3d ef 99 ea bd d5 ec 12 3e
       -0.08859073 0.10473304 -0.11455142 0.14348157
0000f0 3c 08 98 3d 8d a9 37 3e 32 61 26 3e c5 70 3d be
       0.074234456 0.17935772 0.16248015 -0.1850005
000100 48 ef 07 be b6 a5 a8 be 9f ef 21 be 30 26 09 bd
       -0.13274872 -0.32938927 -0.15814064 -0.033483684
000110 ba a3 f2 be ff 35 b9 bd 32 e8 18 be b0 f1 15 3d
       -0.47390538 -0.09043502 -0.14932325 0.036607444
000120 db 8a a1 bd d6 f2 86 bc e8 3c 14 3f 58 0b 59 be
       -0.07887813 -0.016473215 0.57905436 -0.21195734
000130 72 ac 2d be 90 6f d2 bd d4 48 0a be 20 81 0f bd
       -0.16960314 -0.10275185 -0.13504344 -0.035035253
000140 ab a9 96 3d 5e f9 31 be e3 1a 87 3e 1e d2 54 be
       0.0735658 -0.17380282 0.263877 -0.20783278
000150 b5 14 ce 3e 35 5c da 3d 43 ed 9a bc 8a 78 09 be
       0.40250173 0.10662118 -0.018911963 -0.13424888
000160 12 ed 63 3d 8d fd c1 3d 55 e1 b5 bd 13 c3 59 3e
       0.05564601 0.09472189 -0.08880869 0.21265821
000170 46 49 a0 be 9a 86 89 be 6c 3f 88 3e 2e 9e 6c 3d
       -0.31305903 -0.26860505 0.26610887 0.05776804
000180 48 ac 24 be fc 95 52 3c 11 44 62 be c1 e5 df bd
       -0.16081345 0.012853142 -0.22096278 -0.10932494
000190 f9 57 21 3d 8d 35 26 3f 6c dc 8d 3e 21 80 1c be
       0.039390538 0.6492546 0.2770723 -0.15283252
0001a0 01 a5 d8 3d ce 41 96 bd ec 85 d3 bd 61 9e b3 bd
       0.10578347 -0.0733677 -0.10328278 -0.08770443
0001b0 b1 50 6e 3e 13 c0 a5 3d ee 9f 96 bc ce cb 4c 3e
       0.23272969 0.08093276 -0.018386807 0.1999962
0001c0 f8 80 0a be a2 f1 19 bb d7 9f 36 be 5a 84 2c 3e
       -0.1352576 -0.0023489972 -0.17834412 0.16847363
0001d0 a1 35 d5 be b2 44 91 bc a5 b6 85 3e 6d e2 4a be
       -0.41642478 -0.017732952 0.2611591 -0.19812937
0001e0 a8 49 8c 3e 6e 40 25 3e 16 b3 5a 3d c5 9d 4b 3e
       0.27399945 0.16137859 0.053393446 0.19884403
0001f0 29 ba ba 3c 67 b1 6c 3e eb 2d 31 be 8d 45 4f 3d
       0.022793846 0.23114549 -0.17302673 0.05060344
000200 d1 e0 03 3e 35 12 ec bd 97 3d b3 3e 1d 13 b0 be
       0.1287873 -0.1152691 0.35007927 -0.34389582
000210 75 32 05 3e 09 f0 87 3e 05 3b a0 be cf 04 a7 3e
       0.13007529 0.2655032 -0.31295028 0.32620856
000220 22 a6 17 3e 1e bd c6 bd 62 1b e8 3d c1 43 c0 3b
       0.14809468 -0.0970404 0.11333348 0.005867452
000230 32 57 39 3e 4b 35 41 be a9 bc dc 3d 4e 8c 27 3e
       0.18099669 -0.18867986 0.107781716 0.16362116
000240 1f 7c af bd 65 d2 36 3e 4a a0 61 be b0 83 e2 bd
       -0.08568596 0.17853697 -0.22033802 -0.11060274
000250 74 6b 9d be 94 61 63 be 4f 12 84 3e 61 eb d5 3d
       -0.30746043 -0.22205192 0.25795218 0.104452856
000260 92 4c 60 3e 42 90 30 be c4 7c 04 bd db 9e 8e be
       0.2190421 -0.1724253 -0.03234555 -0.27855572
000270 33 0f 23 be 72 fc a8 3e e2 31 c0 3e 6e 44 79 3e
       -0.15923767 0.330051 0.37538058 0.2434251
000280 17 fe 42 3d 26 5a 43 bd a6 37 25 3d 34 34 7b 3f
       0.0476056 -0.047693394 0.040336274 0.9812653
000290 f9 60 2a 3f 42 44 2d 3e 1f 0c 11 bc 7d a3 75 3e
       0.6655422 0.1692057 -0.008852988 0.23988147
0002a0 9d e6 7f be 3e 5e 8f 3d e3 1b 95 3f bc 76 23 3f
       -0.24990316 0.07000397 1.1649135 0.6385305
0002b0 18 05 e6 bd 81 16 0f 3c 96 65 18 3e 58 6b a4 be
       -0.1123144 0.008733393 0.14882502 -0.32113147
0002c0 ac f1 db 3d 16 81 2d 3e 76 a8 a6 3e 24 0e 62 be
       0.107394546 0.16943774 0.325504 -0.22075707
0002d0 1a 2d f8 3d 2a aa 13 be a6 72 c0 3d cf e7 43 3d
       0.121179774 -0.14420381 0.093968675 0.04782849
0002e0 0e 39 ea bd ee d2 c2 3e d3 61 0f 3e 55 c9 3b be
       -0.114366636 0.38051552 0.1400216 -0.18338521
0002f0 f9 cc 5a 3e f6 cd 1d bd 7a 9f 82 be 35 38 6f bd
       0.21367253 -0.038526498 -0.25512296 -0.058403213
000300 22 3b 10 3e a3 f2 8b be b7 ff a5 3e d5 13 44 3e
       0.14085057 -0.27333555 0.32421657 0.1914819
000310 17 f3 5d be 79 93 b1 bb 89 f7 9e be f0 1f 24 3d
       -0.21674763 -0.0054191914 -0.3104823 0.04006952
000320 29 39 47 3d 74 29 f1 3e e3 a0 85 3e ae a2 88 be
       0.048638497 0.4710194 0.2609931 -0.26686615
000330 73 61 07 3e d6 4a d1 be 7d e3 26 3e a4 f3 99 3d
       0.13220768 -0.40877408 0.16297717 0.07517174
000340 b4 3d 26 3f 65 f3 32 3e a9 30 12 bd 25 62 e9 3c
       0.649379 0.1747566 -0.035690937 0.028489182
000350 dc b8 ed bd f6 b0 0b be 21 75 d0 bd 47 5d 36 3e
       -0.11607525 -0.13641724 -0.101785906 0.1780902
000360 fa 17 e8 3c b0 5b ff 3e eb 50 0c be 9a 5a 14 3f
       0.028331745 0.4987464 -0.13702743 0.57950747
000370 75 7f 34 3e 5d 77 6d 3e f9 e0 34 be 08 07 2c 3e
       0.17626746 0.23190065 -0.17663945 0.16799557
000380 bf 04 a0 3e 9d 2a 3e be 3a 10 e7 3e e1 af 18 be
       0.3125362 -0.18570943 0.45129567 -0.14910842
000390 bf e1 09 3f 3a 78 31 3d 11 dd d8 3e 32 07 70 3e
       0.53860086 0.043327548 0.4235616 0.23440245
0003a0 9b 21 7e 3d da 65 4f 3e 04 bf 30 be 32 dd e9 3c
       0.062043767 0.20253697 -0.17260367 0.028547857
0003b0 ca 20 18 be ac fe 50 be a0 7e 9d 3d 73 60 40 be
       -0.14856258 -0.2040965 0.076901674 -0.18786792
0003c0 a7 ac 57 3d 08 b3 39 3d a8 23 58 be cd 5b 1d 3f
       0.05265489 0.045336753 -0.21107352 0.614682
0003d0 0b c9 7c bb 75 8b e0 3e 8d 22 39 3e 2e ab 82 bd
       -0.003857198 0.43856397 0.18079586 -0.06380306
0003e0 36 c2 8c 3e c8 7c 58 be 15 9b 89 bd 1d d4 08 be
       0.2749192 -0.2114135 -0.06719033 -0.13362165
0003f0 44 97 61 be 12 d7 af 3c f5 24 86 be d7 4d 7b 3d
       -0.2203036 0.021464858 -0.2620007 0.06135353

encoder.0.bias f4 [256]
000000 9e 4d c1 3c 4e 8c 9e bd 9c e2 9e bd 02 2c 37 bd
       0.023596581 -0.07741605 -0.07758066 -0.044719703
000010 af 4c 73 3d 10 81 21 bc 97 fc 8b 3d 89 b3 2f bd
       0.059399303 -0.009857431 0.06835287 -0.042895827
000020 f0 67 3f bd 78 8f d4 3c 44 88 75 bd 4a 75 b4 bd
       -0.046729982 0.025947317 -0.059944406 -0.088114336
000030 5e da 4b bc 09 5d 91 3d 54 94 83 3d a4 3a 06 bb
       -0.0124421995 0.07097823 0.06424776 -0.002048173
000040 7c 53 ab bd 51 fc 89 bd e5 94 09 3d a0 6a 02 3d
       -0.08365533 -0.06737579 0.033589263 0.031839967
000050 3e 5e 53 bd 5d ed d1 3c ce 33 26 3d 70 44 33 3c
       -0.05160355 0.025625879 0.04057675 0.01094161
000060 18 a9 ce bb 58 a5 8d ba e5 73 ad 3d 14 8f 36 3d
       -0.0063067786 -0.0010806723 0.08469371 0.044570044
000070 6a 61 b7 3c 55 26 17 3d 37 dd a4 3d fd 5b fb 3c
       0.022385318 0.03690179 0.08050006 0.030683512
000080 c5 10 b7 3d 6c da 79 bd 15 df 4b bc 1c ad 20 3d
       0.089387454 -0.06099932 -0.012443324 0.03922759
000090 51 8f 9b 3d 09 db 07 bd 5f 23 b1 3c 24 c3 bc 3c
       0.07595695 -0.033167873 0.021623312 0.023042269
0000a0 53 49 b3 bd db 38 55 bd 26 16 db 3b 41 d0 99 3c
       -0.0875422 -0.052056175 0.00668599 0.018776061
0000b0 fd 1b 7f bd aa 2c 1e bd bd 40 51 bc ab 5a 20 bd
       -0.06228255 -0.038616814 -0.012771782 -0.039148968
0000c0 40 7f 8a 3d b8 38 9b bd 6f b7 a3 bd 82 48 08 bd
       0.06762552 -0.075791776 -0.079939716 -0.033272274
0000d0 a8 a4 b5 bd ce 06 b9 3d 04 50 b6 bd b2 ec a9 3c
       -0.08869296 0.09034501 -0.089019805 0.020742748
0000e0 f8 3e 86 bd 5f 33 a7 bd de df 9e 3d 4a d4 c5 bb
       -0.06554979 -0.08164095 0.07757543 -0.0060372697
0000f0 41 d3 87 bd b4 d8 6d 3d d1 7c 42 bd d3 70 b9 bb
       -0.0663209 0.058067992 -0.047482315 -0.0056592016
000100 d2 94 ac 3d c9 d4 c3 3b 18 a1 a7 3d be 13 6c bd
       0.08426823 0.0059762937 0.08185023 -0.057636015
000110 a6 f1 9e bd 9c 6b aa 3c 42 5a a6 bd e3 00 4a bd
       -0.077609345 0.020803265 -0.08122684 -0.049317252
000120 05 91 38 3c c6 48 91 bd c0 9f 08 bd d1 33 29 3c
       0.011265044 -0.070939586 -0.033355474 0.010327295
000130 18 59 b1 bd af 27 6d 3d 90 f7 8e 3d eb 0d 16 3c
       -0.086595714 0.057899173 0.069808125 0.009158592
000140 31 91 67 3d f6 ce ba bd 98 d6 0b bc d2 3c af bd
       0.05653495 -0.09121506 -0.00853505 -0.085565224
000150 23 10 a6 bd 16 56 94 3d 1c 59 b5 3c ed c7 42 bd
       -0.081085466 0.07242982 0.022137217 -0.047553945
000160 96 98 81 3b 64 04 ac 3d ec ba 65 bd 9e be af bd
       0.0039549572 0.08399275 -0.056086466 -0.08581279
000170 55 5f b1 bd ff 59 21 3d f9 8e 8e 3d e3 92 31 bd
       -0.08660761 0.039392468 0.069608636 -0.043352973
000180 66 57 85 3d 8a a1 60 3d 03 4d 8d 39 8f 50 70 3d
       0.065108106 0.054841556 0.00026950994 0.058670577
000190 a8 14 37 bd f5 1e 0c 3d 90 0b ec 3c ab a8 a9 3d
       -0.044697434 0.03420921 0.028814107 0.08284124
0001a0 cf 06 b5 bd 59 ca 7d 3d 6e 41 85 3b 36 d5 b7 bd
       -0.08839189 0.061960552 0.0040666377 -0.08976214
0001b0 bc c2 aa 3d 32 4b f5 bc 88 9c 2a bd db d7 6d 3d
       0.08337924 -0.029943082 -0.041653186 0.058067184
0001c0 07 fe 61 bd 70 41 0b 3d 1b 04 16 bd 61 28 8e 3c
       -0.0551739 0.033997953 -0.03662501 0.017353239
0001d0 ae b4 74 3c 08 5a 81 3d 50 b9 ce 3c af dd 5d 3d
       0.0149356555 0.06316 0.025234848 0.054166492
0001e0 2f 20 ab 3c 22 cd 9f bc 40 0c ff bb ec 95 8d 3d
       0.02088937 -0.019506995 -0.0077834427 0.06913361
0001f0 e1 04 3e 3d 6d 86 30 3b 03 47 f9 ba ad 9c 40 3d
       0.04639137 0.0026935593 -0.0019018356 0.047024418
000200 c9 63 0e bc 64 ab 3e 3c 5d 4d 86 3d 48 3d 01 bd
       -0.008690783 0.011637542 0.065577246 -0.031552583
000210 9d ad 08 bd 98 65 5e bd ab 70 1b 3d 16 f7 b0 bd
       -0.033368696 -0.054296106 0.037949245 -0.08640878
000220 51 91 a0 3d 98 60 25 bd 58 ef c1 bc 16 c5 86 bd
       0.07840217 -0.040375322 -0.023673698 -0.0658056
000230 cc 5a a0 bd da a1 e4 bc 7b 09 7e 3d 3f f0 c4 3c
       -0.07829818 -0.027909208 0.06202076 0.02404034
000240 49 78 b6 3d 1e a5 14 3d 74 b3 bb 3c ff a4 97 3c
       0.08909661 0.03629028 0.022912718 0.018511293
000250 06 0e 26 bd f3 5d 75 bd e0 17 80 3d 46 07 45 ba
       -0.040540718 -0.05990405 0.06254554 -0.00075160374
000260 d9 d6 bc bc ad a5 8c bc b4 b7 a5 bd bb 38 74 ba
       -0.023051666 -0.017168844 -0.08091679 -0.0009316315
000270 d9 fb 14 b9 17 11 b8 bd 6a 28 f5 3c 47 cb ad bc
       -0.000142082 -0.08987635 0.029926497 -0.021215094
000280 d2 83 2e 3c 92 47 7b bd 3f b0 3c bc 52 b4 2b bd
       0.010651546 -0.06134755 -0.01151663 -0.041920014
000290 97 cc bc bd 67 93 cd 3b a8 41 ad 3c 5a 96 da 3c
       -0.0921871 0.0062736752 0.021149471 0.026683021
0002a0 7d be b2 3d 9b 1b 62 3d 8d 2c 92 bd 2c 46 b1 3d
       0.08727739 0.055202108 -0.07137404 0.08655962
0002b0 71 07 93 3b 69 f8 82 3d ac 49 91 3b d0 4d 7f 3d
       0.004486971 0.06395037 0.004433831 0.062330067
0002c0 95 d7 9e 3d 2f a3 92 bd 4e 85 b6 bd 47 bf 99 3c
       0.07755963 -0.07160031 -0.089121446 0.018767966
0002d0 69 c2 3c bc e0 34 2f 3d 24 f3 f0 3c 08 1c dd bc
       -0.01152096 0.042775035 0.029412813 -0.026990905
0002e0 9e 51 95 3c cb 6c 86 3d b2 26 d9 3c a5 85 91 3d
       0.018227395 0.06563719 0.02650771 0.07105569
0002f0 6e 77 29 bd db fb a6 bd 2f ca 7e bc b1 5d 7a bb
       -0.041373663 -0.08153506 -0.015551134 -0.0038202817
000300 28 7c 44 bd cf 1a 5d bd e4 19 39 bd 4b 72 5a bd
       -0.047969967 -0.053980645 -0.045190707 -0.053331655
000310 f4 17 bd bd 63 0a af 3d 24 56 bd bd 0c 12 86 bb
       -0.09233084 0.08546903 -0.09244946 -0.004091507
000320 cd b1 86 3d 37 ab 28 3d 45 0a c3 bc 89 e2 ba bd
       0.065768816 0.04117891 -0.023808608 -0.091252394
000330 90 b5 0f 3b 0f e8 84 bc ae 87 48 3d e7 ef 12 bd
       0.0021928288 -0.016223935 0.04895752 -0.03587332
000340 79 59 a7 3d 7e 44 b8 3d af 8a 67 3b 4e 3b a1 3d
       0.081713624 0.08997439 0.0035330465 0.078726396
000350 76 5c 95 3d dd 4d 96 b9 db 4b 42 3c 25 42 b5 3c
       0.07293026 -0.00028668242 0.011858906 0.022126267
000360 b9 cc 92 bb df 3d cb bc e1 f5 07 bd bf a1 2c 3d
       -0.0044799712 -0.024809776 -0.033193473 0.04214644
000370 82 08 35 3d 90 de 31 3d 34 1c 4d 3c f6 09 63 3d
       0.044197567 0.043425143 0.012518931 0.05542942
000380 23 c5 bc bd 92 12 01 bd 68 48 b7 3d 73 af 45 3d
       -0.09217288 -0.03151185 0.08949357 0.048263025
000390 c9 f4 b6 3d 96 12 86 bd f4 46 00 bd f3 7b b8 bc
       0.08933408 -0.06546514 -0.031317666 -0.022520041
0003a0 da 97 49 3d 4d 49 a3 bd d5 0c 35 bd 01 8e 22 bd
       0.049217083 -0.079729654 -0.04420169 -0.039686207
0003b0 4f 16 85 3d ad 99 96 bd f3 76 29 3d ae f7 d4 3c
       0.06498396 -0.0735353 0.041373204 0.02599701
0003c0 cd 03 a5 bd 60 2e 46 3d 17 33 21 3c 9a 73 2c 3d
       -0.080573656 0.04838407 0.009838841 0.042102434
0003d0 8f cf 0e bd 97 27 49 3b e0 0a 91 3d 40 2c 9c bd
       -0.034865912 0.0030693763 0.07082152 -0.076256275
0003e0 dd c5 d9 bb 26 fe b6 3b 45 1c 9d 3b dd 5d c4 bc
       -0.0066459016 0.005584496 0.0047946298 -0.023970539
0003f0 e7 ba 2c bd 18 85 d3 3c 5c 57 3a 3c 9a c8 49 bd
       -0.04217043 0.0258203 0.011373367 -0.049263574

encoder.1.weight f4 [256]
000000 e8 e4 a0 3f 6a 42 a0 3f ec 4f 66 3f f8 0e 98 3f
       1.2569857 1.2520268 0.899657 1.1879568
000010 0d b6 93 3f 44 90 83 3f 97 27 8a 3f 76 93 82 3f
       1.1539932 1.0278401 1.0793332 1.0201252
000020 d6 53 84 3f 0e 45 80 3f de d2 a8 3f 8f 35 69 3f
       1.0338085 1.0021074 1.3189352 0.9109735
000030 46 fb 9d 3f b7 85 8d 3f f8 87 87 3f 9d e8 71 3f
       1.2342308 1.1056432 1.0588369 0.94495565
000040 a5 a7 47 3f bc 29 90 3f 0b 6d a5 3f 8e 8f 43 3f
       0.7799018 1.1262736 1.2923902 0.7639092
000050 0a 4b 8c 3f 69 fe b3 3f 4d 94 85 3f 11 b2 a4 3f
       1.09604 1.4062015 1.0435883 1.2866842
000060 76 9c ab 3f 65 0b a4 3f fd 99 83 3f fc 2a a3 3f
       1.3407123 1.2815977 1.0281368 1.2747493
000070 04 f0 9b 3f 24 aa 39 3f 7d ac 7c 3f ca c7 8c 3f
       1.2182622 0.7252524 0.98700696 1.0998471
000080 ac 8e 9c 3f 44 5f 58 3f 74 40 a0 3f 3f b4 96 3f
       1.223104 0.84520364 1.251967 1.1773757
000090 71 a3 54 3f 0d f6 48 3f 66 f5 ab 3f b1 a9 88 3f
       0.8306189 0.78500444 1.3434265 1.0676786
0000a0 53 d9 ab 3f f5 fb 39 3f 03 d1 6f 3f 2a a9 85 3f
       1.3425697 0.7265008 0.936783 1.044225
0000b0 bb f0 67 3f b7 51 7d 3f 16 90 a7 3f 02 fb 7c 3f
       0.906017 0.9895281 1.3090847 0.9882051
0000c0 e0 f7 9c 3f 5e c4 96 3f 4f ad 8a 3f fc fe 85 3f
       1.2263145 1.1778677 1.083414 1.046844
0000d0 56 ad 82 3f da 63 97 3f 63 34 a1 3f 25 31 80 3f
       1.0209148 1.1827347 1.2594112 1.0014998
0000e0 18 e0 87 3f 83 c8 8c 3f d6 46 9b 3f 15 87 4b 3f
       1.0615263 1.0998691 1.2130992 0.79502994
0000f0 f9 79 72 3f 4c 43 82 3f ac 92 5b 3f 3b 20 97 3f
       0.94717366 1.0176787 0.8577068 1.1806711
000100 a9 0f 85 3f 83 3b 75 3f 4d 1d 86 3f fb 37 b9 3f
       1.0395404 0.9579393 1.0477692 1.4470209
000110 1e 18 7f 3f 69 f4 88 3f fd da 74 3f 62 f8 4d 3f
       0.99646175 1.0699588 0.9564665 0.8045713
000120 b7 62 8c 3f f5 5e b7 3f 3f b2 97 3f 27 ee 8e 3f
       1.0967625 1.4325854 1.1851271 1.1166428
000130 a5 23 7e 3f c5 cd 80 3f fa 5e 86 3f 43 48 8f 3f
       0.9927314 1.0062796 1.0497735 1.1193928
000140 f0 e6 99 3f 00 e2 80 3f 8f ed 73 3f d7 16 83 3f
       1.2023602 1.006897 0.9528436 1.0241345
000150 5b c4 88 3f f4 e7 b9 3f f7 4d 75 3f 36 4a ba 3f
       1.0684923 1.4523911 0.9582209 1.4553897
000160 e8 76 8f 3f 60 6e 7f 3f e9 4d 94 3f fb fb 4e 3f
       1.1208162 0.99777794 1.1586276 0.8085324
000170 6f 4b 88 3f 40 33 9e 3f 4d f0 87 3f 70 15 60 3f
       1.064802 1.235939 1.0620209 0.8753271
000180 74 c7 65 3f 46 da 8f 3f 10 19 88 3f 70 cc a2 3f
       0.89757466 1.1238487 1.0632648 1.2718639
000190 5c 1b 94 3f 42 7a a0 3f 31 68 39 3f 95 61 91 3f
       1.157085 1.253731 0.7242461 1.1357905
0001a0 8c 15 71 3f c3 af 72 3f 59 97 a6 3f c4 65 7b 3f
       0.941735 0.9479944 1.3014938 0.9820216
0001b0 6a 46 8d 3f 0f b7 89 3f ec cc a0 3f 87 1f 91 3f
       1.1037114 1.075899 1.2562537 1.1337746
0001c0 38 47 37 3f e9 a1 b0 3f b6 d8 70 3f 46 d5 93 3f
       0.71593046 1.3799411 0.94080675 1.1549461
0001d0 24 78 b4 3f 18 53 96 3f 87 05 8f 3f d1 bd 91 3f
       1.4099164 1.1744108 1.1173562 1.1386052
0001e0 62 af a1 3f 84 1d 87 3f 24 05 75 3f cb 1c 7f 3f
       1.2631648 1.0555882 0.9571097 0.9965331
0001f0 19 aa a9 3f b8 45 68 3f 29 2a 91 3f 94 27 84 3f
       1.3255035 0.9073138 1.1340991 1.0324578
000200 9d 2d 6f 3f 62 4d 6e 3f aa 7d 5b 3f fe 27 89 3f
       0.93428975 0.93086827 0.85738623 1.071533
000210 f3 02 78 3f d6 b4 aa 3f 40 2b 7f 3f b6 4d 94 3f
       0.968795 1.3336437 0.9967537 1.1586215
000220 8e 0a a6 3f d0 93 7e 3f ac f4 80 3f be 8c 7b 3f
       1.2971971 0.99444294 1.0074668 0.9826163
000230 37 ca b6 3f 19 05 84 3f aa 51 85 3f e1 b0 8d 3f
       1.4280461 1.0314056 1.0415547 1.1069604
000240 bd 00 98 3f e6 97 79 3f 02 6b 4f 3f 17 49 8e 3f
       1.1875225 0.97497404 0.81022656 1.1116055
000250 f5 43 6f 3f 5f dc 78 3f bf 63 92 3f 5b 21 a4 3f
       0.9346307 0.9721126 1.143669 1.2822679
000260 d8 84 83 3f 91 2c 82 3f 77 35 99 3f eb a3 82 3f
       1.0274916 1.016985 1.1969441 1.0206274
000270 e4 b3 7b 3f dc e3 a0 3f 36 c0 71 3f 52 6b 97 3f
       0.98321366 1.2569537 0.94433916 1.1829627
000280 b6 2b 9c 3f 1e b5 87 3f 6e 32 88 3f 35 79 77 3f
       1.220084 1.0602148 1.064039 0.9666932
000290 15 74 88 3f cd a9 80 3f 9f 57 b1 3f 4e 99 5d 3f
       1.0660425 1.0051819 1.3854865 0.8656205
0002a0 52 29 54 3f 6c 26 8b 3f 25 8e 87 3f b4 0f 90 3f
       0.8287555 1.08711 1.0590254 1.1254792
0002b0 f5 73 9e 3f e7 34 93 3f 37 8d 55 3f 19 ea 77 3f
       1.2379137 1.150052 0.834186 0.9684158
0002c0 df aa 64 3f bc 13 81 3f 2e 11 88 3f c2 21 9d 3f
       0.8932323 1.0084147 1.0630243 1.2275927
0002d0 57 17 9b 3f b8 65 6c 3f 80 e0 81 3f 37 87 89 3f
       1.2116498 0.9234271 1.0146637 1.0744389
0002e0 07 ac 44 3f d1 43 93 3f fc 5a ad 3f 3b d1 5f 3f
       0.7682499 1.1505071 1.3543391 0.87428635
0002f0 f0 82 9f 3f ef ff 8d 3f 91 d1 ab 3f e1 82 a5 3f
       1.2461834 1.109373 1.342333 1.2930566
000300 ff f2 80 3f db 20 8f 3f d8 ca 80 3f e1 16 86 3f
       1.0074157 1.1181902 1.0061903 1.0475732
000310 ac 32 8e 3f dd 6e 22 3f 6a 17 7f 3f 77 4a 96 3f
       1.1109214 0.63450414 0.996451 1.1741475
000320 5e db a4 3f 1a d9 70 3f 51 71 80 3f c6 05 59 3f
       1.2879446 0.9408127 1.0034581 0.84774435
000330 af 62 ac 3f 97 f8 8f 3f 76 e6 62 3f 19 fb 86 3f
       1.3467616 1.1247739 0.88632905 1.0545379
000340 ce 6a 81 3f b5 94 a9 3f 71 fb 50 3f 04 1b 8d 3f
       1.0110719 1.3248507 0.8163367 1.102387
000350 ce d6 92 3f 49 de 8d 3f ea 10 90 3f b7 f3 82 3f
       1.1471803 1.1083461 1.1255162 1.0230626
000360 82 bb b3 3f 87 0e 77 3f df 06 84 3f 14 8f aa 3f
       1.4041598 0.9650654 1.0314597 1.3324914
000370 05 08 5f 3f 53 8f b5 3f 16 40 84 3f 49 6d 96 3f
       0.8712161 1.4184364 1.0332057 1.1752101
000380 d4 b4 a2 3f 87 ed 88 3f 2c ae 9b 3f d9 0e 95 3f
       1.2711434 1.0697488 1.2162528 1.1645156
000390 8e 28 83 3f c6 c3 37 3f 6c ff a0 3f fb ab a0 3f
       1.0246751 0.717831 1.2577949 1.2552484
0003a0 b6 45 71 3f 38 ee a4 3f 7a 03 a7 3f a1 b6 94 3f
       0.94246995 1.2885199 1.3047936 1.1618234
0003b0 ce 91 9f 3f b8 73 58 3f 8c 3b 95 3f be 26 9a 3f
       1.2466371 0.8455157 1.1658797 1.2043073
0003c0 2c ff 6d 3f ec 98 79 3f 4e 4e 89 3f 62 c4 a7 3f
       0.92967486 0.97498965 1.0727022 1.3106806
0003d0 04 3b 8f 3f 32 84 98 3f 35 a7 90 3f cf 85 78 3f
       1.1189885 1.1915343 1.1301028 0.97079176
0003e0 7c 9f a4 3f 68 c7 93 3f 94 2b a5 3f 4b 87 c3 3f
       1.2861171 1.1545229 1.2903924 1.5275663
0003f0 c3 ae 84 3f 2e 02 9b 3f 53 54 8e 3f b5 34 71 3f
       1.0365833 1.211004 1.1119484 0.9422105

encoder.1.bias f4 [256]
000000 ab c1 85 be 79 86 b8 bd fa 57 82 be db f6 99 be
       -0.2612432 -0.090100236 -0.25457746 -0.30071148
000010 7d 85 65 be 03 e1 40 be 8e 99 45 be c5 52 ed be
       -0.22414203 -0.18835835 -0.19296858 -0.4635221
000020 b6 b2 81 bc aa a3 d5 3c 61 2a 3c bf 94 62 c8 bd
       -0.015832286 0.026079018 -0.73502165 -0.09784427
000030 a3 6c 18 be 71 74 23 3c b7 22 e4 be d2 30 90 bf
       -0.14885192 0.009976492 -0.44557735 -1.1264899
000040 fb bd 58 bc 8f 63 65 bf 5e de 08 be 28 3e 2b 3e
       -0.013228889 -0.8960504 -0.13366076 0.1672293
000050 f5 0d ba be 2a 23 ce be e3 7d 8a be a2 b4 8f bf
       -0.36338773 -0.40261203 -0.2704917 -1.1227
000060 f0 e5 c7 be b3 25 1f be 58 9b 69 bf cd 9d 68 bf
       -0.39042616 -0.15541725 -0.9125266 -0.90865785
000070 67 e5 89 bf f5 09 8d 3e c5 51 08 bf 65 fb e0 be
       -1.0773133 0.2754666 -0.5324977 -0.439418
000080 1e 79 71 be c1 e1 4f be 59 d1 ab 3d 83 b8 6c 3d
       -0.23581359 -0.20300962 0.08389539 0.05779315
000090 e2 64 fb bc 60 ed 09 3e 87 22 48 bf e5 7f cd be
       -0.030687753 0.13469458 -0.78177685 -0.40136638
0000a0 6d 08 09 be b7 72 70 3d 39 8d b9 bd f7 10 aa bc
       -0.1338212 0.05870315 -0.09060139 -0.020760043
0000b0 6f 95 c8 be d4 86 37 bf 43 5c 30 be 8e 8e e4 be
       -0.3917651 -0.71690106 -0.17222695 -0.4464001
0000c0 21 9d 42 bd 1c 5d 9a be 70 a0 5a bc 4e 9c 48 bf
       -0.04751313 -0.30149162 -0.013343915 -0.783635
0000d0 4c c0 9e be 54 8c 95 bf 31 90 37 bf 9f 9c f8 bd
       -0.31006086 -1.168345 -0.71704394 -0.12139248
0000e0 84 a9 6e be ef 9b 15 bf d5 8e 2f be c1 9b f2 bd
       -0.23306853 -0.5844106 -0.1714433 -0.11846114
0000f0 7c 70 a7 bd 0a 63 9a be ed eb 45 3e 1f 0c 09 bf
       -0.081757516 -0.30153686 0.1932828 -0.5353412
000100 0e df 64 be 63 4e 29 be 91 be 38 bf 3e 85 92 be
       -0.22350714 -0.16533808 -0.7216578 -0.2861728
000110 0d 2e 25 be e3 9a 61 be bf 9f 89 bf ac dc 32 be
       -0.16130848 -0.22031741 -1.0751876 -0.17466992
000120 ec 0b 53 bf 78 fc a8 bf ef dc b2 be c2 a3 8b be
       -0.82440066 -1.3202047 -0.34934184 -0.27273375
000130 4e ab 37 be ad 99 e1 bb 9f fe 68 bf 70 e5 c9 be
       -0.17936441 -0.0068847747 -0.9101352 -0.3943286
000140 5e 32 08 be d3 87 a8 bd 01 0c 9e bf 40 c8 1b be
       -0.13300464 -0.082290314 -1.2347413 -0.15213108
000150 7e b5 06 bf b4 bd 3e be 2d 4b 9c bf 92 35 5b be
       -0.52620685 -0.18627053 -1.2210442 -0.21407154
000160 0a 22 5d be 6a 81 17 3e d4 d2 fa be 9e 18 49 bf
       -0.21595016 0.14795461 -0.48988974 -0.7855319
000170 26 fe b1 be ea 9b 1b bf c7 d7 5f bf da 27 9b be
       -0.34764212 -0.6078478 -0.87438625 -0.30303842
000180 d5 1f 1d 3e c6 ab 0f bd 37 5a d8 be 88 6a 10 bf
       0.15344174 -0.035075925 -0.42256328 -0.56412554
000190 cb 7d 15 bf 8e 28 aa be 18 66 34 bd 58 2e 5c be
       -0.5839507 -0.33234066 -0.044042677 -0.21502054
0001a0 9e c5 e8 be 26 93 71 bf f0 c8 13 bf 1d e6 65 bd
       -0.4546327 -0.94365156 -0.5772848 -0.056127656
0001b0 88 14 3e bf bf 31 1a 3e b1 4f 14 be d7 f2 4c bf
       -0.7425008 0.15058039 -0.14483525 -0.80058044
0001c0 bf f5 f0 3d a5 2e 31 bf ce 86 3d bf 06 51 c0 bc
       0.11765622 -0.692118 -0.7403382 -0.023476135
0001d0 18 5c a1 be d4 66 6f be 1a 02 0f bf 1c 36 3e bf
       -0.31515574 -0.2337907 -0.5586258 -0.74301314
0001e0 61 0c 4d bc 30 63 f9 be 5d 16 fa 3d 3b d6 48 3d
       -0.012515158 -0.48708487 0.12211297 0.04903243
0001f0 08 90 90 bf 90 8b 3e be ce a0 b8 be 03 23 75 bf
       -1.1293955 -0.18607926 -0.36060184 -0.9575655
000200 c2 3a 96 bd f2 0d 57 be 79 f2 92 3c e7 9e eb be
       -0.07335426 -0.21001413 0.017937886 -0.4601967
000210 51 5f a1 bf 20 ac 25 bc c7 ba 46 bf 60 91 c3 be
       -1.2607213 -0.010111839 -0.7762875 -0.3819685
000220 20 3e 8f be ad 43 23 bb a2 86 13 bf 17 0f 08 bf
       -0.27977085 -0.0024912164 -0.5762731 -0.53148025
000230 25 68 1d bf f4 0c c0 bd 4a 8e 9f be 34 6a fe bd
       -0.61487037 -0.093774706 -0.31163245 -0.124226004
000240 d7 f1 21 bf 91 4a 8e bf 09 e9 a1 3e df 95 0b bf
       -0.63259643 -1.1116506 0.31623104 -0.5452556
000250 43 f5 89 be f7 6f c9 be b6 44 12 bf ec 10 31 bf
       -0.26944932 -0.39343235 -0.57136095 -0.69166446
000260 69 30 53 be b7 0d 72 bf a1 e9 82 bd 8a 85 39 be
       -0.20623936 -0.9455218 -0.063922174 -0.18117347
000270 fa 4c 3a bf d6 32 19 be 26 fc 66 be 16 e1 0f bf
       -0.72773707 -0.14960799 -0.22557124 -0.5620283
000280 ba ee 8e bc 04 55 1c bd 03 0a 62 be ae 7f ce be
       -0.017447818 -0.038167015 -0.22074132 -0.40331787
000290 0c ae c2 bd 1e 23 c2 bf 3e 3a 20 bd 3e e4 28 bd
       -0.09505853 -1.5166967 -0.039118044 -0.041233294
0002a0 1d 4e ed 3d f2 1e 2b bf bf 81 cc be 50 cf 9c bf
       0.115871646 -0.66844094 -0.39942738 -1.2250767
0002b0 05 4d e6 bd 2e 59 c9 bd 64 7f 17 3e 6d 7c 78 be
       -0.11245159 -0.09831463 0.1479469 -0.24266215
0002c0 02 09 77 3e 3b bf 8c bf f8 c7 98 be 3d 87 25 3e
       0.2412453 -1.0995859 -0.29840064 0.1616487
0002d0 77 93 30 bf ca e7 39 3d 1a de 68 be d9 fd 09 3e
       -0.68975013 0.045387067 -0.22740975 0.13475741
0002e0 48 bb 69 3d 05 1d 8f bb 71 45 23 3e 17 6a 22 bd
       0.05706337 -0.004367473 0.15944459 -0.039651956
0002f0 bd c5 0b bf 37 20 b1 bd b6 83 6a be bb ae 43 be
       -0.545986 -0.086487226 -0.22901806 -0.19109623
000300 fe 48 a6 bf 8b 72 49 be 86 b0 ee be a7 74 0e bf
       -1.2991025 -0.19672601 -0.46619052 -0.5564675
000310 cf ff a6 ba b3 5c 85 3e 41 c6 be bf 32 ff 55 be
       -0.0012741032 0.26047286 -1.4904252 -0.2089813
000320 5e 78 ac be 66 c0 ad 3d 5e f1 64 bf b3 0e 7c 3e
       -0.33685583 0.08483963 -0.894308 0.24614982
000330 8c e1 19 bf 91 98 14 be 4f ce 0a bf b1 85 0d bf
       -0.6010978 -0.14511324 -0.5422105 -0.5528212
000340 4f 58 a0 bf f6 e2 ca be 78 6e 9f 3e f7 47 4e bd
       -1.252695 -0.39626282 0.31138968 -0.0503616
000350 c8 84 7b be 75 7b 12 bf 49 4e 1b be 48 c1 56 bf
       -0.24562371 -0.5721963 -0.15166582 -0.83888674
000360 da 4a 1d 3d aa 22 91 be ef 96 d5 be 52 4a c1 be
       0.038401462 -0.2834676 -0.41716716 -0.37752014
000370 6c 59 3d be 42 81 cf bd 61 b6 93 3d 59 88 82 be
       -0.18491143 -0.10132076 0.072125204 -0.2549465
000380 76 de 5d bf c6 c4 0d be fa 22 1f bf a7 ec c2 bd
       -0.86667573 -0.13844594 -0.62162745 -0.09517794
000390 dd 97 06 be c4 30 4a bd 2f c9 6d be c5 84 ed bd
       -0.13143869 -0.049362913 -0.23221277 -0.115975894
0003a0 31 92 5d be 74 b8 14 be fd ad 71 bf 70 7e 44 bf
       -0.21637799 -0.14523488 -0.9440611 -0.7675543
0003b0 ef 21 94 bf da 3d 0b bf f2 fc 69 be 76 f4 0d be
       -1.1572856 -0.54391253 -0.22850397 -0.13862786
0003c0 77 6f 02 bf 2e 66 7b 3c 98 fe c6 bd ad 4c 1a bf
       -0.5095133 0.015344186 -0.09716529 -0.6027325
0003d0 c5 16 35 bf 8e 44 0e bf 7b 9b a1 be 74 35 24 bf
       -0.7073787 -0.55573356 -0.31563935 -0.64144063
0003e0 c4 13 55 bf 27 45 26 bf 4d ea 46 bf e3 8f aa 3d
       -0.83233285 -0.6494927 -0.77701265 0.083282255
0003f0 48 33 23 bf 4d 2d 28 bf 2e dc c1 bd 41 3e 56 bc
       -0.63750124 -0.65694124 -0.09465824 -0.013076366

encoder.1.running_mean f4 [256]
000000 90 79 68 40 bb d5 c8 40 ac 4f 55 40 9f 1b cc 3f
       3.6324196 6.27609 3.3329878 1.5945929
000010 b1 6c 99 3f bd 7a 06 40 bf 35 b7 40 f3 39 8d c0
       1.1986295 2.1012414 5.725311 -4.413324
000020 fb 28 64 40 73 dd e2 3f ec e6 36 40 7d b0 b7 40
       3.5650012 1.7723831 2.8578444 5.740294
000030 ed 67 00 40 ee f1 e9 40 84 70 3d c0 af f5 7a bf
       2.0063431 7.3107824 -2.9599924 -0.98031133
000040 06 68 eb c0 9a 49 80 c0 64 44 1d 40 41 4c e3 3f
       -7.356448 -4.0089846 2.4572992 1.7757646
000050 54 4c 79 c0 ef cc 1a 3f bc 97 dd be 91 29 02 40
       -3.8952837 0.60468954 -0.43279827 2.033787
000060 db a6 86 40 91 6a 7d 40 18 3f 11 bf 23 96 3a c0
       4.207868 3.9596293 -0.567369 -2.9154136
000070 99 f1 d0 3f a8 7b 70 c0 f7 22 d9 3c 44 bf 85 3f
       1.632373 -3.7575474 0.02650593 1.0448995
000080 f9 ce 46 40 bf d7 87 c0 e3 13 5e 40 17 fe bb 3f
       3.1063826 -4.245086 3.4699638 1.4686917
000090 e7 95 81 40 9d 5c 2d c0 bd e0 1c 3f f3 ff ae bd
       4.0495486 -2.7087777 0.61280423 -0.08544912
0000a0 3c f6 85 40 58 88 e6 3f 6c c0 0b c0 b0 53 0b 40
       4.186308 1.8010359 -2.1836195 2.1769829
0000b0 ff a4 f3 c0 a9 dc 2c 40 e8 0c 5c 3f 8c 93 73 c0
       -7.613891 2.700968 0.85957193 -3.8058805
0000c0 ce 95 c0 3f 8f 7b 8d 3f 43 b3 85 40 3d 96 cc 3f
       1.5045717 1.1053332 4.1781325 1.5983349
0000d0 56 74 a0 bf 10 aa 30 be 6f 8d f3 3f 7e 47 b8 bf
       -1.2535503 -0.17252374 1.9027537 -1.4396818
0000e0 55 1e a4 bf 0f ff b8 40 bf 41 5e 40 67 19 e5 bf
       -1.2821757 5.781135 3.4727628 -1.7898377
0000f0 63 15 8e be c8 29 64 c0 52 94 1d 40 33 ec 10 c0
       -0.27750692 -3.5650501 2.4621778 -2.2644165
000100 77 e5 7b c0 ed aa d8 bf 17 90 97 40 d9 95 85 3f
       -3.9358804 -1.6927162 4.736339 1.0436355
000110 de 1d 90 40 8c e3 df 3f e8 0a 2f 3e 5d ca 09 c1
       4.503646 1.7491317 0.17094004 -8.611905
000120 3d c0 6d bf 92 1a a9 40 f5 2e 24 40 ae 22 5e 3f
       -0.9287146 5.2844934 2.565366 0.86771667
000130 22 87 8c be ef 34 8a c0 98 c9 8f c0 17 4f 21 3f
       -0.27446848 -4.3189616 -4.4933586 0.63011307
000140 01 1a 46 40 c0 f4 61 40 59 82 b2 be 7b 56 78 c0
       3.0953372 3.5305634 -0.34865072 -3.8802783
000150 25 a9 76 c0 35 96 b3 3e 8a a5 d0 40 1f 6b 2d 40
       -3.8540738 0.35075536 6.5202074 2.7096632
000160 f0 ee be 40 1c 0d 8b 3e 15 f0 3d c0 1d 54 4a 40
       5.966667 0.2715844 -2.9677784 3.1613839
000170 a1 f7 f0 be 97 a4 bf bf e0 e6 a2 3f 06 a0 0f bf
       -0.47063926 -1.4972104 1.2726707 -0.5610355
000180 ed 09 d6 bf 85 09 b8 3f 9a fc 3e 40 b1 64 29 40
       -1.6721779 1.4377905 2.9841676 2.6467707
000190 4a 11 93 3f e2 65 76 3f 8f 22 7f c0 63 67 4b bf
       1.1489651 0.9624921 -3.9864843 -0.7945463
0001a0 40 c2 86 c0 a3 12 22 40 a1 a1 15 40 d2 9e 8b be
       -4.211212 2.5323875 2.33799 -0.27269608
0001b0 33 99 7d bf 8c 11 e8 bd ca 45 2c 40 83 e4 b6 3f
       -0.9906189 -0.11331472 2.6917596 1.4288486
0001c0 2d 7e 8e 40 63 d4 f4 3f 79 7f 36 3f f9 dc 5f 40
       4.4529023 1.9127315 0.7128826 3.497862
0001d0 88 a9 a4 40 31 45 3a 3e 12 dd a5 40 a9 ec cb 3f
       5.1456947 0.18190457 5.183236 1.5931598
0001e0 7c 11 f9 40 47 d3 ba c0 aa d0 20 40 3a 69 27 3f
       7.7833843 -5.8382907 2.5127358 0.6539494
0001f0 e0 e1 6b 40 39 0b 56 40 32 48 a5 bf 19 38 67 40
       3.6856613 3.344435 -1.2912657 3.612799
000200 67 e1 2a 40 c9 20 0c bf a4 3e 89 3e eb 8e 77 40
       2.6700075 -0.54737526 0.26805604 3.868098
000210 4c a6 5d 3f c9 82 26 40 b7 64 48 bf d1 4b 74 be
       0.86581874 2.6017325 -0.7827868 -0.23857047
000220 7b 1b 82 40 87 00 04 3f 62 bc 10 40 3c 60 ca 40
       4.0658545 0.51563305 2.261498 6.3242474
000230 1f 07 9f 3f 65 85 1a c0 68 13 a5 bf 66 7c 71 40
       1.2424048 -2.4143918 -1.2896547 3.7732177
000240 30 98 e8 3f ca 6d 27 be 10 de 40 c0 a0 38 5e c0
       1.8171444 -0.16350475 -3.0135536 -3.472206
000250 eb 87 56 3f 6c 17 05 40 1e e4 39 40 c6 3f 66 40
       0.83801144 2.0795546 2.9045482 3.5976424
000260 d3 c4 e4 bf df d7 84 3e ed c3 03 40 11 3f 9e c0
       -1.7872566 0.25945947 2.0588334 -4.9451985
000270 f3 06 63 3f a8 52 25 40 a0 cc 3c 41 43 c8 18 40
       0.8868248 2.58317 11.799957 2.387223
000280 17 b2 84 40 25 73 a0 c0 bc f5 04 40 64 95 21 c0
       4.1467395 -5.0140557 2.0774984 -2.524743
000290 f0 3e 1c 40 d8 b8 c9 40 3a 93 6f 40 c4 38 e3 40
       2.4413414 6.303814 3.743361 7.1006794
0002a0 11 74 6c bf cf b1 9d c0 20 b6 02 c0 0d 26 47 40
       -0.92364603 -4.927955 -2.042366 3.1116974
0002b0 48 f7 d2 40 2b fe 80 be ce 3b 84 40 d2 48 0f 3f
       6.5926857 -0.25193915 4.1323004 0.5597049
0002c0 4b e0 86 3f 4a 37 92 3e 0a 7c 28 40 36 b8 24 40
       1.0537199 0.28557807 2.6325707 2.5737433
0002d0 fc 84 ff bd b3 19 68 c0 dc 55 1d 40 e1 07 72 40
       -0.12476537 -3.6265686 2.4583654 3.781731
0002e0 7b 94 85 3e 82 e9 64 3f 6b fd 71 40 ba 56 f6 40
       0.26089844 0.89418805 3.7810924 7.6980867
0002f0 05 47 b2 3f 98 5c 8c 3f 6c 95 a7 40 1a db 2a 40
       1.3927923 1.0965757 5.23699 2.669623
000300 e4 b7 92 be ff d2 67 3e 6d 82 5f c0 e0 45 6d c0
       -0.28655922 0.22639082 -3.4923356 -3.7073898
000310 bf c3 58 40 67 77 2d c0 33 3c b4 40 fb c2 43 c0
       3.3869474 -2.7104127 5.6323485 -3.0587757
000320 6b ae 30 40 66 c4 10 bf 8b 9f 8d 40 c5 4b ed 3e
       2.7606456 -0.5654968 4.4257255 0.4634687
000330 ff 1a 58 40 02 79 59 3e 6c dc 3d bf 25 85 3a 40
       3.3766477 0.21237567 -0.7416446 2.9143765
000340 95 67 dc 3f 34 af c8 3f ad ef 3d c0 0b 14 1f 40
       1.7219111 1.5678468 -2.9677536 2.4855983
000350 ef 1a 9a 40 df 43 29 c0 40 11 29 40 2a 40 87 be
       4.815788 -2.6447675 2.6416779 -0.2641614
000360 de 93 27 40 ac 26 8a c0 c4 c9 bf 40 00 ba d3 3f
       2.6184 -4.3172207 5.9933796 1.6541138
000370 05 70 75 c0 e8 83 ef 40 31 e7 32 bf 2e 78 61 40
       -3.8349621 7.484852 -0.6988402 3.5229602
000380 b9 6f c5 3f 78 36 cf bf 8f 19 94 3f dd c1 58 40
       1.542472 -1.6188498 1.15703 3.3868325
000390 93 d1 eb c0 c6 3c 03 3f ff 76 a2 3f 79 0f 77 3f
       -7.369333 0.5126461 1.2692565 0.96507984
0003a0 bc 5a 28 c0 5a af 84 40 95 b1 25 3f 71 90 36 3f
       -2.630538 4.146405 0.64724094 0.7131415
0003b0 b5 17 d0 3f db fb ef 3d 26 27 18 40 e5 d6 17 41
       1.6257235 0.117179595 2.3773894 9.4899645
0003c0 48 b9 37 c0 8c b4 8a c0 ad 8c cb 40 9f 7f b7 3f
       -2.8706837 -4.3345394 6.3609223 1.4335822
0003d0 10 45 b9 3f b3 57 32 c0 0b 9a c3 40 f9 a1 73 c0
       1.4474201 -2.7866027 6.112554 -3.806761
0003e0 44 e6 65 40 56 9b 4a bf 83 f8 56 bf c5 c0 00 41
       3.5921793 -0.79143274 -0.8397295 8.047063
0003f0 bb dc 74 40 6e 6a ba bf 2b a1 b7 40 a4 2a d5 3e
       3.8259723 -1.456373 5.738424 0.41634095

encoder.1.running_var f4 [256]
000000 f6 f4 a7 3d 45 e0 89 3d ba 49 93 3d 28 8b 6a 3e
       0.082010195 0.06732229 0.071917966 0.22904646
000010 54 c3 f9 3c 25 96 5b 3c dc 3e d6 3e d7 9c f0 3e
       0.030488648 0.013402496 0.41844833 0.4699466
000020 27 1d ae 3c 82 48 2d 3d 1e 77 26 3d 20 c8 a7 3d
       0.021254135 0.042305477 0.040640943 0.08192468
000030 e5 9a 60 3d c0 b1 38 3e f2 66 3b 3d fd 16 1d 3e
       0.05483522 0.18036556 0.045752473 0.153408
000040 06 3b 55 3e 15 ef 93 3e 3c 25 4f 3d b0 1e 89 3c
       0.20823297 0.28893343 0.05057262 0.016738266
000050 13 3f ea 3d 58 fc 1c 3c f7 20 3c 3d 56 7d 79 3e
       0.11437812 0.009581648 0.045929875 0.24364218
000060 a1 dd da 3d 4f 3c 4a 3d d8 a7 d7 3d b1 07 5c 3e
       0.106868036 0.04937392 0.105300605 0.21487309
000070 f8 09 47 3d 79 bd 21 3d 1c 29 b1 3d ef 3c 19 3d
       0.04859349 0.039487336 0.08650419 0.037411626
000080 82 23 67 3d 79 37 f6 3e cb 9c 35 3e 35 0e 63 3c
       0.056430347 0.48089197 0.17735593 0.013858368
000090 14 e4 6b 3d 19 4c 8f 3c 64 e0 49 3d 1e fb 80 3d
       0.05759056 0.01749234 0.04928626 0.06297897
0000a0 00 e2 a1 3d 46 eb b3 3c 2b 09 fc 3d d4 5e 51 3d
       0.07904434 0.021962773 0.12306436 0.051115826
0000b0 4f a5 c6 3e eb 5c 85 3e ae 7f e4 3c ab e8 13 3e
       0.38797995 0.26047453 0.027892914 0.14444225
0000c0 cd 6b 16 3d aa c9 5f 3d ee cd 15 3d 19 b6 12 3e
       0.0367239 0.05463568 0.036573343 0.14327277
0000d0 e9 03 03 3d 18 6c 2c 3e 17 f1 5a 3e 4b ea dd 3c
       0.03198615 0.1683811 0.21381031 0.027089259
0000e0 86 dc 69 3d 78 26 9b 3e 39 1b a3 3d 64 0f 04 3d
       0.057095073 0.30302787 0.07964177 0.03224124
0000f0 d8 32 7c 3d 72 2b b6 3d f0 dc aa 3c 36 91 7b 3e
       0.061571926 0.08895005 0.020857304 0.24567112
000100 67 8a d7 3e 49 aa 6b 3e 34 ed 92 3e b7 77 08 3d
       0.4209778 0.23014177 0.28696597 0.033317294
000110 bc 86 c3 3c 14 41 be 3c 4e 4f 14 3e 4f 6b 75 3e
       0.023867957 0.023224391 0.14483377 0.23966716
000120 85 1f 84 3d df b4 d2 3d db 6b 5d 3e 10 80 b8 3d
       0.064513244 0.10288405 0.21623175 0.09008801
000130 e4 e4 57 3c cd cf 7d 3d 0e ff bb 3e c8 e1 68 3d
       0.01317713 0.061965752 0.3671803 0.056855947
000140 f5 99 93 3c c3 2d b7 3c 87 7a ae 3e 37 52 9e 3d
       0.018017748 0.022360688 0.34077856 0.07730525
000150 59 51 78 3e 94 65 89 3c 9e 9c 15 3f 24 86 b9 3d
       0.24249782 0.016772069 0.58442104 0.090587884
000160 5b e3 c4 3e 1d 87 ae 3c 79 76 30 3e ad 6d f2 3d
       0.38454708 0.021304661 0.17232694 0.11837325
000170 24 db 9b 3c ac 6b 3e 3e c2 91 2e 3d 47 e1 f0 3c
       0.019025393 0.18595761 0.042619474 0.029404296
000180 62 5b 22 3d 21 c3 b5 3c cf 11 e4 3d dc 5a 48 3d
       0.03963793 0.022187771 0.11136209 0.048914775
000190 57 31 67 3d 26 7c 5e 3c 9c a6 41 3d b9 26 39 3d
       0.05644354 0.013579404 0.04727803 0.045202944
0001a0 ac 2f de 3e 15 87 6a 3e c7 46 27 3e 9f 09 0d 3d
       0.43395746 0.22903092 0.16335593 0.034433004
0001b0 61 85 18 3d 97 18 4b 3c 48 99 10 3d a7 65 01 3e
       0.037236575 0.012395999 0.03530243 0.12636434
0001c0 3c 8b 06 3d af d7 70 3d 62 a2 1a 3e 73 bf 5f 3d
       0.032847628 0.058799442 0.15101007 0.05462594
0001d0 82 7d bd 3d 24 79 50 3c 3a 9a d0 3d bf fe aa 3d
       0.09252454 0.012724195 0.101856664 0.0834937
0001e0 ef 91 0c 3e 02 95 09 3f fb 79 bd 3d 0a 49 7e 3d
       0.13727544 0.5374299 0.092517816 0.062081374
0001f0 4b d3 0e 3e 4d fa fb 3c c4 b4 88 3c 56 cc 09 3e
       0.1394779 0.030759001 0.016687758 0.13456854
000200 b5 a0 73 3c ca 62 99 3c 00 dd fa 3c 1c c8 3a 3e
       0.0148698585 0.018723864 0.03062296 0.18240398
000210 8d 8e 8d 3e c6 e4 3e 3d 94 ba c9 3d 0f dc 06 3d
       0.2764782 0.046604894 0.0985004 0.032924708
000220 cd 4a 62 3d de ff 5a 3e 08 d4 54 3e ff 8a fa 3e
       0.055247117 0.21386668 0.20784009 0.4893417
000230 67 12 91 3c 59 b7 b2 3c 1c 46 10 3d 06 bb 1d 3e
       0.01770897 0.021815943 0.03522311 0.15403375
000240 0e ba fc 3d 43 91 9b 3e 53 34 1a 3d ba 86 18 3d
       0.123401746 0.30384263 0.037647557 0.03723786
000250 fc 00 b7 3d d9 27 c1 3d f1 07 0e 3e 0e 31 5d 3d
       0.08935735 0.094314285 0.13870217 0.05400186
000260 fd f3 bd 3d d7 f7 75 3e 0e 09 f8 3d 91 25 ad 3e
       0.09275053 0.24020325 0.12111102 0.33817723
000270 d9 b4 b9 3e 62 99 58 3c 1b c8 a7 3e da cf 91 3d
       0.36270788 0.013220163 0.32769856 0.07119723
000280 77 66 1a 3d dc f0 d1 3d 16 cc 2a 3e 68 1d 25 3e
       0.037695374 0.102510184 0.16679415 0.16124499
000290 a8 54 f5 3c ca 61 c9 3e 68 b1 a5 3d 31 78 50 3d
       0.029947594 0.3933242 0.08090478 0.050895873
0002a0 1a 0b 53 3d 20 27 87 3e 16 c1 83 3e 54 57 e3 3d
       0.05152426 0.26397038 0.2573325 0.11100641
0002b0 b3 1a c7 3d b9 59 fd 3d c6 06 e7 3d 3d a3 2b 3d
       0.09721889 0.12370629 0.11280589 0.041903723
0002c0 9c a9 6e 3c 70 c6 4d 3e 18 00 60 3e 15 75 5d 3e
       0.014566805 0.20095229 0.21875036 0.21626695
0002d0 9c f8 f3 3d ca ed c6 3d 17 92 8c 3d 71 cd db 3d
       0.11912653 0.097133234 0.06863802 0.10732544
0002e0 19 c9 c9 3c 68 40 80 3d 4b ab 25 3e 6d 2d b8 3d
       0.024632024 0.062622845 0.16178624 0.08993039
0002f0 7b d1 0c 3e 30 f6 31 3d b3 5e c1 3d c2 25 92 3d
       0.13751785 0.043447673 0.094418906 0.07136108
000300 7f 60 00 3f 80 ab c4 3d cd ba 8a 3e e8 7e d8 3e
       0.5014724 0.096030235 0.27095643 0.42284322
000310 17 37 63 3e 25 bf 76 3d 0c ae 0f 3f 39 d2 93 3c
       0.22188984 0.060240883 0.5612495 0.018044578
000320 7b 01 a6 3d 9c c9 70 3c 30 59 a3 3d 81 23 9f 3c
       0.08105751 0.014696505 0.079759955 0.01942611
000330 30 c1 59 3d c4 6d 18 3e 87 ae 24 3d 84 2f 8e 3e
       0.053162754 0.14885622 0.040205505 0.27770627
000340 33 8c 21 3e f5 39 e0 3d 89 4e 07 3d 6f 05 65 3c
       0.15776138 0.109485544 0.03303388 0.013978346
000350 05 14 51 3d 36 94 4d 3e ce 23 9d 3c 1b 5e ae 3e
       0.051044483 0.20076069 0.019182112 0.34056172
000360 ed 50 18 3e cd 53 fa 3e de d3 6a 3d 7c 2e 46 3d
       0.1487462 0.4889206 0.05733096 0.048384175
000370 44 6f db 3e 57 e2 97 3d 64 8a 7b 3c 35 22 84 3d
       0.42858326 0.07416218 0.015352819 0.06451837
000380 47 89 32 3e 3a fc 84 3d 54 4c 15 3d f8 29 03 3d
       0.1743518 0.06493421 0.036449745 0.032022446
000390 59 f2 db 3e 07 02 eb 3c 96 f2 1b 3e 7d ec c3 3c
       0.42958334 0.02868749 0.15229258 0.023916477
0003a0 f5 a7 a1 3e 13 1c ab 3d 62 e1 44 3d 31 a5 54 3e
       0.31573454 0.08354964 0.048066504 0.2076614
0003b0 7f e8 49 3e 99 12 a0 3d e6 6d 1d 3d 43 db 80 3e
       0.19717596 0.07816047 0.038434885 0.25167283
0003c0 73 d7 c6 3c 51 db 9a 3d b6 62 e4 3d a2 01 b5 3d
       0.024272656 0.075613625 0.1115164 0.08838202
0003d0 d0 02 2d 3d c8 c2 5a 3e 51 50 ac 3e 4f 0a 32 3e
       0.04223901 0.21363366 0.33655027 0.17386745
0003e0 42 56 13 3e 2d 43 1f 3e 23 b4 f1 3c dd 99 6f 3e
       0.14388373 0.1555297 0.029504841 0.23398538
0003f0 18 e9 5c 3e a0 e9 5d 3d ef c3 1e 3e 27 0c a7 3c
       0.21573293 0.05417788 0.1550443 0.020391537

encoder.4.weight f4 [128, 256]
000000 8c 60 94 be 6c 65 de be 35 95 14 be fc 05 9e 3d
       -0.2897991 -0.43436754 -0.14510043 0.07715985
000010 0a 43 e0 3d f9 4d 81 bd b6 5d f5 3b cc 6f 2e be
       0.10950287 -0.063137 0.007487978 -0.17034835
000020 67 cc 11 bf 44 45 cb bd e9 c8 b2 bd ab 6e 20 3d
       -0.5695252 -0.09925321 -0.08729727 0.03916804
000030 5b fe bb 3e f6 89 48 bd 6f b1 a0 3e 93 0d 9d be
       0.36717495 -0.048959695 0.3138537 -0.3067442
000040 d2 1a 50 3e f1 01 26 be 5e 6a 68 3d a4 21 6b 3d
       0.20322731 -0.16211678 0.056742065 0.05740513
000050 53 6f 43 3e 2b f0 e3 3e 34 14 40 bc bf fd 17 3e
       0.19085436 0.4451917 -0.011723567 0.1484289
000060 fa 99 03 bf 13 28 25 3f 91 6e ec bd 59 35 29 bd
       -0.51406825 0.64514273 -0.11544526 -0.041310642
000070 d9 3c b5 bc 29 53 02 3f de 29 74 be 02 d0 2d bd
       -0.022123741 0.5090814 -0.23844096 -0.0424347
000080 ae 4e 3f 3e e9 41 b8 ba 0f 01 69 3e c2 23 76 3e
       0.18682358 -0.0014057729 0.2275431 0.24037078
000090 2d 54 a1 3e 96 e2 70 3e e0 31 71 3c 6b ed a7 3e
       0.31509534 0.23523936 0.014721364 0.32798323
0000a0 56 05 2f 3d 1d 44 47 bc dc 67 19 3e 1e 5b 67 3e
       0.042729698 -0.012162236 0.14981025 0.22593352
0000b0 21 84 bd 3e 30 17 db bc 1b 56 1c be 9a d1 5d 3e
       0.3701487 -0.026744455 -0.15267222 0.21661988
0000c0 89 69 b1 bd 8a 55 f7 bd e2 00 e1 be d4 99 6d 3e
       -0.08662707 -0.12076862 -0.43945986 0.23203212
0000d0 06 f4 11 3e b9 25 02 be 9c 63 da be cc 85 d7 3d
       0.14253244 -0.12709703 -0.4265412 0.105235666
0000e0 32 06 19 be ba 34 b4 be e7 15 c5 3c 22 a6 9a 3e
       -0.1494377 -0.35196477 0.024058295 0.30204874
0000f0 90 85 0b 3e e9 58 a5 3e 41 a5 8d 3d 29 34 a4 be
       0.13625169 0.32294396 0.06916285 -0.32071045
000100 c5 12 5e 3e 80 b5 bc bc 4d 85 b2 bd 3d 20 c1 bc
       0.21686848 -0.023035765 -0.08716831 -0.023574943
000110 d2 d0 2d 3d 5f 7e 2d 3c d5 70 05 be 94 56 d3 3e
       0.042435475 0.010589211 -0.13031323 0.4127699
000120 54 f6 b5 ba ae 8f 15 be 52 85 03 3e a3 62 d1 be
       -0.0013882616 -0.1460559 0.12843826 -0.40895566
000130 f5 29 8f be cb 19 9e 3e f6 a4 a2 3d e3 d6 64 3e
       -0.27961698 0.30879053 0.0794162 0.22347598
000140 37 ca 27 3e a1 69 17 3d 71 5b 9e be 05 57 5c 3e
       0.16385733 0.03696597 -0.3092914 0.2151757
000150 8b 1a ef bd 42 69 a9 be 0d a2 f9 be 1b 85 92 be
       -0.116749845 -0.33088118 -0.48756447 -0.28617176
000160 90 7b bd bd 7d 28 5e 3d a0 68 a6 3e 89 dc dd 3e
       -0.09252083 0.05423783 0.32501698 0.43332317
000170 3a 4a b4 be 6d ef 0d be 3a c1 61 3e 12 7d 01 bd
       -0.3521288 -0.13860865 0.22046366 -0.031613417
000180 ec b3 e7 bc c4 27 ca 3e 51 bc a9 3d a2 77 82 3e
       -0.028284036 0.39483464 0.08287872 0.25481898
000190 d4 96 1b 3f 99 df d4 bb d4 9b 5d be ea e9 80 3e
       0.6077702 -0.0064963815 -0.21641475 0.25178462
0001a0 f5 a9 84 bd f1 55 cd bc a4 f4 86 3e 37 09 c5 3e
       -0.06477729 -0.025065394 0.2635852 0.38483593
0001b0 5f 32 80 3e 91 7f 26 3e 2c 45 f4 be db c4 09 be
       0.2503843 0.162596 -0.47709024 -0.13454
0001c0 29 4e 5b be e5 07 b0 bd c2 c9 fa 3e 44 d3 1a 3d
       -0.21416534 -0.08595256 0.48982054 0.037799135
0001d0 54 82 95 be b9 d7 c0 3d 68 ac f8 3d 0f c5 74 be
       -0.29200995 0.09416146 0.12142259 -0.23903297
0001e0 91 10 f8 3d 07 98 b1 3d 1e 37 23 3e 21 5a 1c 3f
       0.12112535 0.08671575 0.15938994 0.61075026
0001f0 8a 16 f9 bd b6 37 a2 be 6b c7 f5 3e 31 a1 a4 3d
       -0.12162502 -0.3168313 0.48003706 0.08038557
000200 cd 08 1d bc 6e a2 49 3e 81 21 7e be a1 0c 23 be
       -0.009584618 0.19690868 -0.24817468 -0.15922786
000210 3c 63 05 3f 84 16 04 bb 6d ef ea 3d 03 d8 cc bb
       0.52104545 -0.0020155022 0.11471448 -0.0062513365
000220 64 44 8f bf 37 40 f8 3d 0f 60 55 3f 5e e6 1d 3e
       -1.1192746 0.12121623 0.833497 0.1541991
000230 48 0d 0b 3e fc 7f fc 3e 49 38 17 3f 2f f1 79 3d
       0.13579285 0.49316394 0.5907026 0.061021026
000240 63 43 6c 3f f1 99 1f bf 31 8c 93 3e 6b 0d aa be
       0.92290324 -0.6234427 0.28817895 -0.33213362
000250 3d c4 66 3e 15 ba 62 3e 19 54 b7 be 58 ba 7c be
       0.22535796 0.22141297 -0.3580635 -0.2468046
000260 54 a9 11 3e f8 9b 21 be f8 ca 26 3d 8e 34 f5 3d
       0.1422475 -0.15782154 0.04072091 0.11972915
000270 dc 1a 87 3d d9 c4 83 3d 48 f8 58 3e c1 a2 d8 3e
       0.0659692 0.0643403 0.21188462 0.4231167
000280 83 98 ef be 8c dc 82 3e 19 bd 21 3f 30 de 93 3d
       -0.46796045 0.2555889 0.63179165 0.07220113
000290 99 d6 b3 bd 42 13 c0 be 08 5b d5 bd 03 9b 3c 3e
       -0.08781166 -0.37514693 -0.104177535 0.18418507
0002a0 26 17 a6 3e 3c d7 c2 3e 87 18 84 be a2 27 27 be
       0.32439536 0.38054836 -0.25799963 -0.16323712
0002b0 f5 fb a4 3d 49 27 7a 3e d8 b1 69 3d 73 7a 45 bd
       0.080558695 0.24429049 0.05705437 -0.04821248
0002c0 b2 6a b8 3c d2 c4 36 3e 83 41 aa 3e 24 6e 86 3e
       0.022511814 0.17848518 0.33253106 0.26255906
0002d0 e8 40 11 be 12 9a b7 3e 9f a7 9e 3e 72 92 89 3e
       -0.14184916 0.35859734 0.3098726 0.2686954
0002e0 9b a3 44 3e 30 36 70 be d9 46 b2 3e c0 0b f4 bc
       0.19203036 -0.23458171 0.34819677 -0.02979076
0002f0 38 8b 06 be ca 7e 72 be 3d e6 f8 3e fd f8 e5 be
       -0.13139045 -0.23681179 0.48613158 -0.44916525
000300 a2 9a 44 be 70 86 34 3f 2e a8 70 be c4 e8 3e be
       -0.19199613 0.70517635 -0.23501655 -0.1864348
000310 17 5d 1d 3e 2a 6e 1c 3f 66 80 50 bf 18 88 4d 3e
       0.15367542 0.61105597 -0.8144592 0.20071447
000320 05 c6 95 be bd 92 0e 3e 03 e3 0b be d7 f4 1a 3d
       -0.2925264 0.13923164 -0.13660817 0.037831154
000330 d5 57 a3 be 1f 27 42 3d cb 64 11 be 86 80 99 3e
       -0.31902948 0.04740059 -0.14198606 0.29980868
000340 af 0e c1 3e 58 2e 49 3f c4 8e ce 3d 05 1a 04 3d
       0.37706515 0.7858634 0.10085824 0.032251377
000350 aa bb 09 be 91 4b 12 3e 1b d9 25 be cf 59 0b be
       -0.13450494 0.14286639 -0.161961 -0.13608478
000360 6e b1 73 3e c9 1f ae bc ed 01 8c be 48 30 b6 3e
       0.23798153 -0.02125539 -0.2734522 0.3558371
000370 aa 77 5a be 60 8c 33 bf 82 32 3c 3e b1 73 b9 3e
       -0.2133471 -0.7013607 0.18378642 0.36221078
000380 c0 71 97 be 6d 49 9c 3e ef 61 90 3e a0 b2 8c be
       -0.29578972 0.3052477 0.28199717 -0.2748003
000390 38 0c aa 3d 66 ad 70 3e 6e ba fe 3e cf 84 aa be
       0.08303112 0.23503646 0.4975161 -0.3330445
0003a0 b6 82 96 3d 44 3e 9f 3e 1b 84 95 bc 85 76 63 bd
       0.0734915 0.31102192 -0.01825147 -0.05553295
0003b0 7d 69 96 bd 35 dd 12 3e a5 0c d2 bd 62 92 99 bd
       -0.07344339 0.14342196 -0.10256318 -0.074986234
0003c0 e8 94 dd 3e db 6c 1a 3f 5f 32 0c 3e 48 68 6d be
       0.4327767 0.6032235 0.1369109 -0.23184311
0003d0 cf 4e 85 be 67 79 a2 be ed 65 b9 3d 41 36 03 bf
       -0.2603669 -0.31733248 0.09052644 -0.5125466
0003e0 ba c2 81 3f d7 f3 ea be 08 c5 59 3d ff ed 69 3e
       1.0137551 -0.4588916 0.05316642 0.22844695
0003f0 fc a1 64 3d 01 9a 3c bf e4 b6 8d 3d d2 21 a7 3e
       0.055818543 -0.7367249 0.06919649 0.3264299
