models/mirai_botnet_model.pth (torch, 602986 bytes, 32 tensors)

encoder.0.weight f4 [256, 115]
0	0xbe36013a	-0.17773905
1	0x3de894c9	0.113565035
2	0x3ee02cf3	0.43784294
3	0xbf120af5	-0.5704797
4	0x3ea0ed88	0.31431222
5	0x3ec8c937	0.39216015
6	0xbeb7a4fc	-0.3586806
7	0x3eb9a904	0.3626176
8	0xbc5fbc91	-0.013655798
9	0x3d7e1c48	0.06203869
10	0x3e811527	0.2521145
11	0xbe0e9c28	-0.13926756
12	0xbea685b9	-0.32523897
13	0xbf1f562c	-0.6224086
14	0x3df320de	0.11871503
15	0xbea33fb0	-0.31884527
16	0x3e226fa5	0.15862902
17	0x3ec8efb1	0.3924537
18	0xbeca9aea	-0.39571315
19	0x3e549562	0.2076011
20	0x3ecf47d5	0.4048449
21	0xbeb1d39f	-0.34731767
22	0x3eb87dca	0.3603347
23	0x3dba56b8	0.090985715
24	0xbc84838f	-0.016176013
25	0x3e994d6f	0.2994189
26	0xbdf80060	-0.121094465
27	0xbe8aac4a	-0.2708457
28	0xbf2a2f1c	-0.66478133
29	0x3de3756e	0.11106382
30	0xbddffc3a	-0.1093678
31	0x3ee96a46	0.45588893
32	0x3e8b3dde	0.27195638
33	0x3edf4c55	0.43612924
34	0x3da68565	0.08130912
35	0x3e4c52a4	0.199534
36	0xbe0e3432	-0.13887098
37	0xbb29ffce	-0.0025939825
38	0x3e996dfd	0.29966727
39	0x3e0cb1e5	0.13739736
40	0x3e6b2f3f	0.22967242
41	0xbc1f9ba5	-0.009741698
42	0x3dbd15cc	0.09232673
43	0xbe506a56	-0.20353064
44	0xbe05c1d6	-0.13062224
45	0x3e20c18d	0.15698834
46	0x3e7fba40	0.24973392
47	0x3ceda37f	0.029008625
48	0x3dd5c8b5	0.104386725
49	0x3dbd13dd	0.09232304
50	0xbf536f02	-0.8259126
51	0x3d1d8d60	0.038464904
52	0x3ed0b4cd	0.4076294
53	0x3ea8add0	0.32945108
54	0x3dec900f	0.115509145
55	0x3c668774	0.0140703805
56	0x3e9b1cc9	0.302954
57	0xbf3924d0	-0.72321796
58	0xbe976f71	-0.2957721
59	0x3f714d6e	0.94258773
60	0x3e97d610	0.29655504
61	0x3eaabdec	0.33348024
62	0x3d800fe9	0.062530346
63	0x3e548a32	0.20755842
64	0xbf5b507a	-0.8566967
65	0xbf495cf7	-0.7865748
66	0x3f015702	0.5052339
67	0xbc9156bd	-0.017741555
68	0x3e28f3e8	0.16499293
69	0x3eac7f62	0.33690935
70	0x3dc09678	0.094037
71	0x3e6943b0	0.22779727
72	0x3e330ba5	0.17484911
73	0xbddd96f8	-0.10819811
74	0xbcccda8c	-0.025006555
75	0x3ede8bdb	0.43466076
76	0x3e0b2bc3	0.13590913
77	0x3f09e0b8	0.5385852
78	0x3f64417f	0.8916244
79	0x3e036274	0.12830526
80	0x3e0cdd5b	0.13756315
81	0x3d779ae3	0.060450446
82	0x3e57abd9	0.21061648
83	0x3f4971d3	0.78689307
84	0x3e8c1252	0.27357727
85	0x3c80ad45	0.015707621
86	0x3dca52a6	0.09879045
87	0x3c45059e	0.012025265
88	0x3df7b8cd	0.12095795
89	0x3eacfbb0	0.33785772
90	0x3f2faa2b	0.6861903
91	0x3e7d533e	0.24738786
92	0x3cf8d511	0.030375035
93	0x3cd7c8a2	0.026340786
94	0x3d26c692	0.040716715
95	0x3ee43b13	0.4457632
96	0x3e80d2c2	0.25160795
97	0x3ec5bb1e	0.38619322
98	0x3e6c317e	0.23065755
99	0xbcc2788a	-0.023739118
100	0x3cafad47	0.02144493
101	0x3e2ee24c	0.17078513
102	0x3e4f4dfd	0.20244594
103	0x3e11884d	0.14212151
104	0x3eb2e4da	0.34940225
105	0x3e17ab13	0.14811353
106	0x3e8e603a	0.2780779
107	0xbc87b212	-0.016564403
108	0x3ce09d95	0.027418891
109	0xbf51db0c	-0.81974864
110	0x3e0b7400	0.13618469
111	0x3f03af95	0.5143979
112	0x3e0de2a7	0.13855992
113	0x3f0113bd	0.50420743
114	0xbd4fdce8	-0.050747782
115	0x3c7afced	0.015319091
116	0xbe30db33	-0.17271118
117	0xbdf5e359	-0.12006254
118	0x3e4b451c	0.19850582
119	0xbddcc187	-0.107791
120	0xbe065105	-0.13116844
121	0x3e67bb52	0.22630051
122	0xbd67589c	-0.05648099
123	0xbde0dab5	-0.10979215
124	0x3e1c3060	0.15252829
125	0x3ec2282f	0.37921283
126	0xbe8f9b87	-0.28048345
127	0xbf1a6170	-0.6030493
128	0x3e3788ce	0.1792328
129	0xbe7c0e04	-0.24614722
130	0xbf6da825	-0.92834693
131	0xbd2be2a1	-0.041964177
132	0xbdbc7fc0	-0.09204054
133	0x3e88a5d2	0.2668901
134	0xbe122288	-0.14270985
135	0xbd30ff77	-0.04321238
136	0x3e178157	0.14795433
137	0xbbf10708	-0.0073555745
138	0xbe0c7885	-0.1371785
139	0x3d8aa0d4	0.06768957
140	0x3ec0dd82	0.37668997
141	0xbe9bd16a	-0.30433208
142	0xbf26c12e	-0.6513852
143	0x3e217378	0.15766704
144	0xbe70e171	-0.23523499
145	0xbf5f0cbf	-0.87128824
146	0x3f1447db	0.5792214
147	0x3d777426	0.060413502
148	0x3ddd93eb	0.10819229
149	0xbe20a6b5	-0.15688594
150	0x3da70e5d	0.081570365
151	0x3efb4662	0.49077135
152	0x3e2b538f	0.16731094
153	0x3f1da461	0.6157895
154	0x3dd68412	0.10474409
155	0x3c9cae3a	0.019126046
156	0xbdbcdec8	-0.0922218
157	0x3cad2d34	0.021139719
158	0x3eece8a6	0.46271247
159	0x3eabef48	0.33580995
160	0x3f215b15	0.63029605
161	0xbc0de36c	-0.008660179
162	0xbe0e97e7	-0.13925134
163	0xbde8b16d	-0.11361966
164	0x3d15f123	0.03660692
165	0x3e4241a7	0.18970357
166	0x3eb3b0f9	0.35095957
167	0xbf0fd756	-0.5618795
168	0x3e2bcfa0	0.16778421
169	0x3c47ed8d	0.012202633
170	0xbe446518	-0.19179189
171	0xbb9c8137	-0.004776146
172	0x3e1b3f45	0.15160854
173	0x3f0044ac	0.50104785
174	0xbf0519c5	-0.51992446
175	0x3e42d863	0.19027857
176	0x3c4e021a	0.012573743
177	0xbe156743	-0.14590172
178	0xbd64b315	-0.05583485
179	0x3f45e383	0.7730028
180	0x3ef804a0	0.4844103
181	0x3f3725be	0.71541965
182	0x3efd6d3b	0.494974
183	0x3efc63ba	0.49294835
184	0x3f149357	0.5803732
185	0x3ee93121	0.45545295
186	0x3e7b3921	0.24533512
187	0x3f246784	0.6422045
188	0x3f0cc2f7	0.5498499
189	0x3e92987e	0.28631967
190	0xbed9b571	-0.4252124
191	0x3f14bffa	0.58105433
192	0x3e53c517	0.20680653
193	0xbf23e748	-0.6402478
194	0x3ec9e61a	0.39433366
195	0x3d44c1bf	0.048036333
196	0xbedf749f	-0.43643662
197	0x3dca4e90	0.09878266
198	0xbe3e03e8	-0.18556178
199	0x3db1a498	0.08673972
200	0xbd80e32c	-0.062933296
201	0xbddbc234	-0.10730401
202	0x3d30dbf3	0.04317851
203	0xbed52d98	-0.41636348
204	0xbc3e984b	-0.011632989
205	0xbe1782d0	-0.14795995
206	0x3db788e5	0.089616574
207	0xbda9359a	-0.08262177
208	0xbd1a6ff2	-0.037704416
209	0x3c05078c	0.008119475
210	0xbf02af0b	-0.51048344
211	0x3d644162	0.055726416
212	0xbe93f415	-0.28897157
213	0x3a5d9c59	0.00084537786
214	0xbdc1db92	-0.09465708
215	0xbd244a68	-0.04011002
216	0xbdadc471	-0.08484734
217	0xbe92cad1	-0.28670362
218	0xbd63063e	-0.055425875
219	0xbf027ef5	-0.5097497
220	0xbad065b1	-0.0015899447
221	0xbf0a6334	-0.5405762
222	0xbc176acc	-0.009241771
223	0xbde40aa4	-0.11134842
224	0x3db8fdcc	0.09032783
225	0xbbf73253	-0.007543841
226	0xbe156c4c	-0.14592093
227	0x3d1481b8	0.036256522
228	0xbf123f0d	-0.5712746
229	0x3bfa440a	0.0076375054
230	0xbe1fbad1	-0.15598609
231	0xbf0598ed	-0.5218647
232	0xbe02bd9f	-0.12767647
233	0xbf4ea8b0	-0.80726147
234	0x3ebe4987	0.37165472
235	0xbe596e13	-0.21233396
236	0xbf2882ec	-0.6582477
237	0x3f80e220	1.0069008
238	0xbe7ebb78	-0.24876201
239	0xbef0e34e	-0.4704842
240	0x3de98ed0	0.114041924
241	0xbed44495	-0.41458574
242	0x3bb3c0f9	0.0054856506
243	0xbef30f3a	-0.47472554
244	0xbef214b7	-0.4728143
245	0xbe2fe342	-0.17176536
246	0xbf0236b0	-0.50864697
247	0xbe4bab3c	-0.1988954
248	0xbf413e3e	-0.754856
249	0x3ea5b079	0.323612
250	0xbe922cac	-0.28549707
251	0xbf3947cb	-0.7237517
252	0x3f859dea	1.0438817
253	0xbe9a8bf9	-0.30184916
254	0xbf0b045a	-0.54303515
255	0x3e84506a	0.258426

encoder.0.bias f4 [256]
0	0xbce0dec0	-0.027449965
1	0xbd8729f5	-0.065997995
2	0x3cfe6ac4	0.03105677
3	0x3cd7fca6	0.02636559
4	0xbda38bc9	-0.07985646
5	0x3cf0d1c3	0.029396897
6	0xbc6a53f1	-0.01430224
7	0xbd7bd203	-0.06147958
8	0xbd844fb9	-0.064605184
9	0xbcd18a6d	-0.025578702
10	0xbd6a5341	-0.057208303
11	0xbda1bf52	-0.078978196
12	0xbdb0e572	-0.08637513
13	0x3c064f82	0.008197667
14	0xbd9e3ded	-0.07726655
15	0xbd070ad7	-0.032969322
16	0xbd4475cb	-0.0479639
17	0x3d1980be	0.037476294
18	0x3d78f8a0	0.060783982
19	0x3c922f4e	0.017844822
20	0xbd0ecd45	-0.03486373
21	0xbb9a554b	-0.0047098747
22	0xbd06555b	-0.032796245
23	0xbb25b086	-0.0025282218
24	0x3cd68419	0.026186036
25	0x3cafb98f	0.021450786
26	0x3d6d0298	0.0578638
27	0xbcbea417	-0.023271604
28	0x3d0ba16d	0.034089494
29	0x3d11fb68	0.03564015
30	0x3d213768	0.03935948
31	0x3cc113b1	0.02356896
32	0x3b79fd87	0.00381455
33	0x3db10612	0.08643736
34	0x3c20094a	0.00976784
35	0x3c44d7ce	0.0120143425
36	0x3d338f99	0.043838117
37	0xbd7a7801	-0.0611496
38	0x3d4ce4c3	0.05002285
39	0xbd45c363	-0.04828204
40	0x3d8abfc5	0.067748584
41	0x3a4b9d24	0.0007767251
42	0x3c0fa941	0.008768381
43	0xbd40c648	-0.047064096
44	0x3cd3304a	0.025779862
45	0x3cbe47a5	0.023227522
46	0x3d1dfa88	0.038569003
47	0xbda0a6a9	-0.07844288
48	0x3c6cf573	0.0144628165
49	0x3d9b112a	0.07571633
50	0x3a7867fc	0.0009475944
51	0x3d88e2d3	0.06683888
52	0xbd5efa3c	-0.05443786
53	0x3cbcada4	0.023032017
54	0x3cdad90c	0.026714824
55	0x3d44434c	0.04791574
56	0xbd6fafa0	-0.0585171
57	0xbd846eef	-0.064664714
58	0xbbfd0e1f	-0.0077226306
59	0x3d67e3f8	0.056613892
60	0xbdba9254	-0.09109941
61	0xbd938660	-0.07203364
62	0xbd36f416	-0.044666372
63	0xbc2b6a65	-0.010462378
64	0x3ccd22a1	0.025040926
65	0x3d2cfe68	0.04223481
66	0xbda8c41f	-0.08240532
67	0xbd940988	-0.072283804
68	0xbbdd4864	-0.0067530144
69	0xbd9b4503	-0.07581522
70	0x3c51c030	0.012802169
71	0xbd91e6e6	-0.071241185
72	0xbd977eca	-0.0739723
73	0xbd306432	-0.043064304
74	0x3d87a92b	0.06624063
75	0xbda08a24	-0.07838848
76	0x3d16c277	0.03680655
77	0xbd781eca	-0.060576238
78	0x3cb4e8f8	0.022083744
79	0xbbc8760f	-0.0061175893
80	0x3d13f670	0.036123693
81	0xbc940083	-0.01806665
82	0xbdbaa183	-0.09112837
83	0xbb215f8c	-0.00246236
84	0x3d862e91	0.065518506
85	0x3d9ca032	0.07647742
86	0xbdb279c1	-0.08714629
87	0xbd9cfd89	-0.076655455
88	0xbc655f57	-0.013999782
89	0xbcf5f219	-0.030022668
90	0x3d7e3e23	0.062070977
91	0xbd54795c	-0.05187355
92	0x3daf30f3	0.08554258
93	0xbd34de26	-0.04415717
94	0x3d55507b	0.052078705
95	0xbc6e195e	-0.014532415
96	0x3d609ca7	0.054836895
97	0x3da9de2c	0.08294329
98	0xbd847ac5	-0.06468729
99	0xbb883216	-0.0041563613
100	0xbd400057	-0.046875324
101	0x3da38c23	0.07985713
102	0xbd22b568	-0.039723784
103	0xbcfb00ce	-0.030640032
104	0x3c857b99	0.016294288
105	0x3d3f1781	0.046653274
106	0x3d0e2a46	0.034708284
107	0xbd905745	-0.07047895
108	0x3c1e9d81	0.009681107
109	0x3cffd635	0.031230072
110	0xbd205cc5	-0.039150972
111	0x3cd3d7ea	0.025859792
112	0x3b197182	0.0023413603
113	0x3d990e29	0.07473404
114	0x3da6f269	0.08151705
115	0x3caefef6	0.02136181
116	0xbda77661	-0.08176876
117	0xbd6a877d	-0.057258118
118	0xbcd41c5a	-0.025892425
119	0x3dbb0829	0.09132416
120	0xbda2b205	-0.07944111
121	0x3d653049	0.05595425
122	0xbdb9fb03	-0.0908108
123	0xbd7eabd1	-0.062175576
124	0x3cc9bfdc	0.024627618
125	0xbd872024	-0.06597927
126	0xba9eadc7	-0.0012106233
127	0x3bd1aaae	0.0063985204
128	0xbdc1ffac	-0.09472594
129	0xbd358be3	-0.04432286
130	0xbd031ee2	-0.032011874
131	0x3d26e84c	0.04074888
132	0x3d42e10e	0.04757791
133	0xbd45650e	-0.048192076
134	0x3dacba6f	0.08433997
135	0xbdb9b36c	-0.09067425
136	0x3d1a0590	0.03760296
137	0xbcc96ef3	-0.024589038
138	0x3d528587	0.051396873
139	0xbd1a157b	-0.03761814
140	0x3d535beb	0.05160133
141	0xba8d4e8d	-0.0010780856
142	0xbd507228	-0.050890118
143	0xbd6c3953	-0.057671856
144	0x3b161519	0.0022900759
145	0x3d7f168b	0.062277358
146	0x3db5ab71	0.088705905
147	0x3d561e36	0.052274905
148	0x3d8b3790	0.06797707
149	0x3d7a95b3	0.06117792
150	0xbd122e09	-0.035688434
151	0xbd24b6c3	-0.040213358
152	0x3d6f6def	0.05845445
153	0xbd8225c0	-0.063548565
154	0xbd37b499	-0.044849966
155	0x3da83d67	0.082148366
156	0xbd9ac163	-0.07556417
157	0x3d8f2766	0.069899365
158	0x3a29d77d	0.00064789486
159	0x3c54410a	0.01295496
160	0x3c20169e	0.009771017
161	0x3dada3af	0.08478486
162	0xbc9d70b1	-0.019218775
163	0x3ba15fbc	0.0049247425
164	0x3db9ec0f	0.09078228
165	0xbd770619	-0.06030855
166	0xbbe931c1	-0.007116527
167	0xbcd91c44	-0.026502736
168	0xbd756d13	-0.059918474
169	0x3b9f77f4	0.0048665944
170	0xbda3d825	-0.08000211
171	0xbd66262f	-0.05618876
172	0x3cb42b51	0.021993311
173	0x3cf6d518	0.030130908
174	0xbdbe0f09	-0.092802115
175	0xbd9b9279	-0.07596297
176	0xbd17d01e	-0.03706371
177	0xbd89477c	-0.06703088
178	0xbc05f547	-0.008176154
179	0xbd33ad60	-0.043866515
180	0xbd8f195f	-0.06987261
181	0xbcd6f621	-0.02624041
182	0x3d29f714	0.041495398
183	0x3d8e1ebb	0.06939455
184	0xbcf89909	-0.03034641
185	0x3d7ee4bd	0.06222986
186	0x3d7c3a52	0.061579056
187	0x3da4809f	0.08032345
188	0x3ab62baa	0.0013898511
189	0x3d2e01e8	0.042482287
190	0x3ce806be	0.028323527
191	0x3ca9b642	0.02071679
192	0x397b5259	0.00023967902
193	0x3d96a537	0.07355731
194	0x3bac39e6	0.0052559255
195	0xbc57a570	-0.013162002
196	0xbd09eb33	-0.03367157
197	0xbca00cf0	-0.01953742
198	0xbc90f707	-0.017695917
199	0xbda5d715	-0.08097664
200	0xbb98b2ef	-0.0046600024
201	0xbc1fbd14	-0.00974967
202	0xbd8fcca1	-0.07021452
203	0x3d324131	0.043519203
204	0x3d96b718	0.07359141
205	0x3ce0b3c9	0.027429478
206	0x3c37ba1b	0.011213805
207	0x3d8fd0c2	0.07022239
208	0xbd94971f	-0.072553866
209	0xbdba03af	-0.09082734
210	0x3d75e87e	0.060036175
211	0x3bb5c2d6	0.005546908
212	0x3d0e37d3	0.034721207
213	0xbdb8ea2a	-0.09029038
214	0x391faf1d	0.00015228656
215	0x3d254027	0.040344384
216	0xbd7f48c5	-0.062325258
217	0x3d9e7c0b	0.07738503
218	0x3b0bea81	0.0021349492
219	0x3dabe6ef	0.083936565
220	0x3d8be2d4	0.068303734
221	0xbbe27b55	-0.006911675
222	0xbba19543	-0.0049311235
223	0x3c370317	0.01117017
224	0xbd413053	-0.047165226
225	0xbdbccc1d	-0.09218619
226	0x3db96fef	0.09054553
227	0xbd51a7d4	-0.051185444
228	0xbd0de0f1	-0.03463835
229	0xbcc769d2	-0.024342451
230	0xbd9f823b	-0.07788511
231	0xbc28ee9d	-0.010310796
232	0x3a7823a3	0.00094657595
233	0x3d96b963	0.073595785
234	0xbdb48f56	-0.08816402
235	0xbcc11ff1	-0.023574801
236	0x3dbaf679	0.09129042
237	0xbc1b250e	-0.009469284
238	0xbd6054ce	-0.054768376
239	0xbdb18532	-0.08667983
240	0xbd934089	-0.071900435
241	0xbd2e2e1c	-0.042524442
242	0xbdaf9201	-0.0857277
243	0x3d6ebfe4	0.05828847
244	0x3d623541	0.055226568
245	0xbb1e8bb1	-0.002419215
246	0x3d4b1f08	0.04959014
247	0xbbe6ee0c	-0.0070474204
248	0xbd7295d2	-0.05922491
249	0x3d9bc137	0.07605212
250	0x3d00433f	0.03131413
251	0xbdb54211	-0.08850492
252	0xbc73448b	-0.014847885
253	0xbd060537	-0.032719817
254	0xbd141b8e	-0.03615909
255	0x3b197dd2	0.0023420942

encoder.1.weight f4 [256]
0	0x3f86ab58	1.052104
1	0x3f45dcb6	0.77289903
2	0x3f868156	1.050822
3	0x3f76a7ea	0.96349967
4	0x3f8e3559	1.111003
5	0x3f3bbfa6	0.7333931
6	0x3f3fe508	0.7495885
7	0x3f577b04	0.8417208
8	0x3f931643	1.1491169
9	0x3f58e62d	0.8472622
10	0x3f6cd00e	0.92504966
11	0x3f8592b4	1.0435395
12	0x3f9696e6	1.17648
13	0x3f4f5884	0.8099444
14	0x3f262469	0.6489931
15	0x3f929477	1.1451558
16	0x3f746392	0.9546443
17	0x3f4484a3	0.7676489
18	0x3f5d8526	0.86531293
19	0x3f2f974e	0.6859025
20	0x3f46091a	0.7735764
21	0x3f617297	0.88065475
22	0x3f1c9105	0.6115878
23	0x3f8359ce	1.0261781
24	0x3f8e0beb	1.1097387
25	0x3f2785fd	0.65438825
26	0x3f8204d0	1.0157719
27	0x3f860aac	1.0472007
28	0x3f713628	0.9422326
29	0x3f420a55	0.75797015
30	0x3f92dc60	1.1473503
31	0x3f75da44	0.9603617
32	0x3f3bded9	0.73386914
33	0x3f73dc7f	0.95258325
34	0x3f91a990	1.1379871
35	0x3f4bcd32	0.7960998
36	0x3f25fc18	0.6483779
37	0x3f841dc2	1.0321581
38	0x3f4ab128	0.7917657
39	0x3f675636	0.9036592
40	0x3f836afc	1.0267024
41	0x3f78a7da	0.9713112
42	0x3f4241be	0.75881565
43	0x3f806dd8	1.0033522
44	0x3f79ea30	0.97622967
45	0x3f6b63f5	0.919494
46	0x3f8dbc4e	1.1073091
47	0x3f9c5d46	1.2215965
48	0x3f6495b7	0.89290947
49	0x3f601db3	0.8754532
50	0x3f66d079	0.90161854
51	0x3f815fbe	1.0107343
52	0x3faa400f	1.3300799
53	0x3f663c45	0.89935714
54	0x3f4ef360	0.8084011
55	0x3f7af71f	0.98033327
56	0x3f8de306	1.1084907
57	0x3f99b2b5	1.2007662
58	0x3f97a7c6	1.1848075
59	0x3f65ff5d	0.8984278
60	0x3f521390	0.820611
61	0x3f96bee8	1.177701
62	0x3f696d86	0.91182745
63	0x3f903db0	1.1268826
64	0x3f4bf4c6	0.7967037
65	0x3f840df8	1.0316763
66	0x3f6071b2	0.87673485
67	0x3f3f585c	0.747442
68	0x3f8dea5d	1.1087147
69	0x3f91846d	1.1368538
70	0x3f75506f	0.95825857
71	0x3f292488	0.6607137
72	0x3f855847	1.0417565
73	0x3f6bbb00	0.92082214
74	0x3f83ad07	1.0287179
75	0x3f9606f8	1.1720877
76	0x3f1df34f	0.61699384
77	0x3f7dec0b	0.991883
78	0x3f93c98f	1.1545886
79	0x3f26b894	0.65125394
80	0x3f84358e	1.0328844
81	0x3f92198c	1.1414046
82	0x3f42174b	0.7581679
83	0x3f5f98da	0.8734261
84	0x3f6a144c	0.9143722
85	0x3f887632	1.066107
86	0x3f3e3ad2	0.743085
87	0x3f524461	0.8213559
88	0x3f3d50bf	0.73951334
89	0x3f5a68e1	0.8531628
90	0x3f68f874	0.9100411
91	0x3f43987a	0.76404536
92	0x3f89e5a1	1.0773202
93	0x3f7ba71d	0.9830187
94	0x3f45b99e	0.77236354
95	0x3f904b86	1.1273048
96	0x3f79a378	0.9751506
97	0x3f5d37da	0.8641335
98	0x3f5adb4f	0.8549089
99	0x3f890ffe	1.0708005
100	0x3f7684ab	0.96296185
101	0x3f71a313	0.94389457
102	0x3f355159	0.7082725
103	0x3f3d552b	0.7395808
104	0x3f58e672	0.8472663
105	0x3f58fcf3	0.8476097
106	0x3f69c3e6	0.9131454
107	0x3f23b552	0.6394855
108	0x3f6b7a0a	0.9198309
109	0x3f7d3da9	0.9892221
110	0x3f7db8df	0.99110216
111	0x3f5082b2	0.81449425
112	0x3f96d65c	1.1784167
113	0x3f52f916	0.82411325
114	0x3f994f92	1.1977408
115	0x3f7c6a5e	0.98599803
116	0x3f86515e	1.0493581
117	0x3f65f774	0.8983071
118	0x3f6d66c9	0.9273496
119	0x3f802889	1.001237
120	0x3f7c1c35	0.9848054
121	0x3f9e40e2	1.2363551
122	0x3f59ffd8	0.8515601
123	0x3f58b913	0.846574
124	0x3f22f19d	0.6364992
125	0x3f52932b	0.8225581
126	0x3f8e63d8	1.112422
127	0x3f0a2ccb	0.539746
128	0x3f31c248	0.69437075
129	0x3f36cbd2	0.71404755
130	0x3fa76903	1.3078922
131	0x3f5e67fc	0.8687742
132	0x3f74b40f	0.9558725
133	0x3f923c91	1.1424733
134	0x3f3f6b57	0.7477316
135	0x3f831fe3	1.0244106
136	0x3f64d2db	0.8938424
137	0x3f8ad3b8	1.0845861
138	0x3f5334d5	0.8250249
139	0x3f80b7a9	1.0056049
140	0x3fc1a3a5	1.5128065
141	0x3f92a169	1.1455508
142	0x3f8c7d7a	1.0975792
143	0x3f1522f8	0.58256483
144	0x3f4f51e3	0.80984324
145	0x3f534ebf	0.8254203
146	0x3f6a0a53	0.91422004
147	0x3f644039	0.89160496
148	0x3f225884	0.63416314
149	0x3f9dc31d	1.2325169
150	0x3f9ccb8f	1.2249621
151	0x3f610654	0.8790028
152	0x3f8d55aa	1.1041768
153	0x3f8931fe	1.0718381
154	0x3f7f9af4	0.99845815
155	0x3f885db0	1.0653591
156	0x3f81be62	1.0136225
157	0x3f91766f	1.1364268
158	0x3f7831b6	0.9695085
159	0x3f639e24	0.8891318
160	0x3f4b743d	0.7947424
161	0x3f938d9e	1.1527593
162	0x3f5c8cbf	0.8615226
163	0x3f523ce0	0.8212414
164	0x3f58ff00	0.847641
165	0x3fa4be15	1.2870508
166	0x3f68b84b	0.9090621
167	0x3f86d875	1.0534807
168	0x3f7ae75c	0.98009276
169	0x3f55900d	0.8342293
170	0x3f98acea	1.1927769
171	0x3f9155a5	1.1354262
172	0x3f59bdf1	0.8505545
173	0x3f654c82	0.89569867
174	0x3f859319	1.0435516
175	0x3f8f4e49	1.1195766
176	0x3f8dd508	1.1080637
177	0x3f70438d	0.93853074
178	0x3f7e779b	0.99401253
179	0x3f6a5e00	0.9154968
180	0x3f8cff4c	1.101541
181	0x3f99a0ab	1.2002157
182	0x3f482b4e	0.7819108
183	0x3f1c1845	0.6097453
184	0x3f8d62e2	1.1045802
185	0x3f8a2206	1.0791633
186	0x3f6e4419	0.9307266
187	0x3f6e37c4	0.9305384
188	0x3f6ad4c2	0.9173089
189	0x3f89c9fc	1.0764766
190	0x3f325093	0.69654197
191	0x3f95a0e8	1.168973
192	0x3f98b3b3	1.192984
193	0x3f925696	1.1432674
194	0x3f878c24	1.0589643
195	0x3f6e2dc4	0.9303858
196	0x3f9b638d	1.2139755
197	0x3f90e3b1	1.1319486
198	0x3f3d7b93	0.74016684
199	0x3f808706	1.0041206
200	0x3f2f0198	0.68361807
201	0x3f62d1b4	0.8860123
202	0x3f8b5a7f	1.0886992
203	0x3f9a8c25	1.2074019
204	0x3f5a5d18	0.852983
205	0x3f6dac86	0.92841375
206	0x3f530ad7	0.82438415
207	0x3f9cac1f	1.2240027
208	0x3f568de6	0.8381027
209	0x3f8073a8	1.0035295
210	0x3f7dbe85	0.99118835
211	0x3f780725	0.968859
212	0x3f40da68	0.7533326
213	0x3f8716bc	1.0553813
214	0x3f85bffc	1.0449214
215	0x3f92a8e0	1.1457787
216	0x3f882b8c	1.063829
217	0x3f504436	0.8135408
218	0x3f8975d1	1.073908
219	0x3f923c79	1.1424705
220	0x3f84f21b	1.0386385
221	0x3f8e0f84	1.1098485
222	0x3f406755	0.7515767
223	0x3f725f0d	0.94676286
224	0x3f800322	1.0000956
225	0x3f13edfd	0.57785016
226	0x3f4ef2fe	0.80839527
227	0x3f6f0311	0.93364054
228	0x3f8d9afe	1.1062925
229	0x3f8a07ad	1.0783592
230	0x3fa1cbd1	1.2640325
231	0x3fa0b09e	1.2553899
232	0x3f5c792a	0.8612238
233	0x3f864cb1	1.0492154
234	0x3f8a0a47	1.0784386
235	0x3fa1150c	1.2584548
236	0x3f3a25e4	0.72714067
237	0x3f7279f0	0.9471731
238	0x3f40c07f	0.75293726
239	0x3f71a480	0.9439163
240	0x3f18ec7c	0.59735847
241	0x3f8d3f2d	1.1034905
242	0x3f432271	0.7622443
243	0x3f7e26e3	0.99278086
244	0x3f995537	1.197913
245	0x3f455cb2	0.77094567
246	0x3f4fac44	0.8112223
247	0x3f856c9a	1.0423768
248	0x3f9b20bc	1.2119365
249	0x3f8e7fa9	1.1132709
250	0x3f8590d0	1.0434818
251	0x3f4e5470	0.8059759
252	0x3f5c4299	0.8603912
253	0x3f5d6430	0.86481
254	0x3f984a63	1.1897701
255	0x3f8840f2	1.064482

encoder.1.bias f4 [256]
0	0xbf235b0f	-0.6381082
1	0xbe54e5d1	-0.20790793
2	0xbdfe7bce	-0.124259576
3	0xbef25573	-0.47330818
4	0xbfa975d7	-1.3239087
5	0xbf264ae7	-0.6495804
6	0xbe16119e	-0.14655158
7	0xbf30d016	-0.69067514
8	0xbf7f32bd	-0.99686795
9	0xbf64e51f	-0.8941211
10	0xbf7274a6	-0.9470924
11	0xbf81e80b	-1.0148939
12	0xbf28a3b1	-0.65874773
13	0x3d27437d	0.040835846
14	0x3d51d9c4	0.051233068
15	0xbf138d80	-0.57637787
16	0xbf95c805	-1.1701666
17	0xbd0cda37	-0.034387793
18	0xbec6d811	-0.3883672
19	0xbe514407	-0.20436107
20	0xbead62f8	-0.3386457
21	0xbe7d35f7	-0.24727617
22	0xbeb877ef	-0.36029002
23	0xbf187d28	-0.59565973
24	0xbf745451	-0.95441157
25	0xbe05fcac	-0.13084668
26	0xbf33d5ae	-0.70247924
27	0xbf6d0155	-0.9258016
28	0xbf4f5580	-0.8098984
29	0xbdc7e45c	-0.09760353
30	0xbf671c39	-0.9027744
31	0xbec0be73	-0.376453
32	0xbde1c1c3	-0.11023285
33	0xbee23080	-0.44177628
34	0xbec27aa5	-0.37984195
35	0xbf8dd886	-1.1081703
36	0xbd44b137	-0.048020568
37	0xbd9d95c4	-0.07694581
38	0xbcc278be	-0.023739215
39	0xbee0e5f5	-0.43925443
40	0xbf83c4ba	-1.0294411
41	0xbf237ad3	-0.6385929
42	0xbed7f540	-0.42179298
43	0xbd2d5086	-0.04231312
44	0xbf8fb626	-1.1227462
45	0xbec62c88	-0.3870585
46	0xbfae72ac	-1.3628745
47	0xbedb05de	-0.42777914
48	0xbe1a8dce	-0.15093157
49	0xbf0e467f	-0.5557632
50	0xbe1b1ab6	-0.15146908
51	0xbf25ab4d	-0.6471451
52	0xbeb76399	-0.35818174
53	0xbeebc4f4	-0.460487
54	0xbe3b9cf6	-0.18321595
55	0xbe353934	-0.17697603
56	0xbf669396	-0.9006895
57	0xbea34a4d	-0.31892624
58	0xbfaa033f	-1.3282241
59	0x3b9acb4b	0.0047239414
60	0xbe460fcd	-0.19341965
61	0xbeaa25e2	-0.33232027
62	0xbf0e857f	-0.5567245
63	0xbf0a73e0	-0.5408306
64	0xbd99d0d0	-0.07510531
65	0xbf07499f	-0.5284671
66	0xbf8d7bec	-1.1053443
67	0xbdb98c52	-0.09059967
68	0xbf9e6e34	-1.2377381
69	0xbe4edd82	-0.20201686
70	0xbf8dc669	-1.1076175
71	0xbe05a8d5	-0.13052686
72	0xbf83ebfd	-1.0306393
73	0xbeac8c74	-0.33700907
74	0xbe93dbc8	-0.28878617
75	0xbf78e568	-0.97225046
76	0xbe2b3b86	-0.16721925
77	0xbf1808eb	-0.5938861
78	0xbf8b125a	-1.0864975
79	0xb892c05c	-6.997652e-05
80	0xbf8c75d4	-1.0973458
81	0xbe2170d1	-0.15765692
82	0xbd79289e	-0.06082975
83	0xbe217c18	-0.15769994
84	0xbe237d72	-0.15965822
85	0xbd6d6174	-0.057954267
86	0xbe94b3a4	-0.29043305
87	0xbefbfc67	-0.49216005
88	0xbddcccd6	-0.10781257
89	0xbdddad64	-0.10824087
90	0xbd4b139b	-0.049579244
91	0xbf7b3ae9	-0.98136765
92	0xbf528253	-0.8223011
93	0xbf49ad13	-0.78779715
94	0xbdca7455	-0.0988547
95	0xbfc087d1	-1.5041448
96	0xbf09a436	-0.5376619
97	0xbe40f2ba	-0.18842593
98	0xbdd27d37	-0.10277789
99	0xbf53187e	-0.8245925
100	0xbe38a0e8	-0.18030131
101	0xbefe5b32	-0.49678952
102	0x3dfa8ae5	0.12233523
103	0xbe080b86	-0.13285646
104	0xbe880836	-0.26568764
105	0xbe80d8af	-0.25165316
106	0xbf050c6f	-0.519721
107	0xbd8acacb	-0.06776961
108	0xbf8a7ab4	-1.0818696
109	0xbf098b59	-0.5372825
110	0xbf4d6e7f	-0.8024673
111	0xbd3af61e	-0.045644872
112	0xbf402cc2	-0.75068295
113	0xbdf2f35c	-0.11862823
114	0xbea9d659	-0.33171347
115	0xbf196441	-0.599186
116	0xbf55600d	-0.83349687
117	0xbf183be6	-0.594664
118	0xbf50466e	-0.8135747
119	0xbefc5b74	-0.49288523
120	0xbfa6e02d	-1.3037163
121	0xbe84a517	-0.25907204
122	0xbe37f7a4	-0.17965561
123	0xbf49d938	-0.78847075
124	0xbf1fa39c	-0.62359023
125	0xbfb705c9	-1.429864
126	0xbf3b16c5	-0.7308162
127	0x3de8f0a6	0.11374025
128	0xbeb2187d	-0.34784308
129	0x3df153a6	0.11783533
130	0xbf401110	-0.75026035
131	0xbe91939d	-0.28432932
132	0xbf27a3f5	-0.65484554
133	0xbf90ac08	-1.13025
134	0xbe36851f	-0.17824219
135	0xbf9b82ec	-1.2149329
136	0xbeb75ec0	-0.35814476
137	0xbf8cffd7	-1.1015576
138	0xbe4a374e	-0.1974766
139	0xbf0e4bb9	-0.55584294
140	0xbf432c5a	-0.7623955
141	0xbe671646	-0.2256709
142	0xbfa650b4	-1.2993379
143	0x3d7d9d83	0.061917793
144	0xbf47b424	-0.7800925
145	0xbe7eda06	-0.24887857
146	0xbebd2a61	-0.36946395
147	0xbfa13b50	-1.2596226
148	0x3cf6985b	0.030101946
149	0xbf295721	-0.66148573
150	0xbfa58952	-1.2932532
151	0xbfa4af69	-1.2866031
152	0xbe60c44d	-0.21949883
153	0xbf5025ba	-0.81307566
154	0xbf967055	-1.1753031
155	0xbfc0624b	-1.5029997
156	0xbf35382f	-0.70788854
157	0xbf2cbc9c	-0.67475295
158	0xbf45ee7a	-0.7731701
159	0xbf26d664	-0.65170884
160	0x3cb24e58	0.021765873
161	0xbfcc67f3	-1.5969223
162	0xbdd95ec3	-0.106137775
163	0xbd25d0e7	-0.040482428
164	0xbf52e4a7	-0.82380146
165	0xbfb75726	-1.432347
166	0xbe88f72d	-0.2675108
167	0xbef9c6e0	-0.48784542
168	0xbe5f88f8	-0.21829593
169	0xbd8ff162	-0.07028462
170	0xbf2db9b9	-0.67861515
171	0xbf2561e4	-0.64602494
172	0xbe0ee5c7	-0.1395484
173	0xbeb676bb	-0.3563746
174	0xbf39c1b1	-0.72561175
175	0xbf2d999d	-0.6781252
176	0xbf1d1c65	-0.6137145
177	0xbf8c6b86	-1.0970314
178	0x3d8e70f3	0.06955137
179	0xbed2799b	-0.41108403
180	0xbf1b8ca5	-0.6076148
181	0xbf035638	-0.51303434
182	0xbc3373c9	-0.010952898
183	0xbf11d26f	-0.5696172
184	0xbf487304	-0.783005
185	0xbe3dff4d	-0.18554421
186	0xbf21d028	-0.63208246
187	0xbe6dbdfc	-0.23217005
188	0xbf305957	-0.6888632
189	0xbf41d7e5	-0.75720054
190	0xbc62cb41	-0.013842405
191	0xbf9daeaf	-1.2318934
192	0xbfc5ab2e	-1.5442865
193	0xbda5729d	-0.080785014
194	0xbe592791	-0.212065
195	0xbf0af15c	-0.54274535
196	0xbefc0eff	-0.4923019
197	0xbf1237f9	-0.5711666
198	0xbf722923	-0.9459402
199	0xbf71b7d4	-0.94421124
200	0x3e014565	0.12624128
201	0xbeb26f01	-0.34850314
202	0xbe517fe7	-0.20458947
203	0xbf008868	-0.5020814
204	0xbf2769af	-0.65395635
205	0xbe683fac	-0.22680539
206	0x391bed0b	0.00014870257
207	0xbf0349ff	-0.51284784
208	0xbe93cc29	-0.288667
209	0xbf9d1497	-1.2271909
210	0xbf8b1936	-1.0867069
211	0xbe544ec7	-0.20733176
212	0xbf876fe4	-1.0581021
213	0xbe8a5de9	-0.27024773
214	0xbf2071a4	-0.626734
215	0xbf4d6a9f	-0.80240816
216	0xbe75709a	-0.23968735
217	0xbe2273df	-0.15864514
218	0xbebad447	-0.3649008
219	0xbf28172f	-0.65660375
220	0xbf62c034	-0.8857453
221	0xbe02964f	-0.1275265
222	0x3d299294	0.041399553
223	0xbede9be3	-0.43478307
224	0xbf336c7b	-0.70087403
225	0xbbf7a0c0	-0.0075570047
226	0xbe6736d6	-0.22579512
227	0xbf837004	-1.026856
228	0xbeb588f3	-0.35456046
229	0xbf7270ae	-0.94703186
230	0xbf2247ae	-0.63390625
231	0xbf4cccfb	-0.80000275
232	0xbea62c25	-0.32455555
233	0xbebab7ce	-0.36468357
234	0xbe843019	-0.25817946
235	0xbe89c140	-0.2690525
236	0x3e12037a	0.14259139
237	0xbf88f801	-1.0700685
238	0xbe4170fe	-0.1889076
239	0xbf0b527e	-0.5442275
240	0xbd20af3a	-0.03922961
241	0xbf30aef6	-0.6901697
242	0xbe88d9d7	-0.267287
243	0xbe901011	-0.28137258
244	0xbf274ef8	-0.6535487
245	0xbe9d255f	-0.30692574
246	0xbdaad8f7	-0.08342164
247	0xbeb0ba4c	-0.34517133
248	0xbf926d89	-1.1439677
249	0xbfadb933	-1.3572143
250	0xbecaf1df	-0.39637658
251	0xbf4b08d9	-0.79310375
252	0xbe94e18d	-0.29078332
253	0xbda1dd61	-0.07903553
254	0xbf16ea5b	-0.5895135
255	0xbf4281a8	-0.7597909

encoder.1.running_mean f4 [256]
0	0xbed36a96	-0.41292256
1	0x3ebe4eba	0.3716944
2	0xbefab54f	-0.48966452
3	0xbece2dfb	-0.40269455
4	0xbf94509a	-1.1587098
5	0xc03af661	-2.9212878
6	0xbf93e9c4	-1.1555715
7	0x3f94eb73	1.1634353
8	0x403a1438	2.907484
9	0xbf8c8141	-1.0976945
10	0xc03164c7	-2.771776
11	0x400ed4fc	2.2317495
12	0x406bff69	3.687464
13	0xbf96058e	-1.1720445
14	0xc09d815c	-4.922041
15	0x3fb033fe	1.3765867
16	0xbeb9efcf	-0.36315772
17	0x3ff1f987	1.8904275
18	0x400dd206	2.2159438
19	0xbf8f9926	-1.1218612
20	0xbe2e011e	-0.16992614
21	0xbfe4173c	-1.781959
22	0xbf93b0a6	-1.1538284
23	0x4076f63b	3.8587787
24	0xc0392569	-2.8929083
25	0xc0391b36	-2.8922858
26	0x400b2769	2.1742804
27	0x4036ee64	2.8583002
28	0x3f9473ff	1.1597899
29	0xbfc5bb7d	-1.5447842
30	0xbf8002d2	-1.0000861
31	0xbeaa8490	-0.33304262
32	0x3fd12a6c	1.6341071
33	0x3fec7fa1	1.8476449
34	0x400daf89	2.2138388
35	0xbfa4d210	-1.2876606
36	0x3fd7d14a	1.6860745
37	0xc085a86d	-4.17681
38	0x3fb8c1c1	1.4434129
39	0xbf99fee8	-1.2030916
40	0xbfe362c3	-1.7764515
41	0xbf557cbb	-0.8339345
42	0xbfa52869	-1.2902957
43	0xc074cabc	-3.824874
44	0xbfe91c17	-1.8211697
45	0x4017465b	2.3636692
46	0x3f46c124	0.7763846
47	0x40a0e1cb	5.0275626
48	0x3f1227c0	0.57091904
49	0xbfec6b99	-1.8470336
50	0xc0233051	-2.549824
51	0x408113b5	4.0336556
52	0x40a712b5	5.2210336
53	0x4047fc9b	3.1247928
54	0xbfbd2c54	-1.4779153
55	0xbff84f18	-1.9399137
56	0xc056cc7b	-3.3562305
57	0x408c8975	4.3917794
58	0xbffd1b2c	-1.9773917
59	0xbfa4a37a	-1.2862389
60	0xbfc81e9e	-1.5634344
61	0x3f02f055	0.5114797
62	0xc00b56d4	-2.1771746
63	0xc0864e62	-4.197068
64	0xc03f4dd5	-2.9891255
65	0x404e578b	3.2240932
66	0xbf38a27d	-0.7212294
67	0xbfb5df74	-1.4208817
68	0xc061a9f4	-3.525998
69	0xbfe8723a	-1.8159859
70	0xbf71838a	-0.9434134
71	0xbfea3906	-1.8298652
72	0xbff1c47a	-1.8888085
73	0x3f2b81c6	0.66994894
74	0xbef159e3	-0.4713889
75	0x401d2d46	2.4558883
76	0xbfe07b8b	-1.7537702
77	0xbfed44f2	-1.8536665
78	0xbf9c4ad1	-1.2210332
79	0x3fe42e0d	1.7826554
80	0x404a10fb	3.1572864
81	0xbeeb82f3	-0.45998344
82	0xbe83162e	-0.2560286
83	0x4009a609	2.150759
84	0x40881723	4.2528243
85	0xbfb09217	-1.3794583
86	0xc046e1c8	-3.1075306
87	0x3f8a4b83	1.0804294
88	0x3d5cc34c	0.053897187
89	0x400b227f	2.1739805
90	0x400bf48b	2.1868007
91	0xbf56e5c6	-0.83944356
92	0xc055defb	-3.3417346
93	0xbfe5acb1	-1.7943326
94	0x3f430e9c	0.7619417
95	0x3fc5592b	1.5417837
96	0xbf914708	-1.1349802
97	0x4017530c	2.3644438
98	0x3f4de342	0.8042489
99	0x40257d06	2.5857558
100	0x3ffe09da	1.9846756
101	0xc01b309e	-2.4248424
102	0x3f121ef0	0.57078457
103	0x4046d763	3.1068962
104	0xbfccaf63	-1.5991024
105	0xbe68ca7a	-0.22733489
106	0xc03162df	-2.7716596
107	0xc03c4aa8	-2.9420567
108	0xc083da64	-4.120409
109	0xc01eb466	-2.4797606
110	0x3fac5c35	1.3465639
111	0x3fb41227	1.406804
112	0xc0461090	-3.094761
113	0xbff35a00	-1.9011841
114	0x402d1ed0	2.7050056
115	0xc0386167	-2.880945
116	0xbe4c7d67	-0.19969712
117	0x4082ff2b	4.0936484
118	0xbfd2f286	-1.6480262
119	0x3fb68c28	1.4261522
120	0x3f8ef71d	1.1169163
121	0x3e824506	0.25443286
122	0x4074910a	3.8213525
123	0x3f0b9bdf	0.54534715
124	0xbe5797bd	-0.21053977
125	0xbffdc3dd	-1.9825398
126	0xc0249ed5	-2.5721943
127	0xbf8a85fc	-1.0822139
128	0xbe2acdb4	-0.16680032
129	0xbfcb9679	-1.5905296
130	0x3fa66b00	1.3001404
131	0x3fa9d882	1.3269198
132	0x40575356	3.3644614
133	0xc00ff95c	-2.2495947
134	0xc01b9a32	-2.4312863
135	0x3e0b1c58	0.13585031
136	0x4044931e	3.0714793
137	0xc03db7cd	-2.9643433
138	0xbf839210	-1.027895
139	0x3f931ec1	1.149376
140	0xbfff9b1b	-1.996921
141	0xbe217b3f	-0.15769671
142	0x406bdb02	3.6852422
143	0xbfae40ca	-1.3613522
144	0x3f53949c	0.82648635
145	0x3dcb7216	0.099338695
146	0x3fb3de65	1.4052244
147	0x40830dfb	4.0954566
148	0xc063de8f	-3.560459
149	0xbf37bfaa	-0.7177683
150	0xbfaed300	-1.3658142
151	0xbfde3a63	-1.7361568
152	0x40801d28	4.003559
153	0x3f7f65c1	0.9976464
154	0xbe2e8096	-0.17041239
155	0xbfda72ed	-1.7066323
156	0xbfe7f165	-1.8120543
157	0xc0280846	-2.625505
158	0x40147e64	2.3202143
159	0x3fbe75d6	1.4879711
160	0xbdada501	-0.084787376
161	0xbfc22f17	-1.5170621
162	0xbfe49e21	-1.7860757
163	0x40136de1	2.3035815
164	0x3f92f376	1.1480548
165	0x3ff33b38	1.9002447
166	0x3f506cf9	0.8141628
167	0x3ea986b6	0.3311059
168	0x402ef742	2.7338414
169	0x403a5c50	2.9118843
170	0xc058902e	-3.3838
171	0x405cfa9c	3.452796
172	0x4089d7d7	4.3075976
173	0xbff3f328	-1.905858
174	0xbe83de79	-0.2575567
175	0x4094ab1e	4.6458883
176	0x3fae8a76	1.3636005
177	0x3edd8b47	0.43270323
178	0xbf16f587	-0.58968395
179	0x3ff7cb7a	1.9358971
180	0xc00b748c	-2.1789885
181	0x40424301	3.0353396
182	0xc0569477	-3.3528116
183	0xbf8520ca	-1.0400631
184	0x3e8a4d0c	0.27011907
185	0x400d7f62	2.2108998
186	0x40a397ea	5.112294
187	0x4050678d	3.2563202
188	0xbf911ad4	-1.1336312
189	0xbfdddb63	-1.7332577
190	0xc02c2363	-2.6896598
191	0xc01e38cf	-2.4722173
192	0xbff34df4	-1.9008164
193	0x3f7ff27f	0.99979395
194	0x407993b0	3.8996391
195	0x4009d9d0	2.1539192
196	0x3fa34224	1.275456
197	0x4063bdd7	3.558462
198	0x4037cf31	2.872021
199	0x404ac049	3.1679862
200	0xbee89b39	-0.45430925
201	0xbfd830a8	-1.6889849
202	0x3f3e9086	0.74439275
203	0x3fe3b7d2	1.7790473
204	0x3fd468a9	1.659444
205	0xbe942018	-0.28930736
206	0x3f419651	0.7561999
207	0xbf2a494c	-0.6651809
208	0x402b4a0c	2.6763945
209	0x3eb1a905	0.34699264
210	0xbf4d17fe	-0.80114734
211	0xc07cf905	-3.952699
212	0x3f4f29b8	0.8092303
213	0xbfdd4f95	-1.7289912
214	0x3f39c1e3	0.7256147
215	0xbe82b11e	-0.25525755
216	0xc006fabc	-2.1090536
217	0xc02e308c	-2.721713
218	0x4003a031	2.0566523
219	0x3f5c2f62	0.860098
220	0xc046f7c3	-3.1088722
221	0x3f27dbd6	0.6556982
222	0xbdd8e47a	-0.105904534
223	0xbf747bd1	-0.9550143
224	0x3fdbe498	1.7179136
225	0x402fe04d	2.7480652
226	0x40327ec7	2.7889879
227	0x40340796	2.812963
228	0xc037b952	-2.870686
229	0xbe033922	-0.12814763
230	0x3f216d61	0.63057524
231	0xbf315cc0	-0.6928215
232	0xbf2883f9	-0.65826374
233	0xbfecfe80	-1.8515167
234	0xbf23bcd7	-0.6396002
235	0xbe7d854a	-0.24757877
236	0xbfe09d3a	-1.7547982
237	0xbfd80289	-1.6875774
238	0x40138c56	2.3054404
239	0xc04c027a	-3.1876512
240	0xc0170b85	-2.360078
241	0x3e3a2b94	0.18180686
242	0xc010980d	-2.2592804
243	0xc08068ca	-4.0127916
244	0x40d9c934	6.805811
245	0xbf1eb95c	-0.62001586
246	0xc039b00f	-2.9013708
247	0xc0373f72	-2.8632474
248	0xbf77ae79	-0.967506
249	0x3f505705	0.8138278
250	0x3eae0047	0.33984587
251	0xc081899f	-4.0480494
252	0x4047c269	3.1212409
253	0xbe179b46	-0.14805326
254	0xc03db423	-2.9641197
255	0xbebd4b6c	-0.36971605

encoder.1.running_var f4 [256]
0	0x3dfd433c	0.123663396
1	0x3e160fd5	0.14654477
2	0x3d2614c3	0.040547144
3	0x3e601b17	0.21885334
4	0x3e8bf25a	0.27333337
5	0x3fc519c8	1.5398493
6	0x3d9cb230	0.07651174
7	0x3dc4df7b	0.09612938
8	0x3fc7ee2f	1.5619563
9	0x3dc29102	0.09500314
10	0x3ed4afde	0.41540426
11	0x3f663d7b	0.8993756
12	0x3ff1d5d1	1.8893377
13	0x3d97b9f2	0.07408513
14	0x3e0974ec	0.13423508
15	0x3ec1d5c6	0.3785841
16	0x3e4162cc	0.18885344
17	0x3fab91d7	1.3403882
18	0x3da1cb2e	0.079000816
19	0x3ddd05a2	0.1079209
20	0x3d0b0280	0.03393793
21	0x3dba63a9	0.0910104
22	0x3d0eb443	0.03483988
23	0x3f6eab99	0.9323059
24	0x3e152924	0.14566475
25	0x3e46a3f4	0.1939848
26	0x3e91d8b0	0.28485632
27	0x3e4ca516	0.1998485
28	0x3e69af0c	0.22820681
29	0x3ded9d55	0.11602274
30	0x3e4292e0	0.19001341
31	0x3cd2a908	0.025715366
32	0x3da99103	0.08279612
33	0x3f8d7e9e	1.1054265
34	0x3dde3fdc	0.10852024
35	0x3f14bae6	0.58097684
36	0x3f985950	1.1902256
37	0x3d14e304	0.03634931
38	0x3c84d7cf	0.016216187
39	0x3dc6c98c	0.09706411
40	0x3f328ebc	0.69749045
41	0x3ed631da	0.4183491
42	0x3de71ec6	0.112851664
43	0x3e521e90	0.20519471
44	0x3ee605e9	0.44926384
45	0x3f1e42cf	0.6182069
46	0x3f430ead	0.7619427
47	0x403a9b3f	2.9157255
48	0x3d8ebef8	0.06970018
49	0x3e29315b	0.16522734
50	0x3ef42c35	0.47689977
51	0x3f16daee	0.5892781
52	0x3f2b7b53	0.6698505
53	0x4029b5e7	2.6517274
54	0x3d0f006d	0.034912515
55	0x3d7de784	0.06198837
56	0x3e068248	0.13135636
57	0x3ff285f7	1.8947133
58	0x3ec73e8c	0.38914907
59	0x3c2f44bf	0.010697543
60	0x3df7dc49	0.12102563
61	0x3dca477e	0.09876917
62	0x3d89ef95	0.0673515
63	0x3e9dbd83	0.30808648
64	0x3e398324	0.18116432
65	0x3e2c9945	0.16855343
66	0x3dfd6270	0.12372291
67	0x3e80f0c6	0.25183696
68	0x3f5eee51	0.8708239
69	0x3df8af5c	0.12142822
70	0x3e09bc89	0.13450827
71	0x3e6a308b	0.2287008
72	0x3f9a5e93	1.2060112
73	0x3ecf7252	0.40516907
74	0x3ebd76da	0.3700474
75	0x3f8fdea5	1.1239821
76	0x3e50a0e7	0.2037388
77	0x3e124a6e	0.14286205
78	0x3ee3d180	0.44495773
79	0x3eda598c	0.42646444
80	0x3fc33057	1.5249127
81	0x3da74942	0.0816827
82	0x3ef7eec3	0.48424348
83	0x3f5cfba1	0.86321455
84	0x3fe48bd1	1.7855169
85	0x3e020c10	0.12699914
86	0x3e59bc7e	0.2126331
87	0x3cba3e7b	0.022734871
88	0x3e915255	0.28383127
89	0x3ed21e9c	0.41038978
90	0x3d2e7f12	0.042601652
91	0x3dd4a5d3	0.10383191
92	0x3ddf503a	0.10903974
93	0x3eeea586	0.4661066
94	0x3da2187b	0.079148255
95	0x3eb5eec1	0.35533717
96	0x3dffefd2	0.12496914
97	0x3f22a432	0.6353179
98	0x3dbaacd0	0.091149926
99	0x3e3184a5	0.17335756
100	0x3de6ce10	0.11269772
101	0x3df035d3	0.11729016
102	0x3d4bf984	0.049798504
103	0x3f6336f0	0.887557
104	0x3dfa50dc	0.12222454
105	0x3d9fb5c6	0.077983424
106	0x3f5fd20f	0.874299
107	0x3e582a20	0.2110982
108	0x3f970ec4	1.1801381
109	0x3e91729d	0.28407755
110	0x3f83dc28	1.0301561
111	0x3eb8732e	0.36025375
112	0x3e240e62	0.16021112
113	0x3e72f3b6	0.23725781
114	0x3f13538b	0.5754935
115	0x3e221e69	0.15831913
116	0x3dfbaf28	0.12289268
117	0x3d1c1c8b	0.03811316
118	0x3e0dcec8	0.13848412
119	0x3d23a557	0.039952602
120	0x3f52d703	0.8235933
121	0x3d2f0abf	0.042734858
122	0x3fdd3eca	1.7284787
123	0x3e24db3a	0.16099253
124	0x3e4ee202	0.20203403
125	0x3ee33ea7	0.44383737
126	0x3f037bce	0.51360786
127	0x3d7fbe57	0.06243738
128	0x3d87180b	0.06596383
129	0x3e73e988	0.23819554
130	0x3f85950b	1.0436109
131	0x3d85f0a0	0.06540036
132	0x3c18c4ee	0.009324295
133	0x3e08d952	0.13364151
134	0x3dd8cd91	0.10586084
135	0x3eaff369	0.34365395
136	0x3f6d13e1	0.9260846
137	0x3f1efddf	0.62106127
138	0x3d6110fa	0.05494783
139	0x3ea3c66b	0.31987318
140	0x3d6d2146	0.05789306
141	0x3db26fb5	0.08712713
142	0x3d974186	0.073855445
143	0x3dade2d9	0.084905334
144	0x3d1fd306	0.039019607
145	0x3d4cd876	0.05001112
146	0x3f8a89db	1.082332
147	0x3dec2963	0.115313314
148	0x3e16546d	0.14680643
149	0x3d665eaa	0.056242622
150	0x3f523601	0.82113653
151	0x3e95c433	0.2925125
152	0x3ea31a96	0.3185622
153	0x3e8a4e2a	0.2701276
154	0x3f37d9ac	0.71816516
155	0x3ff984da	1.9493668
156	0x3e5432eb	0.20722549
157	0x3d27ed18	0.040997595
158	0x400e865e	2.2269511
159	0x3e6bd057	0.23028694
160	0x3e181a99	0.14853896
161	0x3f8fca62	1.1233637
162	0x3d1fd6b1	0.039023105
163	0x3fb52cb3	1.4154266
164	0x3cf5119e	0.029915627
165	0x3ef99640	0.48747444
166	0x3da17c41	0.07885028
167	0x3c953214	0.018212356
168	0x3f8381dd	1.0274006
169	0x3f9713e6	1.1802948
170	0x3e635599	0.22200622
171	0x3fc7f54b	1.5621732
172	0x3c917aa5	0.017758677
173	0x3f0bd142	0.5461618
174	0x3f08e93d	0.53480893
175	0x400fdcd0	2.2478523
176	0x3dd35d51	0.10320533
177	0x3f2d3a78	0.6766734
178	0x3c95ee9f	0.01830226
179	0x3cdd0617	0.026980443
180	0x3dfeb2b7	0.12436431
181	0x3d41ddb2	0.047330566
182	0x3dc15bd2	0.094413415
183	0x3e24da76	0.16098961
184	0x3ee04f3b	0.43810448
185	0x3e27311d	0.16327329
186	0x3dc93427	0.098244004
187	0x3f526f3d	0.82200986
188	0x3d98e33e	0.07465218
189	0x3e9d0eb8	0.30675292
190	0x3e2719bc	0.1631841
191	0x3eec6a37	0.46174785
192	0x3f34c27d	0.70609266
193	0x3d8ca754	0.06867853
194	0x3d5f22f3	0.05447669
195	0x3f373676	0.71567476
196	0x3ca87401	0.020563127
197	0x40069992	2.1031232
198	0x3d10f076	0.03538557
199	0x3f210145	0.6289256
200	0x3dbe581c	0.09294149
201	0x3f2d1138	0.676044
202	0x3cb1c60f	0.021700887
203	0x3c6e5735	0.014547159
204	0x3d93bf04	0.07214168
205	0x3ddd2bca	0.10799368
206	0x3c313237	0.010815195
207	0x3df5045b	0.11963721
208	0x3f541ab4	0.82853246
209	0x3e94cbee	0.29061836
210	0x3eb95747	0.361994
211	0x3e51f3ff	0.20503233
212	0x3e12798a	0.14304176
213	0x3d07dd15	0.033169825
214	0x3db96613	0.09052672
215	0x3da05028	0.078277886
216	0x3d85a993	0.06526484
217	0x3eec45a3	0.4614688
218	0x3f0a87c6	0.54113424
219	0x3f53effd	0.8278807
220	0x3e24ef54	0.16106921
221	0x3cb19eb0	0.021682113
222	0x3dea5b85	0.11443237
223	0x3d603ddc	0.054746494
224	0x3d995372	0.07486619
225	0x3d21700f	0.039413508
226	0x3c251be3	0.0100774495
227	0x3ee4fad2	0.4472261
228	0x3e315e62	0.1732116
229	0x3e005839	0.12533654
230	0x3e0a25f2	0.13491037
231	0x3da8dd5b	0.08245345
232	0x3ea63b88	0.32467294
233	0x3e3377be	0.17526147
234	0x3e8ce672	0.27519566
235	0x3cf89a5c	0.030347042
236	0x3e77ee9e	0.24212119
237	0x3e42c1a0	0.19019175
238	0x3c8bad76	0.017050486
239	0x3ea70f67	0.3262894
240	0x3d87f8dd	0.06639264
241	0x3e172670	0.14760756
242	0x3e2e8408	0.17042553
243	0x3e7df89a	0.24801865
244	0x4007e138	2.1231213
245	0x3c8a8c77	0.016912682
246	0x3f22f986	0.6366199
247	0x3d83e45d	0.06440041
248	0x3ea5db8a	0.32394058
249	0x3f0bb678	0.545753
250	0x3d6bcb54	0.057566956
251	0x3ffa301b	1.9545931
252	0x400305c1	2.0472262
253	0x3bf9364c	0.0076053496
254	0x3d7423b2	0.059604354
255	0x3ecc6f45	0.39928642

encoder.4.weight f4 [128, 256]
0	0xbf07a798	-0.529901
1	0xbef9fd5d	-0.48826113
2	0xbe04a540	-0.12953663
3	0xbeb12a86	-0.34602755
4	0x3f22951c	0.6350877
5	0x3f014c2f	0.5050687
6	0xbf793dcc	-0.9735992
7	0xbf03b862	-0.5145322
8	0x3e7e4a98	0.24833143
9	0xbe4847f6	-0.19558701
10	0x3de13c23	0.10997798
11	0xbe72fcfe	-0.23729321
12	0x3d91d1c8	0.07120091
13	0xbf3fbb01	-0.7489472
14	0xbdc6d890	-0.09709275
15	0xbf39f2f7	-0.7263636
16	0xbe46ed3a	-0.19426432
17	0x3ebabf84	0.3647424
18	0x3dbc2d4f	0.091883294
19	0x3f2a3188	0.6648183
20	0x3e930cbc	0.28720653
21	0x3e5a0cb3	0.21293907
22	0x3e86a623	0.26298627
23	0x3da64f78	0.08120626
24	0xbf5119a2	-0.8167974
25	0x3d915921	0.07097078
26	0x3ebe35ea	0.37150508
27	0x3ebbdc1e	0.36691374
28	0x3f082e75	0.5319589
29	0xbecc1714	-0.39861357
30	0x3eba2160	0.36353588
31	0xbe9b4570	-0.30326414
32	0x3e7085fd	0.23488612
33	0x3e2b9c02	0.16758731
34	0x3e491be7	0.1963955
35	0x3efc86cd	0.49321595
36	0x3d6ed787	0.05831101
37	0x3efc9fe2	0.4934073
38	0xbe7538c3	-0.23947434
39	0x3e7e7252	0.24848297
40	0xbe742165	-0.23840864
41	0xbd0e452f	-0.034733947
42	0x3ec74995	0.38923326
43	0xbc25d58f	-0.010121717
44	0xbf846499	-1.03432
45	0x3f5e680f	0.8687753
46	0x3edd98c7	0.43280622
47	0xbd91cd3e	-0.07119225
48	0xbe3818ae	-0.17978165
49	0xbf586b0c	-0.8453834
50	0x3dc8e8f5	0.09810058
51	0x3e233b2d	0.15940543
52	0x3e0b3680	0.13595009
53	0x3eaf0810	0.3418584
54	0x3f0b870b	0.54502934
55	0x3f4b1146	0.7932323
56	0xbeab1035	-0.33410802
57	0x3f5fe25d	0.8745478
58	0x3f40fe9f	0.7538852
59	0x3c1a3aad	0.009413403
60	0x3eb8e294	0.36110365
61	0x3e850c6b	0.25986037
62	0x3edea5f3	0.43485984
63	0xbdd9b0cb	-0.10629424
64	0x3f225496	0.6341032
65	0x3ec1b4e4	0.3783332
66	0x3ea09c1d	0.31369105
67	0x3db48a95	0.08815495
68	0xbe6eb30d	-0.2331049
69	0xbecfd90a	-0.40595275
70	0xbe617906	-0.22018823
71	0x3f01e2f7	0.50736946
72	0x3f29da1f	0.6634845
73	0x3e907419	0.28213575
74	0x3e2769bb	0.16348927
75	0x3ec1a5c1	0.37821773
76	0x3e63dca4	0.22252136
77	0x3e25f7a9	0.16207756
78	0x3eb3e405	0.35134903
79	0x3d3f5d6b	0.04671995
80	0x3e9deac6	0.3084318
81	0x3e7ed8e8	0.2488743
82	0x3e84c9ac	0.25935113
83	0x3f029790	0.51012516
84	0x3ca45a25	0.020062516
85	0xbf1652b2	-0.58719933
86	0x3eafe022	0.34350687
87	0x3ee20b6c	0.4414934
88	0xbe3a8343	-0.18214135
89	0xbeefe6e1	-0.46855834
90	0xbccc1529	-0.024912434
91	0xbd9ae544	-0.0756326
92	0x3f4daca9	0.80341583
93	0x3e3f9b4d	0.18711586
94	0xbdd9e8cc	-0.106401056
95	0x3ec34b60	0.38143444
96	0xbf057753	-0.521352
97	0xbc345363	-0.011006209
98	0xbdf6042f	-0.12012517
99	0x3e01ca8e	0.12674925
100	0xbf19fa7a	-0.6014782
101	0x3efd9daa	0.4953435
102	0xbf27a46c	-0.6548526
103	0xbe55a259	-0.20862712
104	0xbdf6897e	-0.12037943
105	0x3ed5195f	0.4162092
106	0x3e0c564b	0.13704793
107	0x3de665bd	0.11249874
108	0x3e21a44b	0.15785329
109	0x3ed167a9	0.408994
110	0x3f0bb635	0.545749
111	0x3e8cc94c	0.27497327
112	0xbe94a020	-0.29028416
113	0x3ec7a1c5	0.38990608
114	0x3ef8620a	0.48512298
115	0x3f19a5ed	0.6001881
116	0x3e9b1872	0.30292088
117	0xbec9bfab	-0.39404044
118	0x3eef3925	0.46723285
119	0xbcae6866	-0.021290015
120	0x3ed04fcd	0.40685883
121	0xbdd98aae	-0.10622154
122	0xbe3b8159	-0.18311061
123	0x3ed569d7	0.41682312
124	0xbdf0f4a9	-0.11765415
125	0x3ef2e523	0.47440442
126	0xbc99191c	-0.01868873
127	0xbf5e8e38	-0.8693576
128	0x3d17246e	0.036899976
129	0x3d7e59ea	0.062097467
130	0x3e95638f	0.2917752
131	0xbf2fc249	-0.6865583
132	0xbe4bfb3d	-0.19920059
133	0xbf3d59de	-0.7396525
134	0xbe220c49	-0.15824999
135	0x3ee99845	0.45623985
136	0xbe0b051a	-0.13576165
137	0xbf26e08c	-0.6518638
138	0xbe35def2	-0.17760828
139	0x3e9fbdb2	0.31199414
140	0x3e923b26	0.28560752
141	0x3ed1b705	0.40959945
142	0xbf31776f	-0.69322866
143	0x3f08062a	0.53134406
144	0xbe971808	-0.29510522
145	0x3e4ab5c5	0.19795902
146	0xbd08b616	-0.033376776
147	0x3f1f1706	0.62144506
148	0xbeb28fd4	-0.34875357
149	0x3ea82819	0.32843092
150	0x3ec82ca8	0.3909657
151	0x3eee8689	0.46587017
152	0xbe56d3aa	-0.20979181
153	0xbdd79ae6	-0.105275914
154	0x3f4debaf	0.8043775
155	0x3f815149	1.0102931
156	0xbd94d2c1	-0.072667606
157	0xbf801018	-1.0004911
158	0x3e93dfec	0.28881776
159	0x3e20d220	0.15705156
160	0xbdbcc40f	-0.09217083
161	0x3e27e18c	0.16394633
162	0x3e29d70d	0.16585942
163	0x3f32199d	0.6957033
164	0x3d2e396a	0.042535223
165	0xbed39d9c	-0.41331184
166	0xbecb1bc3	-0.39669618
167	0x3d8bdc3a	0.06829114
168	0xbeb9af1c	-0.3626641
169	0x3e06eb16	0.13175616
170	0x3b0f6deb	0.0021885585
171	0x3ee25590	0.44205904
172	0xbeb6b49f	-0.35684678
173	0x3d970943	0.073748134
174	0x3ec4f244	0.38466084
175	0xbdf8991e	-0.1213858
176	0xbe0a726b	-0.1352021
177	0x3f020398	0.50786734
178	0xbe1440bb	-0.14477818
179	0x3d75bee8	0.059996516
180	0x3e1b6243	0.15174203
181	0xbfa67d42	-1.3006976
182	0x3dcc4d2f	0.09975659
183	0x3eeca078	0.46216178
184	0xbc777ad2	-0.015104966
185	0x3dfc4d5a	0.12319441
186	0x3c0d4d90	0.008624449
187	0xbde0f4c3	-0.109841846
188	0x3f04f8b3	0.51941985
189	0x3f1129a1	0.56704146
190	0xbedacab3	-0.42732772
191	0x3f46c250	0.7764025
192	0x3ea37476	0.3192479
193	0xbec08ce1	-0.37607482
194	0xbfa73df5	-1.3065783
195	0xbe8ff453	-0.28116092
196	0x3e9d8bb2	0.30770642
197	0x3f64b3ee	0.8933705
198	0x3e023f88	0.12719548
199	0x3ec2ed7e	0.38071817
200	0xbf592ce7	-0.8483414
201	0xbd6ceb05	-0.05784132
202	0xbf235255	-0.63797504
203	0xbf5ad482	-0.8548051
204	0x3e7a17ce	0.24423143
205	0xbe4cf269	-0.20014347
206	0xbef1985e	-0.4718656
207	0x3ea26da0	0.31724262
208	0x3e2633c5	0.16230686
209	0x3f0d88cc	0.5528686
210	0xbf2fd53b	-0.6868474
211	0x3f21019d	0.62893087
212	0xbd376f76	-0.04478403
213	0xbebd9128	-0.37024808
214	0x3ed2891b	0.41120228
215	0x3f095696	0.53647745
216	0x3f0d78a7	0.55262226
217	0x3ef4ffc7	0.47851393
218	0x3f2c4e0c	0.6730659
219	0x3f1c0218	0.60940695
220	0x3eb15c81	0.34640887
221	0x3f1d5ca5	0.6146949
222	0xbc371141	-0.011173547
223	0x3f953925	1.1658064
224	0xbf29a7b9	-0.6627155
225	0xbe220836	-0.15823445
226	0xbcfc2a79	-0.030781971
227	0x3f34a5ae	0.7056531
228	0xbeb907f6	-0.36138886
229	0xbe0f0546	-0.13966855
230	0x3ebb83bd	0.36623946
231	0xbe9f835d	-0.3115491
232	0xbe7f1588	-0.24910557
233	0xbd1f53cc	-0.038898274
234	0xbf159970	-0.5843725
235	0x3e5f4a12	0.218056
236	0x3ed1c239	0.40968493
237	0xbfc2f12e	-1.5229852
238	0xbd58344b	-0.052784245
239	0x3e85a01f	0.26098725
240	0x3f76854d	0.9629715
241	0x3e10555d	0.14095064
242	0xbde1a73f	-0.11018228
243	0x3e86e2eb	0.26345
244	0xbebabb12	-0.36470848
245	0x3f475b03	0.7787325
246	0x3dc90e0e	0.09817134
247	0x3f0512c6	0.5198177
248	0x3e642458	0.22279489
249	0x3ee67d1b	0.45017323
250	0x3e1ca250	0.15296292
251	0x3e1b3eb6	0.15160641
252	0xbd960307	-0.07324796
253	0xbebb4b04	-0.3658067
254	0x3e6ff69a	0.23433915
255	0xbdadc946	-0.084856555

encoder.4.bias f4 [128]
0	0x3c9cc26c	0.019135676
1	0xbd20bbfd	-0.03924178
2	0xbd67d5e3	-0.056600463
3	0xbd36b801	-0.044609074
4	0x3d4cb1be	0.049974196
5	0xbd1053f7	-0.035236325
6	0xbaffb4c2	-0.0019508826
7	0xbd4d942c	-0.050190136
8	0xbd71853d	-0.058964957
9	0xbc98c019	-0.018646287
10	0x3d6a4680	0.05719614
11	0xbc3406fe	-0.010987995
12	0x3d25f9ca	0.04052142
13	0xbd288575	-0.0411429
14	0x3ce1e2b3	0.027573919
15	0xbd0401d3	-0.032228302
16	0xbc4672cd	-0.012112332
17	0xbd3572e6	-0.04429903
18	0xbbfbc230	-0.007683061
19	0x3ca0f3ea	0.019647557
20	0xbd223ba2	-0.03960765
21	0xbb517fb0	-0.0031966977
22	0xbc8ec0e8	-0.01742597
23	0x3d257b4e	0.040400796
24	0xbd65dcae	-0.05611866
25	0xbd09af59	-0.03361449
26	0x3ccbc408	0.024873748
27	0xbc4f78e0	-0.012663096
28	0xbd688c51	-0.05677444
29	0x3c4fb9ca	0.012678573
30	0xbcea989f	-0.028637229
31	0x3d0dff18	0.034667104
32	0x3be98239	0.0071261195
33	0x3c81e482	0.015856031
34	0xbd79a73d	-0.060950506
35	0x3d5a118a	0.053239383
36	0xbb651965	-0.0034957763
37	0x3c0168e4	0.007898543
38	0x3d763c58	0.060116142
39	0x3d11a642	0.035558946
40	0x3ca34286	0.019929182
41	0xb9885776	-0.00026005105
42	0xbc386b5e	-0.011256067
43	0x3ca20541	0.019777896
44	0x39363b0d	0.0001737887
45	0x3d0f559e	0.03499376
46	0xbd7ea3b6	-0.062167846
47	0x3d52bd77	0.05145022
48	0x3d4e5a55	0.050379116
49	0xba87c492	-0.0010358265
50	0xbcfcf7f7	-0.030879958
51	0x3ce33d19	0.027739095
52	0x3c8eba08	0.017422691
53	0xba975960	-0.0011547022
54	0x3d42312f	0.047410186
55	0xbd262474	-0.04056211
56	0xbd569fec	-0.052398607
57	0x3d3af905	0.04564764
58	0xbc7c26bf	-0.015390097
59	0x3d421308	0.04738143
60	0xbd7e7f06	-0.062132858
61	0xbd4d4584	-0.050115123
62	0x3d76a0c8	0.060211927
63	0x3d2bd2fb	0.041949254
64	0x3d6ad2e1	0.057330016
65	0x3d35b996	0.04436644
66	0x3c346f5c	0.011012878
67	0xbcc24465	-0.023714254
68	0xbc5d09df	-0.013491123
69	0x3d6117b0	0.05495423
70	0x3c87b0f3	0.016563868
71	0xbd5f452a	-0.05450932
72	0x3d1f1ba6	0.038844727
73	0xbc9ef011	-0.019401582
74	0x3b1d3e35	0.0023993377
75	0x3d5d4692	0.05402238
76	0x3d45296e	0.048135214
77	0xbd0e2707	-0.034705188
78	0xbb3b5553	-0.0028584793
79	0xbc1ad7ac	-0.009450834
80	0x3d720b9b	0.0590931
81	0x3d2f03f7	0.04272839
82	0x3d7ab739	0.06120989
83	0x3d2c22f5	0.042025525
84	0xbbb750b8	-0.005594339
85	0x3d554468	0.05206719
86	0xbd13ef94	-0.03611715
87	0xbd36bdfb	-0.044614773
88	0x3cd77ca6	0.026304554
89	0xbd3f6943	-0.046731245
90	0x3c617946	0.013761824
91	0xbd686676	-0.05673834
92	0xbd28d8a1	-0.04122222
93	0x3d627d2e	0.055295162
94	0x3cf8162d	0.030284012
95	0xbd0f6eb1	-0.035017673
96	0x3cbd7a93	0.023129737
97	0x3ca89a73	0.02058146
98	0x3d34feaa	0.04418818
99	0x3c4ff74d	0.012693238
100	0x3d362394	0.044467524
101	0xbd317a4a	-0.043329515
102	0x3c8f6818	0.01750569
103	0x3c9dc165	0.019257257
104	0xbc956b5f	-0.018239675
105	0x3bd14e51	0.00638751
106	0x3c74fa80	0.014952302
107	0xbc503096	-0.012706896
108	0xbca6d15a	-0.020363498
109	0xbc100a4e	-0.008791519
110	0x3cde463c	0.0271331
111	0xbd2cdc79	-0.042202447
112	0x3c84a1f3	0.016190505
113	0x3cba4949	0.022740023
114	0x3ca6a154	0.0203406
115	0x3cef6ac9	0.029225724
116	0x3d7596f2	0.059958406
117	0x3bb873c5	0.005629035
118	0x3d286b4e	0.04111796
119	0x3cf0459d	0.02933007
120	0x3d0fd8a9	0.035118733
121	0x3d6559ec	0.05599396
122	0xbd698b00	-0.057017326
123	0x3d22e9ff	0.039773937
124	0xbd786238	-0.060640544
125	0xbd4bfbe1	-0.049800757
126	0x3d22e679	0.039770577
127	0x3c59f27b	0.013302441
