models/os_scan_model.pth (torch, 603101 bytes, 32 tensors)

encoder.0.weight f4 [256, 114]
0	0xbec166b4	-0.3777367
1	0xbe8493fd	-0.25894156
2	0x3e5e305c	0.21698135
3	0xbe7f5d2d	-0.24937887
4	0xbe3bfe68	-0.18358767
5	0xbb71aae7	-0.0036875547
6	0x3c2d38c3	0.010572615
7	0xbccb09f6	-0.024785023
8	0x3dc42d00	0.095788956
9	0xbc66e674	-0.01409303
10	0x3d1ee981	0.038796905
11	0xbd95215a	-0.07281752
12	0xbdd0ac17	-0.101890735
13	0xbe050df3	-0.12993602
14	0xbe30750d	-0.17232151
15	0xbea0dd4b	-0.31418833
16	0xbeac13c3	-0.33608827
17	0x3e9f4283	0.31105432
18	0xbe9fdc00	-0.31222534
19	0xbe9b492f	-0.30329272
20	0x393c3cdd	0.0001795175
21	0xbe085c1d	-0.13316388
22	0xbd3697a7	-0.04457822
23	0x3dcc43e2	0.09973885
24	0xbdf84fa4	-0.12124565
25	0x3b029548	0.0019925404
26	0xbcb7f002	-0.022453312
27	0x3d1771f0	0.036973894
28	0xbe0e452e	-0.13893577
29	0xbdad2392	-0.0845405
30	0xbebde97c	-0.37092197
31	0xbeab7866	-0.33490294
32	0x3e01845f	0.12648152
33	0xbefb080b	-0.49029574
34	0x3e61b00c	0.22039813
35	0xbd3f3542	-0.04668165
36	0x3d395cfe	0.0452547
37	0xbecf87c4	-0.40533268
38	0xbe20b8f8	-0.1569556
39	0x3da50bf5	0.08058921
40	0xbed48750	-0.41509485
41	0x3d83d1c0	0.06436491
42	0xbda0c382	-0.0784979
43	0xbd328929	-0.043587837
44	0xbd6c3283	-0.05766536
45	0xbe0fac10	-0.1403048
46	0x3d7433a9	0.05961958
47	0xbe8eddcd	-0.27903596
48	0x3c6c57ef	0.014425262
49	0x3c1e7cc4	0.009673301
50	0xbd857393	-0.06516185
51	0x3d622026	0.05520644
52	0xbdb62688	-0.08894068
53	0xbcb0c4d4	-0.02157823
54	0xbe282898	-0.16421735
55	0x3c89a437	0.016801937
56	0xbd33620a	-0.04379467
57	0xbd297608	-0.04137233
58	0xbc435844	-0.0119229
59	0x3acdf03d	0.0015711855
60	0x3c07df91	0.0082930485
61	0xbe7b2207	-0.24524699
62	0xbd11ac62	-0.035564788
63	0xbe0c4fcd	-0.13702317
64	0x3dba4449	0.090950556
65	0xbeb82f09	-0.35973385
66	0xbe704e27	-0.23467313
67	0xbe464d32	-0.19365385
68	0xbeadedfa	-0.33970624
69	0xbea34d20	-0.3189478
70	0xbcacb17a	-0.021080721
71	0xbdc1d05f	-0.09463572
72	0xbe9694f4	-0.29410517
73	0xbd2b92a1	-0.041887883
74	0xbd125050	-0.035721123
75	0xbe418ca5	-0.18901308
76	0xbdf8b77f	-0.12144374
77	0xbd1d5046	-0.038406633
78	0xbe24f076	-0.16107354
79	0xbe5764a9	-0.21034493
80	0xbe2f7fc0	-0.17138577
81	0xbe20e4aa	-0.15712228
82	0x3ea294fc	0.3175429
83	0xbeb2dfdc	-0.34936416
84	0x3eb0721e	0.34462065
85	0xbe49c24a	-0.19703022
86	0xbe9cfba8	-0.30660748
87	0xbe94602f	-0.28979632
88	0xbd7e98ed	-0.06215756
89	0x3e319435	0.17341693
90	0xbe4ee407	-0.20204173
91	0x3e656c82	0.22404674
92	0x3c83d776	0.01609395
93	0x3d87e304	0.06635097
94	0xbe2c5b99	-0.16831817
95	0x3deb623c	0.11493346
96	0x3e321de4	0.17394215
97	0xbe268a9e	-0.16263816
98	0x3d2f5f5f	0.042815562
99	0xbdadbaeb	-0.084829174
100	0xbd2a0ef8	-0.04151818
101	0x3d7aec36	0.061260425
102	0x3d771642	0.06032396
103	0x3e28f660	0.16500235
104	0xbd4a4b9a	-0.049388506
105	0x3c81d4b1	0.01584849
106	0xbe0799c7	-0.13242255
107	0xbd0226c3	-0.031775247
108	0x3d61d3a1	0.055133466
109	0x3da9449f	0.082650416
110	0x3dbdd0fb	0.092683755
111	0xbcf71e7c	-0.030165903
112	0x3dcf8dd2	0.10134472
113	0x3dba7567	0.09104424
114	0xbdb1797b	-0.08665749
115	0xbe849414	-0.25894225
116	0x3eb47c36	0.35251015
117	0xbe232362	-0.15931466
118	0x3d31ea4b	0.04343633
119	0x3e3980d6	0.18115553
120	0xbc46979b	-0.0121211065
121	0x3db70b48	0.089376986
122	0x3de9aa4c	0.11409435
123	0x3d527283	0.051378738
124	0x3da9b6e1	0.082868345
125	0x3e0035d7	0.12520538
126	0x3e4ca2de	0.19984004
127	0x3e09822e	0.13428566
128	0x3c02bd17	0.007979653
129	0xbda7e0b0	-0.081971526
130	0xbe4a4a02	-0.19754794
131	0x3ea8d49e	0.32974714
132	0xbe4c3edd	-0.19945855
133	0x3c49b2cf	0.012310698
134	0x3e172e81	0.14763834
135	0xbde1c3c4	-0.110236675
136	0x3db7dfe9	0.08978254
137	0x3e16e4d2	0.14735726
138	0xbd3c7f9f	-0.046020146
139	0x3de0eb7a	0.109824136
140	0x3d988ffe	0.07449339
141	0x3e680d53	0.22661333
142	0x3e43a0a3	0.19104247
143	0x3d4d86bf	0.050177332
144	0xbe197778	-0.1498698
145	0xbe6a6970	-0.22891784
146	0x3db2ef3b	0.08737036
147	0xbe8d9d51	-0.27659085
148	0x3ea4151f	0.32047364
149	0xbe74ae8b	-0.23894708
150	0xbe64cae3	-0.2234302
151	0xbe04263f	-0.12905215
152	0xbd2d8f5f	-0.042373057
153	0x3cbb5d8b	0.022871753
154	0xbd6c4fec	-0.057693407
155	0x3e4ecc50	0.20195127
156	0xbe20e7e6	-0.15713462
157	0xbdff45dc	-0.124644965
158	0xbdcd1a97	-0.10014837
159	0x3d9003cc	0.07031974
160	0x3d4240bc	0.047425017
161	0x3d89f533	0.06736221
162	0xbc94e10a	-0.018173713
163	0xbe631bb2	-0.22178534
164	0xbe1a7919	-0.15085258
165	0x3c6247fd	0.013811109
166	0x3da1a766	0.07893257
167	0x3dd61b23	0.10454395
168	0xbca9455b	-0.020662954
169	0x3dbf7f99	0.09350509
170	0xbe408f4a	-0.1880466
171	0xbe4de840	-0.20108128
172	0x3e522d14	0.20525008
173	0x3dda013e	0.10644768
174	0xbda83a79	-0.08214278
175	0x3d5f94b5	0.054585177
176	0xbbf5470c	-0.007485276
177	0xbe2b9f5b	-0.16760008
178	0xbe04343b	-0.1291055
179	0xbe048e16	-0.12944826
180	0xbe8fd815	-0.28094545
181	0xbe215c3b	-0.1575784
182	0xbdac3232	-0.084080115
183	0xbe878308	-0.26467156
184	0xbe3e9fdb	-0.18615668
185	0xbd8c67ec	-0.06855759
186	0xbe85c98a	-0.26130325
187	0xbe2c1c80	-0.16807747
188	0x3d41e8de	0.04734122
189	0xbe446780	-0.19180107
190	0xbdd030e3	-0.101655744
191	0x3e7c5258	0.24640787
192	0xbdb18a59	-0.08668966
193	0xbc37df11	-0.011222617
194	0x3d019091	0.03163201
195	0xbe7c8127	-0.24658643
196	0x3e706329	0.23475327
197	0xbd3818bf	-0.044945475
198	0x3edabb2b	0.42720923
199	0xbe24d7d1	-0.16097952
200	0xbdf407da	-0.1191556
201	0x3e7e61fe	0.24842069
202	0xbd99021c	-0.074711055
203	0xbd703401	-0.058643345
204	0x3d841d38	0.064508855
205	0x3e9c139b	0.30483708
206	0x3e03fb7e	0.12888905
207	0x3c5fe1a6	0.013664639
208	0x3e1c1bb9	0.1524495
209	0x3d8ebe23	0.069698595
210	0xbd0cbabb	-0.034357768
211	0x3e01af0f	0.12664436
212	0xbe2fe1f8	-0.17176044
213	0xbdb8a3ea	-0.09015639
214	0xbdcbacd1	-0.099450715
215	0x3da30d29	0.079614945
216	0x3ac77afa	0.0015219145
217	0x3d1b50ba	0.037918784
218	0x3de1620e	0.110050306
219	0x3d1273b3	0.03575487
220	0x3e59ab2c	0.21256703
221	0x3e228b82	0.1587353
222	0x3def7417	0.11692064
223	0x3dee3c63	0.116326116
224	0x3ce5f576	0.028071146
225	0x3e75c379	0.24000348
226	0xbd3da5e1	-0.046300773
227	0xbe8b8c76	-0.272556
228	0x3e043c88	0.12913716
229	0xbc1c2d3e	-0.009532271
230	0x3e693e85	0.22777756
231	0x3e8f98e0	0.28046322
232	0x3d304139	0.04303095
233	0x3d3c055c	0.04590355
234	0x3ec7a847	0.38995573
235	0x3e446b20	0.1918149
236	0xbd7f5e04	-0.06234552
237	0x3e5763f0	0.21034217
238	0x3e4268e9	0.18985333
239	0x3e63e9ca	0.22257152
240	0x3e4b4100	0.19849014
241	0x3e604d51	0.21904494
242	0x3e52d24d	0.20588036
243	0x3e17a80a	0.14810196
244	0xbdd71629	-0.105022736
245	0x3eaa72ec	0.33290803
246	0x3e814827	0.2525036
247	0x3e3357cc	0.1751396
248	0x3da11b3e	0.07866524
249	0x3e92e5d2	0.28690964
250	0x3e50ffbc	0.20410055
251	0x3d9f9fa0	0.07794118
252	0x3e7d8ee9	0.24761547
253	0x3e99e3d3	0.3005663
254	0x3de19bdc	0.11016056
255	0x3e050609	0.12990583

encoder.0.bias f4 [256]
0	0x3c41a6f0	0.011819586
1	0xbc9cd179	-0.019142853
2	0xbd2b77b7	-0.041862216
3	0x3d832f22	0.06405474
4	0x3e0d8870	0.13821578
5	0xbc9eb43a	-0.019373048
6	0xbe042f1f	-0.129086
7	0x3d5762a5	0.05258431
8	0x3d9d7e5c	0.07690117
9	0x3de00843	0.10939076
10	0x3caa574b	0.020793578
11	0x3da17ce9	0.07885153
12	0xbd2c50d8	-0.042069286
13	0x3d5f1864	0.05446662
14	0xbc8c69b0	-0.01714024
15	0xbd9ce25d	-0.07660363
16	0xbd9971e7	-0.07492428
17	0xbe6feb96	-0.23429713
18	0xbd7cb0e6	-0.06169214
19	0xbdf3ec98	-0.11910361
20	0x3c831303	0.016000276
21	0xbcdbd727	-0.026835991
22	0x3dab8037	0.083740644
23	0xbdd37b1c	-0.103262156
24	0xbdcb4616	-0.09925477
25	0x3de22e7f	0.11044025
26	0x3d3111b3	0.04322977
27	0xbda7381a	-0.081649974
28	0x3da25054	0.079254776
29	0x3d8a02fc	0.067388505
30	0xbdbfa971	-0.0935849
31	0xbdfb0e5c	-0.12258598
32	0xbbc7f0ee	-0.006101719
33	0x3dd68483	0.10474493
34	0x3d5c8af5	0.053843457
35	0x3b2e80e9	0.002662713
36	0xbd1b8beb	-0.037975233
37	0x3c81c0ba	0.01583897
38	0xbd1546e4	-0.03644456
39	0x3d60f306	0.054919265
40	0x3d715b83	0.058925163
41	0xbdb71457	-0.089394264
42	0xbd9814e6	-0.07425861
43	0xbd380d5d	-0.04493462
44	0xbd1bfab7	-0.038080897
45	0x3d1d64fe	0.03842639
46	0xbda66924	-0.08125523
47	0xbbecff41	-0.007232577
48	0x3d07207e	0.03298997
49	0xbd9fb82f	-0.07798802
50	0xbd95f29f	-0.07321667
51	0x3cc0b820	0.023525298
52	0x3d807049	0.06271417
53	0xbdc164a0	-0.09443021
54	0x3d512b13	0.05106647
55	0xbd2ba919	-0.04190931
56	0xbdc4bf3a	-0.09606786
57	0x3de145dd	0.109996535
58	0xbdd0deb5	-0.10198728
59	0x3b9cd7b3	0.0047864555
60	0xbdcc8c8b	-0.09987744
61	0x3da23f39	0.07922215
62	0xbdc23dff	-0.09484481
63	0xbd33b9fa	-0.043878533
64	0x3d49c60a	0.04926113
65	0xbc6245c3	-0.013810578
66	0x3c257ef8	0.0101010725
67	0x3cd5ae22	0.02608401
68	0xbd2f62b9	-0.04281876
69	0x3ca1ff62	0.019775096
70	0x3de5d6be	0.112225994
71	0x3d5b9fba	0.053619124
72	0xbc343efc	-0.011001345
73	0x3c33663a	0.010949666
74	0x3d0899da	0.03334985
75	0x3b5ebc20	0.0033986643
76	0x3d85b1cc	0.06528053
77	0xbd8623b0	-0.065497756
78	0xbd769046	-0.060196184
79	0x3ddcae53	0.10775437
80	0xbd26b4fa	-0.040699936
81	0xbd866b81	-0.065634735
82	0x3c89b746	0.016811024
83	0x3d9d7b0e	0.076894864
84	0x3d65e6cf	0.05612832
85	0xbe06d77d	-0.1316814
86	0xbdb9a175	-0.090639986
87	0xbbef4f84	-0.00730318
88	0xbcc36c6d	-0.023855412
89	0xbc92df29	-0.017928677
90	0x3b69afb5	0.0035657708
91	0xbd1ee313	-0.038790774
92	0xbe2d1f74	-0.1690653
93	0xbdd70086	-0.10498147
94	0x3d556375	0.052096803
95	0x3c33d8e8	0.010977007
96	0x3e2027c5	0.15640171
97	0xbd32c6f9	-0.043646786
98	0xbde5e6af	-0.1122564
99	0x3b6e0917	0.0036321336
100	0xbd48e8cf	-0.04905015
101	0x3d879870	0.06620872
102	0xbe020a11	-0.12699153
103	0x3d26c78d	0.04071765
104	0x3c661401	0.014042855
105	0xbcbcde15	-0.023055116
106	0x3b55dac8	0.0032631624
107	0xbe024858	-0.1272291
108	0x3d22e756	0.0397714
109	0xbd5fbf62	-0.054625876
110	0x3dd9feae	0.106442794
111	0x3ac45121	0.0014977792
112	0xbd991167	-0.07474022
113	0xbc4fdf95	-0.012687583
114	0x3d7089be	0.05872511
115	0xbd8828ca	-0.06648405
116	0x3ae6d136	0.0017609957
117	0xbdd0d88e	-0.101975545
118	0xbd8a3185	-0.06747726
119	0x3db3fecc	0.08788833
120	0x3b38aadd	0.0028178014
121	0x3d0cf349	0.034411702
122	0xbea004bf	-0.3125362
123	0xbdaefc2e	-0.08544193
124	0xbe2107c1	-0.15725614
125	0xbcb07a23	-0.021542614
126	0x3b0a8494	0.0021136152
127	0xbce6e032	-0.028183077
128	0x3d2dcbde	0.04243075
129	0xbca0ea72	-0.019643042
130	0x3d8f92f1	0.07010449
131	0x3daf08f1	0.08546627
132	0x3da5e389	0.081000395
133	0x3d318ac4	0.043345228
134	0xbdbe723f	-0.092991345
135	0xbcc7cded	-0.024390185
136	0xbe155f52	-0.14587143
137	0x3ddea7db	0.1087186
138	0x3d51326a	0.05107347
139	0x3d1af05f	0.037826892
140	0xbdb38b0a	-0.08766754
141	0xbe137ac6	-0.14402303
142	0x3d1d04f0	0.038334787
143	0x3d756626	0.05991187
144	0xbdb7c4cc	-0.08973083
145	0x3dad214d	0.08453617
146	0x3bb3369c	0.0054691564
147	0xbd54b1e1	-0.05192745
148	0x3c721b9c	0.01477709
149	0xbde42593	-0.11139979
150	0xbd5e556f	-0.054280695
151	0xbda67711	-0.08128179
152	0x3c26e12b	0.01018552
153	0x3ced4a33	0.028966045
154	0x3d3fcc95	0.046825964
155	0xbcef2860	-0.029194057
156	0xbd9669b1	-0.07344378
157	0xbdd40a46	-0.10353522
158	0x3d4243dc	0.047427997
159	0xbd538532	-0.051640697
160	0xbd794e57	-0.060865726
161	0xbda4a1e2	-0.08038689
162	0xbd90850c	-0.07056627
163	0xbd88a84a	-0.066727236
164	0xbd602a91	-0.054728094
165	0x3d61794e	0.055047326
166	0x3d7ac8de	0.061226718
167	0x3bef006f	0.007293753
168	0x3cd9fd7c	0.026610129
169	0xbcdb0643	-0.026736384
170	0x3d62987c	0.0553212
171	0x3ddbaff4	0.1072692
172	0xbd88b512	-0.066751614
173	0x3d567f6f	0.052367624
174	0xbd31d231	-0.043413345
175	0x3be5e880	0.0070162416
176	0xbd0d12bd	-0.0344417
177	0xbd29a44c	-0.04141645
178	0x3c8513fe	0.016244885
179	0x3de191a1	0.11014105
180	0x3d1ef604	0.038808838
181	0x3cb253a7	0.021768404
182	0x3d5ede20	0.054411054
183	0xbd7c2dba	-0.061567046
184	0x3d0be47d	0.03415345
185	0xbd6f1dd6	-0.058378063
186	0xbdd239ac	-0.10264906
187	0x3b7f32c4	0.003894017
188	0xbd092985	-0.03348686
189	0x3de6202d	0.11236606
190	0x3d7fb7c8	0.062431127
191	0xbd2b80ed	-0.041871
192	0xbe0a5a15	-0.13510926
193	0xbd38318c	-0.044969127
194	0xbc3cf1bc	-0.011532243
195	0x3c876479	0.016527401
196	0xbe21199e	-0.15732428
197	0xbdec25df	-0.11530661
198	0x3c8bf0c5	0.017082581
199	0x3d8a880e	0.067642316
200	0x3c9178f8	0.017757878
201	0xbdc09ee6	-0.094053075
202	0x3cfa9481	0.03058839
203	0xbde75a63	-0.11296537
204	0x3c972845	0.01845182
205	0x3ba678d8	0.0050803237
206	0x3d70fa1f	0.058832284
207	0x3e18748c	0.14888209
208	0xbd747bb9	-0.059688304
209	0xbe090ddc	-0.13384193
210	0x3bc2c2f6	0.0059436513
211	0x3c0aa1e0	0.008461446
212	0xbd30c424	-0.043155804
213	0xbbb797ad	-0.005602798
214	0xbe1bd6c8	-0.15218651
215	0xbdb8448f	-0.089974515
216	0x3dc9086d	0.0981606
217	0x3e19dbf9	0.15025319
218	0x3cc9988a	0.02460887
219	0x3ce45293	0.027871406
220	0x3d23633f	0.03988957
221	0xbd5c6f36	-0.053816997
222	0x3c9e3527	0.019312454
223	0xbdb8a46a	-0.090157345
224	0xbd91fe67	-0.071286015
225	0x3dc985a5	0.09839944
226	0x3cd67e75	0.026183346
227	0x3d11cc06	0.035594963
228	0xbd3f640f	-0.046726283
229	0x3dd2070e	0.10255252
230	0x3c8d9817	0.017284436
231	0xbd415556	-0.047200523
232	0xbd9247d3	-0.07142606
233	0xbd967f52	-0.07348503
234	0xbbfe55d4	-0.0077616964
235	0xbd7f4a57	-0.062326755
236	0xbdc05338	-0.09390873
237	0xbded5add	-0.115895964
238	0x3cf43137	0.029808624
239	0xbdac9c7a	-0.08428283
240	0x3d10d2e8	0.035357386
241	0x3d228e5e	0.039686553
242	0x3bdf3b48	0.006812487
243	0x3d5e065a	0.054205276
244	0xbcfa4464	-0.03055019
245	0xbd8a061d	-0.06739447
246	0xbd9cb137	-0.076509885
247	0x3db995f5	0.09061805
248	0xbd8aad31	-0.06771315
249	0x3d644a00	0.055734634
250	0xbde8e54a	-0.113718584
251	0xbacdcfd8	-0.0015702201
252	0xbd491346	-0.049090646
253	0x3dd97648	0.106182635
254	0x3e2d6ac5	0.1693526
255	0xbd07b7ad	-0.03313415

encoder.1.weight f4 [256]
0	0x3f86bacb	1.0525755
1	0x3f685909	0.90760857
2	0x3f9e7211	1.237856
3	0x3f71474d	0.9424942
4	0x3f85f006	1.0463874
5	0x3f13a8e9	0.5767961
6	0x3f6aa094	0.9165127
7	0x3f75d287	0.96024364
8	0x3f54a7f0	0.8306875
9	0x3f5116b8	0.8167529
10	0x3f47568c	0.77866435
11	0x3f9592d5	1.1685435
12	0x3f40453c	0.75105643
13	0x3f831ced	1.0243202
14	0x3f35893d	0.70912534
15	0x3f0dbce8	0.55366373
16	0x3f77abdd	0.9674662
17	0x3f7a995d	0.97890264
18	0x3f5b363e	0.8562964
19	0x3f67a4f3	0.9048607
20	0x3f80fffc	1.007812
21	0x3f757b5a	0.95891345
22	0x3fa9cd28	1.3265734
23	0x3fb30213	1.3985008
24	0x3f5bfd77	0.8593363
25	0x3f948705	1.1603705
26	0x3f6cd79b	0.9251649
27	0x3f47129a	0.7776276
28	0x3f7591e2	0.95925725
29	0x3f3ebd8f	0.74507993
30	0x3f8c5022	1.0961955
31	0x3f43f1a7	0.7654061
32	0x3f9041de	1.1270101
33	0x3f91dfa4	1.1396375
34	0x3f890bbb	1.0706705
35	0x3f88d744	1.0690694
36	0x3f9078d1	1.128687
37	0x3f895230	1.0728207
38	0x3f9c6a01	1.221985
39	0x3f5d7d25	0.8651908
40	0x3f32eac8	0.698895
41	0x3fa120d4	1.2588143
42	0x3ef3578e	0.47527736
43	0x3f4dd0d1	0.80396754
44	0x3f660f4d	0.898671
45	0x3f5f99a8	0.87343836
46	0x3f5c1810	0.85974216
47	0x3f970285	1.1797644
48	0x3f674add	0.9034861
49	0x3f3d80d5	0.7402471
50	0x3f6da3c2	0.92828
51	0x3f5b9b13	0.857835
52	0x3f2896a1	0.6585484
53	0x3f6855c7	0.90755886
54	0x3f70355c	0.9383142
55	0x3f757a4d	0.9588974
56	0x3f636c9c	0.888376
57	0x3f77d450	0.9680834
58	0x3f8a081c	1.0783725
59	0x3f3db30c	0.7410133
60	0x3f4b188c	0.7933433
61	0x3f98c859	1.1936141
62	0x3f68b473	0.90900344
63	0x3f95b981	1.1697236
64	0x3f7a1d56	0.97701013
65	0x3f59ff09	0.8515478
66	0x3f8efcee	1.1170938
67	0x3f5405c0	0.82821274
68	0x3f4b2132	0.7934753
69	0x3f7ed791	0.9954768
70	0x3f9508a5	1.1643263
71	0x3f777338	0.96660185
72	0x3fa43449	1.2828456
73	0x3f73661a	0.9507767
74	0x3f970bf4	1.1800523
75	0x3f939c43	1.1532062
76	0x3f64cb87	0.8937306
77	0x3f577828	0.8416772
78	0x3f5c26ba	0.8599659
79	0x3fa4aedd	1.2865864
80	0x3f4f5100	0.8098297
81	0x3f8ca8ef	1.0989054
82	0x3f7fd471	0.99933535
83	0x3f708356	0.939504
84	0x3f810bd6	1.0081737
85	0x3f8dcadc	1.1077533
86	0x3f72b65d	0.94809514
87	0x3f8b98fb	1.0906061
88	0x3f61f838	0.88269377
89	0x3f7235e4	0.9461348
90	0x3f7f6d38	0.9977603
91	0x3f50a32e	0.8149899
92	0x3fb36ea2	1.4018137
93	0x3f41425f	0.754919
94	0x3f840e58	1.0316877
95	0x3f35acdf	0.70966905
96	0x3f48d6c6	0.7845272
97	0x3f47c51f	0.7803516
98	0x3f3efeec	0.7460773
99	0x3f66d5cf	0.90169996
100	0x3f8608d6	1.0471447
101	0x3f456278	0.77103376
102	0x3f866446	1.0499351
103	0x3f4b67a1	0.79455
104	0x3f6e74ca	0.93146956
105	0x3f8d022b	1.1016287
106	0x3f80d097	1.0063657
107	0x3f550e66	0.83225095
108	0x3f709b05	0.9398654
109	0x3f5ac854	0.85461926
110	0x3f76d00e	0.96411216
111	0x3f754dab	0.95821637
112	0x3f5d429a	0.8642975
113	0x3f60cf9d	0.8781679
114	0x3f819c05	1.0125738
115	0x3f8bba8c	1.0916305
116	0x3f702d38	0.93819
117	0x3f831934	1.0242066
118	0x3f6e8e71	0.931861
119	0x3f70129a	0.93778384
120	0x3f5f1a9b	0.8714997
121	0x3f582294	0.8442776
122	0x3f7d0b76	0.98845613
123	0x3fa834bb	1.3141092
124	0x3f8ccd07	1.1000069
125	0x3f545d4c	0.8295486
126	0x3f970c83	1.1800693
127	0x3f739bea	0.9515978
128	0x3f40d3a8	0.7532296
129	0x3f7d50e5	0.9895156
130	0x3f9e4892	1.2365897
131	0x3f8aed4b	1.0853666
132	0x3f88caa0	1.0686836
133	0x3fb24955	1.3928629
134	0x3f592d2e	0.84834564
135	0x3f82c6b3	1.0216888
136	0x3f57e966	0.8434051
137	0x3f9db2bc	1.232017
138	0x3f7ecfca	0.9953581
139	0x3f4fb91f	0.8114185
140	0x3f87156f	1.0553416
141	0x3f4d4240	0.80179214
142	0x3f504e59	0.8136955
143	0x3f8b0ee8	1.0863924
144	0x3f82a14d	1.0205475
145	0x3f4fd7e9	0.8118883
146	0x3f9aa7b4	1.2082429
147	0x3f941247	1.1568078
148	0x3f6f6dd1	0.9352694
149	0x3f63736b	0.8884799
150	0x3fa1a40d	1.2628189
151	0x3f49cd04	0.78828454
152	0x3f5761d3	0.8413364
153	0x3f62b6e7	0.88560337
154	0x3f701f75	0.93798
155	0x3f7c24cf	0.98493665
156	0x3f8620d5	1.047877
157	0x3f59beb9	0.85056645
158	0x3f297117	0.66188186
159	0x3f649cc6	0.8930172
160	0x3f349cbf	0.70551676
161	0x3f1d0f50	0.6135149
162	0x3f7c73ed	0.9861439
163	0x3f8a4eae	1.0805261
164	0x3f9a5481	1.2057039
165	0x3f879ab5	1.0594088
166	0x3f9bed8f	1.2181872
167	0x3f90527a	1.127517
168	0x3f8e4042	1.111336
169	0x3f920c60	1.1410027
170	0x3faf866f	1.3712901
171	0x3f8dcece	1.1078737
172	0x3f9ccd33	1.2250122
173	0x3f8b2e26	1.0873458
174	0x3f851108	1.0395823
175	0x3f85cad8	1.0452528
176	0x3f8319a6	1.0242202
177	0x3f95cf4e	1.1703889
178	0x3f602c66	0.87567747
179	0x3f5e1895	0.8675626
180	0x3f89e686	1.0773475
181	0x3f60656e	0.8765477
182	0x3f766977	0.96254677
183	0x3f930b7b	1.1487879
184	0x3f42b7eb	0.76061887
185	0x3f78e61c	0.9722612
186	0x3f5fec42	0.87469876
187	0x3f429627	0.76010364
188	0x3f41a015	0.7563489
189	0x3f662889	0.899056
190	0x3f78ccad	0.9718731
191	0x3fb70ea1	1.4301339
192	0x3f8196c9	1.0124141
193	0x3f82460e	1.0177629
194	0x3f8589f3	1.0432724
195	0x3f74371b	0.95396584
196	0x3f726790	0.94689274
197	0x3f632333	0.88725585
198	0x3fa33dea	1.275327
199	0x3f8551f0	1.041563
200	0x3f9ad0d0	1.2094975
201	0x3f293c2b	0.66107434
202	0x3f886c67	1.0658082
203	0x3f9d92cf	1.2310427
204	0x3f77fcf2	0.9687034
205	0x3f657480	0.8963089
206	0x3f6c11e3	0.9221479
207	0x3f9466ca	1.1593869
208	0x3f68c8a0	0.9093113
209	0x3f584f9f	0.8449649
210	0x3f514332	0.81743157
211	0x3f784346	0.9697765
212	0x3f6513b4	0.8948319
213	0x3f866d1c	1.0502048
214	0x3f9b288c	1.2121749
215	0x3f5fd6db	0.8743722
216	0x3f60a277	0.877479
217	0x3f6a1aca	0.91447127
218	0x3f726e34	0.94699407
219	0x3f4d3e83	0.8017351
220	0x3f9da683	1.231644
221	0x3f6f4af4	0.93473744
222	0x3f4af888	0.7928548
223	0x3f2d4383	0.6768114
224	0x3f9c6d4a	1.2220852
225	0x3fa14cfc	1.2601619
226	0x3f190a16	0.59781015
227	0x3f6bdd77	0.92134804
228	0x3f649034	0.89282537
229	0x3f748645	0.9551738
230	0x3f74c253	0.95609015
231	0x3f4f8b84	0.8107226
232	0x3f94c428	1.1622362
233	0x3f5c8935	0.8614686
234	0x3f72ba9b	0.9481599
235	0x3f582f55	0.8444722
236	0x3f6a3d8a	0.9150015
237	0x3f83a8c5	1.0285879
238	0x3f62c188	0.88576555
239	0x3f728281	0.94730383
240	0x3f3f1fb9	0.7465778
241	0x3f815f92	1.0107291
242	0x3fa0e2f2	1.2569258
243	0x3f7813fe	0.96905506
244	0x3f78c3cc	0.9717376
245	0x3f7ecdcc	0.9953277
246	0x3f8086e0	1.004116
247	0x3f78f06e	0.97241867
248	0x3f80ddd9	1.0067703
249	0x3f807eac	1.0038657
250	0x3f449838	0.7679477
251	0x3f441c52	0.76605713
252	0x3f66f950	0.9022417
253	0x3f8458fc	1.0339656
254	0x3f7ba572	0.98299325
255	0x3f815510	1.0104084

encoder.1.bias f4 [256]
0	0xbf004a6b	-0.5011355
1	0xbf21aa4f	-0.63150495
2	0xbea88fb9	-0.32922152
3	0x3e5c0c70	0.2148912
4	0x3c5525f0	0.013009533
5	0xbe756402	-0.23963931
6	0xbf0a21fb	-0.539581
7	0x3e5f8edc	0.2183184
8	0x3e8891b9	0.26673678
9	0xbf5a01a0	-0.8515873
10	0xbf04bfb1	-0.51855
11	0xbf456888	-0.7711263
12	0xbec52fae	-0.3851294
13	0xbceec22d	-0.029145325
14	0x3e930100	0.287117
15	0x3e5b5a87	0.21421252
16	0xbf0cbc6b	-0.54975003
17	0xbf526be7	-0.82195896
18	0xbc68c3dc	-0.014206853
19	0xbec92b48	-0.39290833
20	0xbe77a4ee	-0.2418401
21	0xbf2268d9	-0.63441235
22	0xbe503dd1	-0.20336081
23	0xbe6e26a0	-0.23256922
24	0x3e2c8e91	0.1685126
25	0x3d9177e1	0.07102943
26	0xbf18f3d0	-0.5974703
27	0x3d7519f1	0.059839193
28	0x3e8fe46b	0.28103957
29	0x3d3e25f1	0.046422902
30	0x3db68112	0.08911337
31	0x3e39af59	0.18133296
32	0xbe9258fa	-0.2858351
33	0xbed7851b	-0.4209374
34	0x3e03d7eb	0.12875335
35	0x3e37ad0c	0.17937106
36	0xbf0bbe00	-0.5458679
37	0x3e2c2381	0.16810419
38	0x3e828f4f	0.2549996
39	0x3d76f146	0.06028869
40	0xbed95f5e	-0.42455572
41	0xbf5037fb	-0.8133542
42	0x3e1eaab1	0.15494801
43	0x3f0437d4	0.51647687
44	0x3dc2ce64	0.09512022
45	0xbb1f2989	-0.0024286231
46	0x3b5e1e7e	0.0033892686
47	0x3d06ca44	0.03290774
48	0xbee013cc	-0.43765104
49	0xbde31cf3	-0.11089506
50	0xbec5569a	-0.38542634
51	0xbf61e45c	-0.88239074
52	0x3eb86448	0.3601401
53	0x3ec9c716	0.39409703
54	0xbd74062c	-0.0595762
55	0xbe65bfa5	-0.22436388
56	0xbf217be5	-0.63079673
57	0xbea6f871	-0.3261142
58	0x3c3d647d	0.011559603
59	0x3e06d6e7	0.13167916
60	0xbe86cecb	-0.26329646
61	0xbdc58161	-0.09643818
62	0xbe51b311	-0.20478465
63	0x3d82f248	0.06393868
64	0xbe416f05	-0.18890007
65	0x3eb861d2	0.3601213
66	0x3e164079	0.14673032
67	0x3ee8c7e2	0.45464998
68	0x3e0288f7	0.1274756
69	0xbdd3b94b	-0.10338076
70	0xbe381167	-0.17975388
71	0x3e21c607	0.15798198
72	0xbeb34cd6	-0.3501956
73	0xbd98f9e8	-0.07469541
74	0xbda2edae	-0.0795549
75	0xbe80ace4	-0.25131905
76	0xbe4d64b7	-0.20057951
77	0x3e999918	0.29999614
78	0x3e2f153a	0.17097941
79	0x3e4be091	0.19909884
80	0xbe1e1a30	-0.15439677
81	0x3e4c7d30	0.1996963
82	0x3e52d5ba	0.20589343
83	0xbec56263	-0.38551626
84	0xbebae3ea	-0.3650201
85	0xbedfcd26	-0.43711203
86	0xbd015344	-0.03157355
87	0xbf0082cd	-0.50199586
88	0xbe454fcb	-0.1926872
89	0xbc7171e2	-0.014736624
90	0xbe0ea7ce	-0.139312
91	0x3ce66fc7	0.028129471
92	0xbf2d53b3	-0.6770584
93	0x3c102018	0.008796714
94	0xbec241ab	-0.37940726
95	0x3da33054	0.07968202
96	0xbda34d9c	-0.07973787
97	0x3cbbf410	0.022943527
98	0x3d206753	0.039161038
99	0x3b6068b5	0.0034242098
100	0xbf1048a4	-0.5636084
101	0xbe16cc51	-0.14726378
102	0x3daf9ff4	0.085754305
103	0x3d3ac0c4	0.045593992
104	0xbf47cc2b	-0.7804591
105	0x3e5c8be4	0.21537739
106	0xbea2b8c5	-0.31781593
107	0xbe09dfe4	-0.13464314
108	0xbdf532d2	-0.11972584
109	0x3f15901a	0.58423007
110	0x3e28067c	0.16408724
111	0xbe310938	-0.17288673
112	0x3d73a552	0.059483834
113	0x3e7b40e6	0.24536476
114	0x3da79ab0	0.08183801
115	0x3e86842c	0.26272714
116	0xbb90b76c	-0.004416397
117	0x3e44d4d5	0.19221814
118	0x3e82bac4	0.25533116
119	0x3e560cbc	0.20903295
120	0xbd67c811	-0.056587283
121	0x3e057747	0.13033782
122	0xbf0d2fd1	-0.5515109
123	0xbdbe3f05	-0.09289364
124	0xbf6b0b86	-0.9181446
125	0x3e0b46be	0.13601205
126	0x3dd06aec	0.10176644
127	0x3d34106d	0.043960977
128	0x3e01b954	0.12668353
129	0x3dac5a4c	0.0841566
130	0x3e8d1a8b	0.27559313
131	0x3df43746	0.11924605
132	0xbeb8ef40	-0.36120033
133	0x3e656c9c	0.22404712
134	0xbf2f3df2	-0.68453896
135	0xbf0a64fa	-0.5406033
136	0xbec24511	-0.37943318
137	0x3e8cf00c	0.2752689
138	0x3d6fac21	0.058513764
139	0xbe52057d	-0.20509906
140	0xbece055e	-0.4023847
141	0xbe22817b	-0.15869705
142	0xbe46ec90	-0.19426179
143	0xbec4c169	-0.3842881
144	0x3d269163	0.040665995
145	0xbdd40473	-0.10352411
146	0x3dce7d69	0.10082514
147	0xbed78c48	-0.42099214
148	0x3c865385	0.016397247
149	0xbd799985	-0.060937423
150	0xbcb578bd	-0.022152299
151	0xbc99c486	-0.018770467
152	0x3e220758	0.15823114
153	0x3e1919b5	0.14951213
154	0xbf083be6	-0.532164
155	0x3e99d3a5	0.30044284
156	0x3dcd6f75	0.10031024
157	0x3e7b97ff	0.245697
158	0xbee9e6f8	-0.45684028
159	0x3e828bc3	0.25497255
160	0xbe817797	-0.25286552
161	0x3e0de71a	0.1385769
162	0xbeb48c01	-0.35263065
163	0xbed5488d	-0.41656914
164	0xbe6e5c74	-0.23277456
165	0xbe935a20	-0.28779697
166	0xbcab4f08	-0.020911708
167	0xbe91cbd8	-0.28475833
168	0xbf3bbdbf	-0.73336405
169	0xbee603f0	-0.4492488
170	0x3e9a6120	0.30152225
171	0xbef25e9e	-0.47337812
172	0xbebc48f3	-0.36774406
173	0xbd0986aa	-0.03357569
174	0x3e4e9a00	0.20175934
175	0x3e450525	0.19240244
176	0x3d3c847d	0.04602479
177	0x3d6abf8f	0.05731159
178	0xbeb838f1	-0.35980943
179	0x3e74b907	0.23898707
180	0xbb913f7b	-0.0044326163
181	0xbe11c854	-0.14236575
182	0x3d2ca040	0.042145014
183	0x3e23a6b2	0.15981558
184	0xbf53bb81	-0.82707983
185	0xbd8d5a0a	-0.06901939
186	0xbf73f909	-0.9530187
187	0xbd8a2d23	-0.067468904
188	0x3c4228e2	0.011850568
189	0xbe6ec48b	-0.23317163
190	0x3e6fcfd0	0.23419118
191	0x3e591aeb	0.21201675
192	0xbf23c5b6	-0.6397356
193	0xbe0df16f	-0.13861631
194	0x3ce4bc4d	0.02792182
195	0xbe2d4daf	-0.16924165
196	0xbf29af9e	-0.66283596
197	0xbd96fe0e	-0.07372676
198	0x3ea7234e	0.32644123
199	0xbf168516	-0.58796823
200	0x3d1b262e	0.037878208
201	0x3ea1be9b	0.31590733
202	0xbf4b4ab3	-0.79410857
203	0x3d48ea86	0.049051784
204	0xbf05c066	-0.522467
205	0xbe898646	-0.26860255
206	0xbdc9d988	-0.09855944
207	0x3c75977e	0.014989732
208	0xbedcd016	-0.43127507
209	0xbdb646ff	-0.0890026
210	0xbed85cf1	-0.4225841
211	0xbdf1c282	-0.118046775
212	0xbcab6984	-0.020924337
213	0x3e57695c	0.21036285
214	0xbe141306	-0.14460382
215	0x3e4115c0	0.18855953
216	0xbed6d103	-0.41956338
217	0xbea54716	-0.32280797
218	0xbebfa931	-0.3743377
219	0xbcc263a6	-0.023729157
220	0xbf06df0e	-0.52684104
221	0xbea36f31	-0.3192077
222	0x3ec50141	0.3847752
223	0x3e54dddb	0.20787756
224	0x3cba8bc1	0.022771718
225	0xbf540e3d	-0.82834226
226	0xbc7bf199	-0.015377426
227	0x3e9b2df6	0.30308503
228	0x3e7dfe49	0.24804033
229	0x3e768ed8	0.24077928
230	0xbf2faafb	-0.6862027
231	0xbe99a198	-0.300061
232	0xbf15809b	-0.5839936
233	0x3e0eb41c	0.13935894
234	0x3d5f70dd	0.054550994
235	0x3e0522a3	0.13001494
236	0xbebddd95	-0.37083116
237	0x3eaca25d	0.33717623
238	0x3e73aa5e	0.23795459
239	0xbe72c22c	-0.23706883
240	0xbe4f9709	-0.20272459
241	0x3e30b69a	0.17257157
242	0xbf659d9f	-0.89693636
243	0xbeaa6e9c	-0.33287513
244	0x3e832737	0.25615856
245	0xbdb199d9	-0.08671922
246	0xbeb03279	-0.34413508
247	0x3e52ec73	0.2059801
248	0x3db0b467	0.08628159
249	0x3c3525cf	0.011056378
250	0xbe0efea8	-0.13964331
251	0x3ef84de3	0.48496923
252	0x3e304f0a	0.17217651
253	0x3d970e6c	0.07375798
254	0xbedbaff3	-0.42907676
255	0xbc8d70bd	-0.017265672

encoder.1.running_mean f4 [256]
0	0xc072f62d	-3.7962754
1	0x400f6909	2.2407858
2	0x4084dd3e	4.152007
3	0x3d095db8	0.033536643
4	0x3f1dfeed	0.6171711
5	0x4067aee0	3.6200485
6	0x404aa2f9	3.166197
7	0x3f79724e	0.9744004
8	0x3f7c84cb	0.98640126
9	0x403ae07a	2.919951
10	0xc0722e15	-3.7840626
11	0xc05e4a93	-3.4733016
12	0xc006db02	-2.1071172
13	0x40cc14a0	6.3775177
14	0x4029a23b	2.6505268
15	0xc06b24b8	-3.6741161
16	0x40ab0b2c	5.3451138
17	0xc00915da	-2.1419587
18	0xc00069cf	-2.006458
19	0x3f5096f8	0.8148036
20	0x4032b80b	2.792483
21	0x40643514	3.5657396
22	0x401864e2	2.3811574
23	0xbfcf7fe1	-1.62109
24	0x3fef0521	1.867344
25	0x4013408a	2.3008142
26	0x3fafe065	1.3740355
27	0xbe60f681	-0.21969034
28	0xbe6cbdaf	-0.23119234
29	0xbff21cb4	-1.891501
30	0xc000d26e	-2.0128436
31	0x3f3e345b	0.7429864
32	0xc099a4ce	-4.8013678
33	0xbfc63661	-1.5485345
34	0xbf436a28	-0.76333857
35	0x3fc85d3d	1.5653454
36	0xc0352c83	-2.8308418
37	0xbfade65b	-1.3585924
38	0x3f6da961	0.92836577
39	0xc0b394f8	-5.6119347
40	0xbe3aaa96	-0.18229136
41	0xc0213cae	-2.5193286
42	0x40042d96	2.0652823
43	0xbfe2a08a	-1.7705243
44	0x3f208769	0.6270662
45	0x40b4a4de	5.6451254
46	0x403cc3bb	2.9494464
47	0xc03bbd9f	-2.9334486
48	0x404903df	3.1408613
49	0xc020849d	-2.508094
50	0x4085626c	4.1682644
51	0x3f5afff4	0.85546803
52	0xbe99bd84	-0.300274
53	0xbf9bf71a	-1.2184784
54	0x40bf5bf7	5.979976
55	0xc04ba633	-3.182019
56	0x4098d803	4.7763686
57	0xc00f757e	-2.2415462
58	0x40af3ed8	5.4764214
59	0x3fc60c71	1.5472547
60	0xc0020266	-2.0313964
61	0xbeb5bd20	-0.35495853
62	0xbfd3f553	-1.6559242
63	0xc06a834e	-3.6642642
64	0x40c16bad	6.044394
65	0x40f94c16	7.790538
66	0xbfbff290	-1.4995899
67	0x405726d0	3.361744
68	0x3e93e810	0.28887987
69	0xc0029cf9	-2.0408309
70	0x407fc9f9	3.9967024
71	0xc024269f	-2.5648572
72	0x3ed6dac8	0.41963792
73	0x3fad7869	1.3552371
74	0xc0821a0e	-4.0656805
75	0x3ff029c2	1.8762743
76	0x3eef8a43	0.46785173
77	0xbe5f4605	-0.21804054
78	0xc010ede1	-2.264519
79	0xc00d424a	-2.207171
80	0xbfe624e5	-1.7980009
81	0xc0338ef0	-2.8055992
82	0x403259ab	2.786723
83	0x407d4e30	3.9578972
84	0xc08fbc40	-4.4917297
85	0xbfb4769d	-1.4098698
86	0xc0bf446c	-5.9771023
87	0xc01eab72	-2.4792142
88	0x40135308	2.3019428
89	0x3f537abb	0.82609147
90	0xc0776fd7	-3.8662012
91	0xc00edf1f	-2.2323682
92	0xc033e01c	-2.8105536
93	0xbfd3c6e8	-1.6545076
94	0x40195e62	2.3963857
95	0xbfa51767	-1.2897767
96	0x40515dad	3.2713425
97	0x409d8591	4.9225545
98	0xc07c7f49	-3.9452689
99	0xc0808f70	-4.0175095
100	0xbe156706	-0.14590082
101	0x40444584	3.066743
102	0x407fc323	3.9962852
103	0x401452ac	2.317546
104	0xbfaa7152	-1.3315833
105	0xc00dad54	-2.213704
106	0x4005ac37	2.0886362
107	0x3fe263a8	1.7686663
108	0xc018758e	-2.382175
109	0x40514977	3.270109
110	0xbfd3f4e6	-1.6559112
111	0x4083f0a3	4.1231246
112	0x3e7751d5	0.2415231
113	0x3f2001bd	0.6250265
114	0x400eeb5d	2.2331154
115	0x3f60201c	0.87548995
116	0x40af7f9f	5.4843287
117	0xbfbc6d32	-1.4720824
118	0x3f7409f4	0.9532769
119	0xc029d35d	-2.6535256
120	0xbf441fbd	-0.7661093
121	0x3fa3e8d6	1.2805431
122	0xbfe39eb8	-1.7782812
123	0x3f87a045	1.0595785
124	0xc03d662e	-2.9593616
125	0x407f08ed	3.9849198
126	0xbf927aaf	-1.144369
127	0xc06a7c3e	-3.6638331
128	0x3f8e238f	1.1104602
129	0x408b2496	4.348216
130	0xc00c9233	-2.1964233
131	0x3fdd3985	1.7283179
132	0xc091974c	-4.549719
133	0xc0523247	-3.2843187
134	0xc00f0ab0	-2.2350273
135	0x3f5f55a6	0.87240064
136	0x40493bd5	3.1442769
137	0x400c53f6	2.1926246
138	0xbe6cadab	-0.23113124
139	0x40618218	3.5235653
140	0xc020bf10	-2.5116615
141	0x40968476	4.7036695
142	0xc01483fa	-2.3205552
143	0xc0269edd	-2.6034462
144	0x40468b7f	3.1022642
145	0x3f9cd745	1.2253195
146	0x4039a3b5	2.900617
147	0x40384c24	2.8796473
148	0x3f886349	1.06553
149	0x40825c4a	4.0737658
150	0xc03fc833	-2.9965942
151	0x3f20d97c	0.62831855
152	0xbfbfaf67	-1.4975404
153	0x3f830b48	1.0237818
154	0x3dadd736	0.08488314
155	0x3fc3ec58	1.5306501
156	0x403f15dd	2.9857094
157	0x40179971	2.3687403
158	0xc0b53d4f	-5.663734
159	0xbf40a10a	-0.75245726
160	0x40a70497	5.2193103
161	0x400c02be	2.1876674
162	0xbe80f994	-0.25190413
163	0xc08fe390	-4.4965286
164	0xc05391f9	-3.3057845
165	0x40035821	2.052254
166	0xbff806bf	-1.9377059
167	0x40342397	2.8146722
168	0xc0b837e1	-5.756821
169	0x4024d109	2.5752585
170	0xc09b56e7	-4.854358
171	0xc064fea1	-3.5780413
172	0xc051ba6a	-3.2770028
173	0xc0409b86	-3.0094924
174	0x3f842aaf	1.0325526
175	0x3fd76733	1.6828369
176	0x40009006	2.0087905
177	0x40a5a755	5.1766763
178	0xc00a086d	-2.1567643
179	0x3f23bd40	0.6396065
180	0x4027ec8c	2.6238127
181	0x401a3424	2.4094324
182	0x3f61423c	0.8799169
183	0xc063110a	-3.547915
184	0xc0bb7e53	-5.8591704
185	0x3fe24fa5	1.7680556
186	0x40077462	2.1164784
187	0x3edaffb1	0.42773202
188	0x404ad285	3.169099
189	0x3fd24911	1.6428548
190	0xbdc16495	-0.094430126
191	0x40af980f	5.487312
192	0x3ff09d1c	1.8797946
193	0xbea8ea0c	-0.32991064
194	0xc04b266d	-3.1742203
195	0x40a1d350	5.057045
196	0xbe9dac93	-0.30795726
197	0xbf7c6267	-0.9858765
198	0x3ff900c4	1.9453359
199	0xbe2a3ffb	-0.16625969
200	0xbfdb0b1a	-1.7112763
201	0xbfb3a6a3	-1.4035228
202	0xc0859c9e	-4.1753683
203	0xbfc4895c	-1.5354419
204	0xc05143b6	-3.2697577
205	0x3d6099d5	0.054834206
206	0xc0806f80	-4.013611
207	0xbfd35ca8	-1.6512651
208	0x3f79b905	0.9754794
209	0xbf911c28	-1.1336718
210	0x3f26fa9d	0.65226156
211	0xbec893d3	-0.3917528
212	0x3fad0b28	1.351903
213	0x40300f10	2.7509193
214	0x3f592c17	0.848329
215	0x3f8c2542	1.094887
216	0x4023e2f0	2.5607262
217	0x40b3056a	5.594411
218	0xc02ffd86	-2.7498488
219	0x3fd6b726	1.6774642
220	0xbf720dcb	-0.94552296
221	0xbf1fbaa8	-0.6239419
222	0x40100367	2.2502077
223	0xc0191eab	-2.3924968
224	0xc06a356b	-3.6595104
225	0x3eba172a	0.36345798
226	0xc02b38e6	-2.6753478
227	0x406f6395	3.740453
228	0x4035a940	2.8384552
229	0xc07f0312	-3.9845624
230	0x40010f24	2.016549
231	0x40004de9	2.0047553
232	0xc08d14d9	-4.408795
233	0x40240f19	2.5634215
234	0x3d2bd9df	0.041955825
235	0x407a899a	3.9146485
236	0x407cfeb5	3.953046
237	0x40349133	2.8213623
238	0x3fbb091f	1.4612159
239	0xc090351d	-4.5064836
240	0xbffa6a58	-1.9563704
241	0xbf1c1615	-0.60971195
242	0x3e1d8376	0.1538218
243	0x3e609da4	0.21935135
244	0x406b214b	3.673907
245	0x4046ea70	3.108059
246	0x40531c7d	3.2986138
247	0xbff478af	-1.909933
248	0x408ef3a6	4.4672422
249	0xc0544610	-3.3167763
250	0x40abbe94	5.367014
251	0xbfc4e6ae	-1.5382898
252	0xc04c9f28	-3.1972141
253	0x4068c40e	3.6369662
254	0xbe30b3c0	-0.17256069
255	0xbe49e367	-0.19715653

encoder.1.running_var f4 [256]
0	0x3d2e3eb4	0.042540267
1	0x3d068652	0.03284294
2	0x3d80a78c	0.06281957
3	0x3cc3f40e	0.023920085
4	0x3ca9ab8f	0.020711688
5	0x3dc94433	0.09827461
6	0x3d5d6481	0.054050926
7	0x3ccdae78	0.025107607
8	0x3c528ced	0.012850982
9	0x3c2e2ad3	0.010630327
10	0x3d4c5c06	0.049892448
11	0x3cf837f8	0.030300125
12	0x3c540576	0.012940755
13	0x3db65c94	0.089043766
14	0x3cc2d95b	0.023785284
15	0x3d3e8825	0.046516556
16	0x3dcbc08d	0.099488355
17	0x3cc292db	0.023751667
18	0x3c3fc9cd	0.011705828
19	0x3cb306dd	0.021853859
20	0x3d2e3567	0.042531397
21	0x3da7f1f1	0.082004435
22	0x3d887e32	0.06664695
23	0x3d1a5431	0.037677947
24	0x3cf325a0	0.029681027
25	0x3c4358ac	0.0119229965
26	0x3c8d4dd7	0.017249031
27	0x3c84c6d7	0.016208095
28	0x3c09e7f9	0.008417123
29	0x3c8885ab	0.0166653
30	0x3d003858	0.031303734
31	0x3c5a5610	0.013326183
32	0x3d931efd	0.07183645
33	0x3c85d302	0.016335968
34	0x3c27ecbd	0.010249314
35	0x3c3d7b47	0.011565036
36	0x3c7951cb	0.015217255
37	0x3c5b65dc	0.013390984
38	0x3c7b5382	0.015339734
39	0x3dc8dffc	0.09808347
40	0x3d2f8024	0.042846814
41	0x3d18d4e3	0.0373124
42	0x3ca88a39	0.020573722
43	0x3caeb7a3	0.0213278
44	0x3bd4044b	0.0064702383
45	0x3d974aeb	0.07387336
46	0x3d1a5ddc	0.037687168
47	0x3d1286ac	0.035772964
48	0x3cec5c04	0.02885247
49	0x3ceaf9cd	0.028683567
50	0x3d0d9c1b	0.034572702
51	0x3c091aba	0.0083681885
52	0x3c5c6d81	0.013453842
53	0x3cac4366	0.021028232
54	0x3dad229e	0.08453868
55	0x3d8d19fd	0.068897225
56	0x3d441046	0.047867082
57	0x3d6d87c1	0.057990793
58	0x3e01b3ca	0.1266624
59	0x3cc389d9	0.023869442
60	0x3d00b3e1	0.031421546
61	0x3c81eee7	0.015860988
62	0x3cbc2c08	0.022970214
63	0x3d7d0dee	0.061780863
64	0x3dc40fde	0.09573339
65	0x3e1c0693	0.15236883
66	0x3cc5207c	0.024063341
67	0x3ce101bf	0.027466653
68	0x3c7fd677	0.015615097
69	0x3cbf3f51	0.023345621
70	0x3e0eb0a9	0.13934578
71	0x3d026e38	0.031843394
72	0x3b7d0d7d	0.0038612776
73	0x3c9da634	0.01924429
74	0x3d46ccd8	0.048535198
75	0x3ca79a87	0.020459427
76	0x3d0ea1a7	0.034822132
77	0x3c43b687	0.011945373
78	0x3d075054	0.03303559
79	0x3d1ebd6b	0.03875486
80	0x3d85a58a	0.06525715
81	0x3c866553	0.016405737
82	0x3d43ef2d	0.047835518
83	0x3e0ac6d4	0.1355241
84	0x3d71cafc	0.05903147
85	0x3cc2f400	0.023797989
86	0x3d923f7a	0.071410134
87	0x3d00369b	0.031302076
88	0x3d021b5b	0.03176437
89	0x3d01ea03	0.03171731
90	0x3d8aab8d	0.06771002
91	0x3d4ed82c	0.050499126
92	0x3cbeceb3	0.023291921
93	0x3ce2f452	0.027704392
94	0x3db0c3fb	0.0863113
95	0x3c95fbb1	0.018308492
96	0x3d8aa648	0.06769997
97	0x3dbc467a	0.0919313
98	0x3d57fa6a	0.052729048
99	0x3ce5dc20	0.028059065
100	0x3c3f0109	0.011657962
101	0x3d299edc	0.041411266
102	0x3d6eb251	0.058275525
103	0x3c94fbc6	0.018186461
104	0x3d3e7ec8	0.046507627
105	0x3d5c5db0	0.053800285
106	0x3cda3de2	0.026640836
107	0x3c1fcd83	0.009753588
108	0x3d0242e3	0.03180207
109	0x3c1d5de7	0.009604908
110	0x3c7ab4f3	0.015301931
111	0x3d70ab23	0.05875696
112	0x3c6196b3	0.01376884
113	0x3ca6a71a	0.020343352
114	0x3d65b70d	0.056082774
115	0x3c9e1c45	0.01930059
116	0x3dc2f636	0.09519617
117	0x3c7d384b	0.015455316
118	0x3c1e9e49	0.009681293
119	0x3c89a14e	0.016800549
120	0x3c2c7f3a	0.01052838
121	0x3b0305c1	0.0019992443
122	0x3c55e845	0.013055866
123	0x3ccd0e85	0.025031338
124	0x3cd39593	0.025828158
125	0x3d76d31b	0.06025992
126	0x3c684f91	0.014179126
127	0x3d4c1001	0.04981995
128	0x3cfc4661	0.030795278
129	0x3d329e7a	0.043608166
130	0x3d178c2a	0.036998905
131	0x3c681e38	0.014167361
132	0x3d9a45d7	0.07532852
133	0x3cff0da9	0.031134443
134	0x3d00a63a	0.031408526
135	0x3c803ed0	0.015654951
136	0x3df6ecae	0.12056862
137	0x3ce0244f	0.027361063
138	0x3c7004ad	0.014649552
139	0x3d873aad	0.066029884
140	0x3d0ca0bf	0.034332987
141	0x3ddbfbd0	0.10741389
142	0x3d9a1b01	0.07524682
143	0x3cc24129	0.023712711
144	0x3d3c9aad	0.046045948
145	0x3beb4631	0.0071799983
146	0x3d487b42	0.048945673
147	0x3d17344c	0.03691511
148	0x3cfe5ebd	0.031051034
149	0x3ce713c5	0.028207669
150	0x3d40a259	0.047029827
151	0x3b78c0b3	0.0037956655
152	0x3c5247fe	0.012834547
153	0x3c5812c4	0.013188068
154	0x3c5e08b6	0.013551882
155	0x3cbf99d3	0.023388779
156	0x3c8c5ccd	0.017134095
157	0x3c365781	0.011129261
158	0x3d78359f	0.060598012
159	0x3bddc590	0.006767936
160	0x3dd97c4f	0.10619413
161	0x3c829d41	0.015944125
162	0x3d4d9e40	0.050199747
163	0x3e0ee040	0.13952732
164	0x3c7a9118	0.015293382
165	0x3c1869fc	0.009302612
166	0x3cf6d9e7	0.0301332
167	0x3d0c47cd	0.034248162
168	0x3dd4c114	0.10388389
169	0x3d245ffc	0.0401306
170	0x3d8749ed	0.06605897
171	0x3d8788f9	0.06617922
172	0x3ce19d84	0.02754093
173	0x3d56fa85	0.052485008
174	0x3c9d3066	0.019188117
175	0x3cad6da2	0.021170441
176	0x3c921ef4	0.017837025
177	0x3d467408	0.0484505
178	0x3d02b8ad	0.0319144
179	0x3bbe783a	0.005812672
180	0x3ccabef9	0.024749266
181	0x3d62348f	0.055225905
182	0x3c229c69	0.009924986
183	0x3ccfb935	0.025356868
184	0x3dc96762	0.09834172
185	0x3cf696a9	0.030101137
186	0x3c929c29	0.017896729
187	0x3d62f5cf	0.055410203
188	0x3d1e71bc	0.038682684
189	0x3cbf190f	0.023327379
190	0x3cb49c2f	0.02204713
191	0x3da8cf43	0.08242657
192	0x3cbc9d26	0.023024153
193	0x3b9ce14a	0.0047875987
194	0x3d0dd1f1	0.034624044
195	0x3da3bdd4	0.07995191
196	0x3ce2b334	0.027673341
197	0x3c6e996c	0.014562946
198	0x3c9af895	0.018917361
199	0x3c0a6acc	0.008448314
200	0x3d6abc69	0.05730859
201	0x3c1a3a9b	0.009413387
202	0x3d802674	0.06257334
203	0x3cc004af	0.023439733
204	0x3dc829a8	0.0977357
205	0x3c5013e7	0.012700058
206	0x3d98e083	0.07464697
207	0x3d0c59a0	0.03426516
208	0x3bb04f3c	0.005380539
209	0x3bb7eeb3	0.005613172
210	0x3d510676	0.051031552
211	0x3d1806c0	0.037115812
212	0x3d6e3d6b	0.05816404
213	0x3d2d9689	0.04237989
214	0x3c5c3ffe	0.013442991
215	0x3c27adb1	0.010234282
216	0x3dcf8f87	0.101347975
217	0x3d189589	0.037251983
218	0x3d032980	0.032022
219	0x3d001f95	0.03128012
220	0x3ca306df	0.019900737
221	0x3d22d30b	0.039752048
222	0x3c13d6c3	0.009023371
223	0x3ba40a7e	0.0050061336
224	0x3db97cc3	0.090569995
225	0x3b60ca15	0.0034300138
226	0x3c960133	0.018311119
227	0x3d56d203	0.052446377
228	0x3d80bafe	0.06285666
229	0x3cc90b43	0.024541503
230	0x3c45a8f3	0.012064206
231	0x3ca0b7b1	0.01961884
232	0x3d27b983	0.040948402
233	0x3d325d9f	0.043546315
234	0x3c6914d1	0.014226154
235	0x3d218a4e	0.03943854
236	0x3df20e78	0.11819166
237	0x3c50134d	0.012699914
238	0x3d0ef7b8	0.03490421
239	0x3d064c12	0.03278739
240	0x3cd10bad	0.025518263
241	0x3c4ee5e1	0.01262805
242	0x3c0fc27f	0.008774399
243	0x3d901c3d	0.07036636
244	0x3cf05a8a	0.029340047
245	0x3cd7891b	0.026310494
246	0x3db747f2	0.08949269
247	0x3d153e54	0.036436394
248	0x3dab3c62	0.083611265
249	0x3d593be1	0.05303562
250	0x3e0a4468	0.13502657
251	0x3c24036c	0.010010581
252	0x3d155b5a	0.036464073
253	0x3d5192b5	0.0511653
254	0x3c7687e5	0.015047048
255	0x3c34fbfb	0.011046405

encoder.4.weight f4 [128, 256]
0	0x3e1817c6	0.14852819
1	0x3d4372e4	0.04771699
2	0x3cc0034c	0.023439072
3	0xbce5b60f	-0.028040914
4	0xbd6a51af	-0.057206806
5	0x3d49665e	0.04916989
6	0x3e818c80	0.25302505
7	0x3e26068c	0.16213435
8	0xbcbc4a31	-0.022984596
9	0x3d253c40	0.040340662
10	0x3d280016	0.041015707
11	0x3e2e107e	0.16998479
12	0x3d4f421c	0.050600156
13	0xbcc7f680	-0.024409533
14	0xbe18ce6e	-0.14922497
15	0xbdc6e240	-0.097111225
16	0x3e968d25	0.2940456
17	0x3d4aceb3	0.04951353
18	0x3d0ba9be	0.034097426
19	0x3e49bec4	0.19701678
20	0x3b0d00a8	0.0021515284
21	0xbe0cae53	-0.13738374
22	0x3db0d939	0.08635182
23	0xbe5d32e4	-0.21601444
24	0x3d4709d4	0.048593357
25	0xbd853183	-0.06503584
26	0x3e8b76ff	0.27239224
27	0xbddef015	-0.10885636
28	0xbce7ef53	-0.02831236
29	0xbe5930b4	-0.21209985
30	0xbe6e26c7	-0.2325698
31	0xbe1bedcc	-0.15227431
32	0xbe9a868b	-0.30180773
33	0x3b8b219f	0.0042459513
34	0xbdf57a0b	-0.119861685
35	0xbe0f746e	-0.14009258
36	0xbdb6ff48	-0.0893541
37	0xbe47bffc	-0.1950683
38	0x3c97c2df	0.018525539
39	0xbe4f3efd	-0.20238872
40	0x3e5e1bd1	0.21690299
41	0xbe26be7b	-0.162836
42	0xbdb08a38	-0.08620113
43	0xbd151406	-0.03639605
44	0xbd98a20d	-0.07452784
45	0x3e19b73d	0.15011306
46	0x3e6d3bb3	0.23167305
47	0x3e2b4d4c	0.16728705
48	0x3e45def0	0.19323325
49	0xbe535b03	-0.20640187
50	0x3e8cd82f	0.27508685
51	0x3e759142	0.23981193
52	0xbe893f04	-0.2680589
53	0xbdd7b3b8	-0.105323255
54	0x3cccd9bd	0.02500617
55	0x3e81a79b	0.25323185
56	0xbcd65e03	-0.026167875
57	0xbe184679	-0.14870633
58	0x3e179438	0.14802635
59	0xbdeea4ce	-0.11652528
60	0xbd98dbe7	-0.07463818
61	0xbd8f4ab8	-0.06996673
62	0xbe7dd716	-0.2478908
63	0xbcb37466	-0.021906089
64	0x3eb965f5	0.362106
65	0x3ddbb54c	0.10727939
66	0xbe3c3c70	-0.1838243
67	0xbd5daecb	-0.054121774
68	0x3e2e0572	0.16994265
69	0x3d0f8b59	0.035045
70	0x3f002d0e	0.5006875
71	0xbec43dd5	-0.38328424
72	0xbd8dc316	-0.06921975
73	0x3d2cb7c5	0.042167444
74	0xbe726265	-0.23670347
75	0xbcbedbb3	-0.02329812
76	0x3e85043c	0.25979793
77	0xbde51b5a	-0.111868575
78	0x3b8aa0d5	0.0042305985
79	0xbe383f85	-0.17992981
80	0xbe1b7e73	-0.15184955
81	0xbe12eda6	-0.14348468
82	0x3e89174d	0.2677559
83	0x3df831cb	0.12118872
84	0x3e31623d	0.17322631
85	0x3df376e4	0.11887911
86	0xbe6c6a4f	-0.23087429
87	0x3cc9db1a	0.024640609
88	0x3e397906	0.18112573
89	0x3e22fa94	0.159159
90	0xbe0c276e	-0.13686916
91	0xbdd6c32c	-0.10486445
92	0xbd323022	-0.043502934
93	0x3bd0251e	0.006352081
94	0x3e982e17	0.29722664
95	0xbdda2844	-0.10652211
96	0x3e2d8d22	0.16948369
97	0xbce57250	-0.02800861
98	0x3b2fd3df	0.0026829166
99	0xbd9df2b1	-0.07712305
100	0x3c60e85b	0.013727273
101	0xbb1a6b39	-0.0023562445
102	0x3e4ce3e1	0.20008804
103	0xbdf4da59	-0.11955709
104	0xbd46a805	-0.04850008
105	0x3ebda005	0.37036148
106	0xbcb57de6	-0.02215476
107	0x3de00ce7	0.10939961
108	0xbe460ab1	-0.19340016
109	0x3c30792f	0.01077108
110	0xbe883057	-0.2659938
111	0x3e084fec	0.13311738
112	0xbdfcb849	-0.12339837
113	0xbd121465	-0.03566398
114	0x3e350405	0.17677315
115	0x3ca32abc	0.019917838
116	0x3d128aa1	0.035776738
117	0xbe726aeb	-0.23673598
118	0x3d549d3a	0.051907755
119	0xbdcc3e51	-0.099728234
120	0xbda40bd8	-0.080100715
121	0xbe1d4763	-0.15359263
122	0x3cadbcef	0.021208255
123	0xbd101ebf	-0.03518557
124	0x3d1ddb6a	0.038539328
125	0xbd7cf965	-0.06176128
126	0x3cd43830	0.025905699
127	0xbce445e1	-0.027865352
128	0xbe5ca0f2	-0.21545771
129	0xbd7f66af	-0.062353786
130	0xbe77b6e6	-0.24190864
131	0xbb42d738	-0.002973033
132	0x3e4d6de7	0.20061456
133	0xbe2ec46a	-0.17067114
134	0x3e5b2fce	0.21404955
135	0x3d18e09f	0.03732359
136	0x3e4f4201	0.20240022
137	0x3e09a821	0.13443042
138	0xbebfbc48	-0.37448335
139	0x3d27f0c0	0.04100108
140	0xbd8d4476	-0.068978235
141	0x3d319d8f	0.04336315
142	0xbe1018ad	-0.14071913
143	0x3e9656e8	0.2936318
144	0xbb80a7ed	-0.0039262683
145	0xbe5ef31e	-0.2177243
146	0x3dfacf32	0.122465506
147	0xbd78f369	-0.06077901
148	0x3e055b26	0.13023052
149	0x3dc99267	0.09842377
150	0x3c3dd8f7	0.011587373
151	0xbe80e2ae	-0.25172943
152	0xbe6050d9	-0.21905841
153	0xbc296abf	-0.010340392
154	0xbd895cf0	-0.067071795
155	0xbde01218	-0.10940951
156	0x3d0e8a9f	0.034800168
157	0xbe4f5c17	-0.20249973
158	0xbdd5c2f9	-0.10437579
159	0xbed1e771	-0.40996888
160	0x3e03841e	0.12843367
161	0xbeacb72a	-0.33733493
162	0x3dc523ef	0.096259944
163	0x3ca1e104	0.019760616
164	0xbc783875	-0.015150179
165	0xbc9fea26	-0.01952083
166	0xbe974365	-0.29543605
167	0x3e94e454	0.2908045
168	0x3e12e750	0.14346051
169	0x3e8c3a63	0.27388296
170	0xbda9dd28	-0.08294135
171	0xbe9f4787	-0.3110926
172	0xbe5f7d57	-0.21825157
173	0xbd942696	-0.07233922
174	0xbe503b2d	-0.20335074
175	0xbd7aee4c	-0.061262414
176	0xbc90f650	-0.017695576
177	0xbe48cff3	-0.19610576
178	0xbef61e61	-0.48070052
179	0xbb4a7761	-0.003089391
180	0x3d256172	0.040376134
181	0xbd621e20	-0.05520451
182	0x3ebd0b1e	0.36922544
183	0xbe0567c1	-0.1302786
184	0xbd41300d	-0.047164965
185	0x3b3aa81e	0.0028481553
186	0x3d58a3ea	0.052890696
187	0x3d84ba75	0.06480876
188	0xbc915d72	-0.017744754
189	0x3e5f83c2	0.21827605
190	0x3df56548	0.119822085
191	0x3e2ae754	0.16689807
192	0xbddcf20d	-0.10788355
193	0xbe29108e	-0.16510221
194	0xbdfdf9e6	-0.1240118
195	0x3e56e2db	0.20984976
196	0xbe1a7b88	-0.15086186
197	0xbde0f531	-0.109842665
198	0xbdb93a2a	-0.09044297
199	0xbe00f7af	-0.12594484
200	0xbe7e37e8	-0.24826014
201	0xbe8c5fff	-0.2741699
202	0x3dabefa8	0.0839532
203	0x3e8b6f8e	0.27233547
204	0xbe7b46e2	-0.24538758
205	0xbd363bd6	-0.044490658
206	0x3e738ca2	0.23784116
207	0xbe39289b	-0.18081896
208	0x3cc8617f	0.024460552
209	0xbd8598ed	-0.06523309
210	0x3e934f51	0.2877145
211	0x3c844e67	0.016150666
212	0x3e387cdf	0.18016385
213	0x3e8aafac	0.27087152
214	0xbe0f79c6	-0.14011297
215	0x3ddbcd29	0.107324906
216	0x3d87a7fb	0.066238366
217	0x3d2623fb	0.040561657
218	0x3e81f1f7	0.25379917
219	0xbca5425f	-0.02017325
220	0x3dd73095	0.10507313
221	0x3e55b3ca	0.20869365
222	0xbe1e9f17	-0.15490375
223	0xbde44d56	-0.11147563
224	0x3de49fdc	0.11163303
225	0xbe339df6	-0.17540726
226	0x3dd5afcd	0.10433922
227	0x3d6c7d91	0.057736937
228	0xbe66eb4f	-0.225507
229	0xbe49cfd2	-0.19708183
230	0x3e1ce2cb	0.1532089
231	0xbded07dc	-0.11573765
232	0x3b0619a3	0.0020462058
233	0xbc0f98bc	-0.008764442
234	0x3db2f013	0.08737197
235	0xbd6664e6	-0.056248568
236	0x3e232f42	0.15935996
237	0x3cdddaec	0.02708193
238	0xbcf9a1ac	-0.030472599
239	0xbd844b92	-0.064597264
240	0xbdbfc816	-0.09364335
241	0xbe57a2e2	-0.21058229
242	0x3c60bc8a	0.013716826
243	0x3d9d8b47	0.07692581
244	0x3e0995c2	0.13436034
245	0x3e330e17	0.17485844
246	0xbdc54b04	-0.09633449
247	0xbe81fc8d	-0.25387993
248	0x3e03e0ce	0.12878725
249	0x3df82132	0.121157065
250	0x3e3d1004	0.1846314
251	0xbc748f36	-0.014926722
252	0xbec1ef4d	-0.37877885
253	0x3e465d68	0.19371569
254	0xbda71def	-0.08160006
255	0xbd87ac72	-0.06624688

encoder.4.bias f4 [128]
0	0x3d436d25	0.04771151
1	0x3d27fb21	0.04101098
2	0x3be3d0b2	0.0069523687
3	0x3d69bcdc	0.057064876
4	0xbd065f60	-0.0328058
5	0xbb8710da	-0.004121882
6	0xbca627e3	-0.020282691
7	0x3d6ce469	0.057835016
8	0xbc8f0bcd	-0.017461682
9	0x3c86b473	0.016443467
10	0x3d351dad	0.044217754
11	0xbcb5b626	-0.022181582
12	0xbc946f8f	-0.018119602
13	0x3d28ab8a	0.041179217
14	0x3d181487	0.03712895
15	0x3d06273e	0.032752268
16	0xbac8ebf4	-0.0015329109
17	0xbd52ac3f	-0.051433798
18	0x3d3187b5	0.04334231
19	0x3c90d5af	0.017680017
20	0xbd2aa03a	-0.04165671
21	0x3d246b96	0.040141664
22	0x3ba4769b	0.0050190217
23	0x3d5aec78	0.05344817
24	0xbd7981ab	-0.060914677
25	0x3d32a545	0.043614645
26	0x3c597d5d	0.013274518
27	0xbd2797e2	-0.04091633
28	0x3d1ba682	0.03800059
29	0x3d41758d	0.047231246
30	0x3d7e6894	0.062111452
31	0xbd530626	-0.051519535
32	0x3b931092	0.0044880593
33	0xbceafeed	-0.028686011
34	0xbcd78b4e	-0.026311543
35	0xbd70d4f7	-0.05879685
36	0x3c89fede	0.016845163
37	0x3d5afe59	0.05346522
38	0x3d0ae2a7	0.03390756
39	0x3c24e30e	0.0100639
40	0xbc4d8f1c	-0.012546327
41	0xbc261ae3	-0.010138246
42	0x3bdb4fc7	0.00669286
43	0xbced7201	-0.028985025
44	0x3cbc46a9	0.022982912
45	0xbd169a68	-0.036768347
46	0x3d00802f	0.031372245
47	0x3c0a3ef5	0.008437862
48	0x3c7088cc	0.014681052
49	0xbd74fa3d	-0.05980896
50	0xbd01bf36	-0.031676494
51	0x3cf723e3	0.03016848
52	0xbd014f5d	-0.031569827
53	0x3d106d33	0.03526039
54	0x3ce0ba33	0.027432537
55	0x3d42e86c	0.047584936
56	0xbd67b144	-0.056565538
57	0xbce21c68	-0.027601436
58	0xbd41e5bb	-0.04733823
59	0x3c8420f0	0.016128987
60	0xbd158e74	-0.036512807
61	0x3d6f7f2d	0.058470894
62	0xbd443071	-0.04789776
63	0x3d319c14	0.04336174
64	0x3d1bf770	0.03807777
65	0x3d72089e	0.05909025
66	0xbd21f366	-0.039538763
67	0xbcfbce7f	-0.030738113
68	0x3d4acc1c	0.04951106
69	0x3b7b77f1	0.0038371051
70	0x3b354037	0.0027656683
71	0x3cea406f	0.028595177
72	0x3d089d66	0.03335323
73	0x3cd1a6cf	0.025592236
74	0x3ac28bc2	0.0014842676
75	0xbcf53d96	-0.029936593
76	0xbd2361a8	-0.039888054
77	0x3d3e327f	0.046434876
78	0xbaa7d6c5	-0.0012805095
79	0x3ce50947	0.027958525
80	0xbd50241f	-0.050815698
81	0xbd23ea3d	-0.04001831
82	0xbb4040d4	-0.0029335516
83	0xbd75425f	-0.05987775
84	0x3d18a195	0.03726347
85	0xbb27b197	-0.002558803
86	0xbcefc1dc	-0.029267244
87	0xbd6464be	-0.055760138
88	0x3c80a350	0.015702873
89	0x3cfde796	0.030994218
90	0xbc894733	-0.016757583
91	0xba91cc98	-0.0011123596
92	0x3b38c32a	0.0028192499
93	0xbd507a26	-0.05089774
94	0xbd245abb	-0.04012559
95	0xbbe0aa7c	-0.006856261
96	0x3d0d3192	0.034471102
97	0xbbe72be0	-0.007054791
98	0xbd55893e	-0.052132837
99	0xbd1f39f3	-0.038873624
100	0xbd28c6ad	-0.041205097
101	0x3cbfd7fa	0.023418415
102	0x3d1a5036	0.03767415
103	0xbd13a151	-0.036042515
104	0xbd4b0e61	-0.04957426
105	0x3d793e8b	0.06085066
106	0xbcb89965	-0.022534082
107	0x3d517900	0.051140785
108	0xbc7af3f1	-0.015316949
109	0xbd0e877c	-0.034797177
110	0xbcb930a6	-0.022606205
111	0xbc8c15cb	-0.017100235
112	0x3d268316	0.040652357
113	0xbd6d57f7	-0.057945218
114	0xbc181e8b	-0.009284626
115	0x3d471eb3	0.04861326
116	0x3cdeeedb	0.027213505
117	0xbd38871a	-0.045050718
118	0xbc939826	-0.018016886
119	0x3d3b7694	0.04576738
120	0xbce172a8	-0.027520493
121	0x3d2e178c	0.042502925
122	0xbcc05b11	-0.023480924
123	0x3c5fff86	0.013671761
124	0xbd3c2882	-0.04593707
125	0xbd68aa84	-0.05680324
126	0x3d0f2697	0.03494891
127	0x3c1a9a3f	0.009436189
