models/ssdp_flood_model.pth (torch, 603224 bytes, 32 tensors)

encoder.0.weight f4 [256, 114]
00000000: e97c 03bd d436 b1bd f6ba 903d feb1 27bd
00000010: e2f7 c43b 0c1f 243d 200c 16bd 76c0 603d
00000020: bf01 89bd 89d5 00bd 4aef 893d 8abc de3b
00000030: c82f 55bd 4e76 fabd 286e e9bd 6003 c53d
00000040: 4e49 a1bd 10aa 9bbd e141 b83d e21b 4d3d
00000050: ad7c 7abd 54cd 90bd e434 41bd f3e1 113d
00000060: ed22 c83c 16fe f9bc 6cc1 5e3d df82 efbc
00000070: 322a 63bd d42b dabd ce8b c63c 8cec b63d
00000080: acd1 61bc db5c 12be 164c 5bbd ba4b 73bd
00000090: 47f4 7e3d c61d 243d fb29 e13d e290 923d
000000a0: 7286 82be 25ae 16bc 3ab5 bbbd 5647 8a3d
000000b0: 6dd5 3bbd 6032 2cbd fbee b33d 6af6 0fbe
000000c0: 9368 593d 51b6 6cbe 95a3 f8bd 4033 6d3d
000000d0: 75cc 2e3b e039 743d e737 debd 90b8 743c
000000e0: 8e6b a0bd 938a 5abd 9741 b0bd 4a63 a73c
000000f0: 1ae7 cfbc ced5 21be c04f 89bd 25e5 993c
00000100: 9f70 093d 9002 b73d 0aee 463b b6a1 163d
00000110: abde d83d 6c3e 8fbd 1124 743d 85bb a0bd
00000120: 0f61 1d3d cfb2 933d 9826 a13d 0ee7 183d
00000130: c60a 313d 47d1 93bd f4f1 b53d ca1c c23d
00000140: 1f68 3c3e 3fc6 f33c e9bf fe3d 1a0f 84bc
00000150: 83ea 063e 6bd6 fbbd e000 843c 6e63 d93d
00000160: 591c f73c 47e2 0b3e cc3a 033e 77f9 5d3d
00000170: 25ec 24bd 11a5 d5ba f1d6 b73a 6f1c 6fbc
00000180: eba0 423d 747f 063e b8d6 933d 396e 993b
00000190: 8d30 19bd 50d3 cabd 6552 b33d e225 0fbd
000001a0: eb48 b13d beaf f63d 4e4e d03c c624 e1bd
000001b0: 0cb3 84be 35b4 be3d fa3b 7ebd 826a 1b3e
000001c0: 13a4 613d 875a e3bd bd46 f5bd 8800 d63d
000001d0: e430 53bd d006 65be 7a6a e83c e3c0 5cbd
000001e0: c634 0cbe d7ba 78bd 6d38 a8bd 79ee cfbd
000001f0: 800e c83c 8c2e f4bb a22b b8be 95ee 41bd
00000200: fe1d c23b 6385 66be 1057 433c 6583 38bd
00000210: c814 58be 38e8 a73d a9a7 b43d f416 44be
00000220: feb9 ee3d 4040 963d 4092 bfbd a013 913d
00000230: 0c53 223d bfb6 1ebe e872 a53d 0087 8f3d
00000240: 4b9e 4cbe cb89 493d 99f2 8dbd 59e2 adbc
00000250: 8ecb 0bbd 8113 af3d b503 613d 2531 c9bd
00000260: 4729 e03d 8899 1f3e b20c 07be 1ee5 3c3d
00000270: f81d 35bd ec2a ab3d 3ba3 98bd c677 463d
00000280: 382d 473e 409d c1bc e960 adbc a467 31bd
00000290: 0406 643d a319 50be f948 673e 4bcb 2e3e
000002a0: 3ec4 d2bd cb9e 623d 34b9 87bd 29e0 5a3d
000002b0: c336 1ebe 4f53 333e dd57 213d b422 0cbd
000002c0: 5274 8f3d 405b 4c3c 66bb 35bd 0431 36be
000002d0: 8562 ee3c 01b9 8c3d bf0b 4fbe 68ad 09bd
000002e0: 0e94 a53c 3073 d6bc 3e55 13bc 39c3 90bd
000002f0: 8231 22be 9eb5 2abd e62d 5e3d 962c 43be
00000300: 4ae9 62bc a469 613c f84b a2be 0b5f 093e
00000310: e02f aa3d 507a c83d 1c94 323e f5ff 9a3d
00000320: abe3 5b3d 1571 33be 3288 153d a50c 0c3c
00000330: bffc 8c3d 6d6a 6a3e 69b3 72bb 41c2 72bd
00000340: 0d9f e1bd 7965 133e 299a b0bb 672f c43b
00000350: b480 9b3d 30dc 113d 6065 e0bd 5357 e6bd
00000360: 5b11 123e 347c acbd 57bb d23d a53c a9bd
00000370: 2c87 7bbd 0703 dd3d 2b1e 0cbe e0a7 533d
00000380: e0bb 2e3c f3a5 6cbb ec60 acbd 13a8 c0bc
00000390: 78c3 a83d fa74 36be c91b 38bd aac0 5a3d
000003a0: 9d39 cdbc 1adf da3b 8aa9 83bd ae27 3fbe
000003b0: 07bc fa3c 3d82 92bd d597 2cbe 2c8a 01be
000003c0: 0173 2fbe 25d0 74be 45f2 3bbc 3ba5 b1bc
000003d0: c0e4 debd 46ee fc3b 7279 f2bc 924e 59bc
000003e0: 2270 22be dc6f 3b3c 9581 2cbe 0e8e 1bbe
000003f0: e41f c8bd a542 0dbe 03d6 05be beae 95bd
-0.032101545 -0.08653036 0.0706691 -0.04094123 0.0060109952 0.04006867 -0.036632657 0.054871045
-0.06689786 -0.031453643 0.06735094 0.006797378 -0.05204752 -0.12229596 -0.11397964 0.09619784
-0.0787531 -0.07600796 0.089969404 0.05007542 -0.061154056 -0.07070413 -0.04716958 0.035615873
0.024430716 -0.030516665 0.05438368 -0.029237209 -0.055460162 -0.10652891 0.024236586 0.089318365
-0.0137829 -0.14293234 -0.053539358 -0.05939839 0.06224468 0.040067457 0.10994335 0.071565405
-0.254932 -0.009196793 -0.091654256 0.067518875 -0.045857836 -0.04204023 0.08785816 -0.14058843
0.053078245 -0.23116423 -0.12140576 0.057910204 0.002667216 0.059625506 -0.10850506 0.014936581
-0.078330144 -0.05335481 -0.0860626 0.020433087 -0.025378752 -0.15804216 -0.06704664 0.018786022
0.03355467 0.08936036 0.0030354285 0.036775313 0.105893455 -0.06994328 0.059604708 -0.078482665
0.03842264 0.072118394 0.07868689 0.037329726 0.043223165 -0.07217651 0.088840395 0.09478147
0.18399094 0.029757617 0.12438948 -0.016120482 0.13175397 -0.12296756 0.016113698 0.10614668
0.030164884 0.13660537 0.12815398 0.054192986 -0.040264267 -0.0016299804 0.001402585 -0.014594181
0.047516745 0.13134557 0.07218689 0.004682329 -0.037399817 -0.09903586 0.0875595 -0.034948237
0.08656486 0.12045239 0.025427964 -0.10993342 -0.25917852 0.093117155 -0.062068917 0.15177348
0.055088114 -0.11101251 -0.11976383 0.1044932 -0.051560298 -0.2236588 0.028371084 -0.05389489
-0.13692006 -0.06072506 -0.08213887 -0.10152907 0.024420977 -0.007451838 -0.3597079 -0.04734667
0.0059239855 -0.2251182 0.011922613 -0.045047183 -0.21101677 0.08198589 0.08821041 -0.19149381
0.11656569 0.073364735 -0.09354067 0.07083821 0.03962998 -0.154994 0.08078557 0.07008171
-0.19982259 0.049203675 -0.069310375 -0.021226095 -0.03412967 0.08548642 0.054935176 -0.09823827
0.10945373 0.15585911 -0.13188437 0.04611694 -0.044218034 0.08357796 -0.07453009 0.04845407
0.19450843 -0.023634553 -0.021164374 -0.04331173 0.0556698 -0.2032228 0.2258643 0.17069738
-0.102913365 0.055327218 -0.066271216 0.053436432 -0.15450577 0.17512248 0.039390434 -0.034212783
0.07004608 0.012472928 -0.04436817 -0.17792135 0.029099712 0.06871224 -0.20219325 -0.03361264
0.0202122 -0.026177973 -0.008992491 -0.07068486 -0.15839198 -0.04167711 0.05424299 -0.19059977
-0.013849566 0.013758097 -0.31698585 0.13415162 0.08309913 0.09788954 0.17439312 0.07568351
0.053683918 -0.17523606 0.03650684 0.008547937 0.06884145 0.2289216 -0.0037033206 -0.059267286
-0.11016665 0.14394177 -0.005389471 0.005987096 0.075929075 0.035610378 -0.10956836 -0.112471245
0.14264433 -0.08422127 0.102896385 -0.0826352 -0.061408207 0.10791593 -0.13683383 0.05167377
0.01066491 -0.0036109656 -0.08416924 -0.023517644 0.08240408 -0.1781806 -0.044948373 0.053406395
-0.025051886 0.006679428 -0.064288214 -0.1866748 0.030607237 -0.07153747 -0.16854794 -0.12650365
-0.17133714 -0.23907526 -0.011471336 -0.021685233 -0.10883474 0.007718834 -0.029598925 -0.0132633615
-0.15863088 0.011440244 -0.16846307 -0.15190908 -0.09771708 -0.13794954 -0.1306992 -0.0730872

encoder.0.bias f4 [256]
00000000: 31a1 a3bd 01b7 203c cf48 71bd 0d8e c4bb
00000010: 0963 983d a0aa 52bc 5931 7a3d 1fe0 a9bc
00000020: 1434 983d 0f0a ed3d 5de3 b4bc 6251 a43d
00000030: c161 79bc b95a a8bd 8e9e f83c aefa 7b3d
00000040: 0d1e 4b3d 3d1a bbbc 7de9 b0bd 0dc0 913d
00000050: 52e7 72bd 5672 18bc b9be 96bc 9d28 143c
00000060: 9e93 af3d 3765 e93c bb1c b7bd a72b 9fbd
00000070: 21a2 8fbd ed37 043d 7b80 93bc b33c 82bc
00000080: db92 43bc 2266 123d 1128 a8bd 91d4 873d
00000090: 536b 7bbd dc1e 8e3c 30c4 c1bb b6c2 973d
000000a0: 275e cfbc 6d8d 4abd b486 b8bd 1f28 9a3d
000000b0: 0a79 35bc c03a 83bd 4828 5d3d 00ef ef3c
000000c0: 4703 b8bc 0a3d 973d e3e0 a6bd fe47 89bd
000000d0: cb75 c33d a7b1 a0ba 6fab 553d bcbe 1dbd
000000e0: 1f7b 87bd 9056 a4bd 4a33 35bd f3c8 44bd
000000f0: 0835 a83c 522f 6a3d ac96 33bb 4c26 413d
00000100: 5c93 cebd f03d 933c 1b30 893d 3fc6 5c3d
00000110: 9a84 23bd f53d 86bd 1c42 cc3c 6876 853d
00000120: 615e 2ebc c916 013c 74d1 8bbd dc8c 863d
00000130: 5d91 90bd ceec afbd 7f87 c8bc 855c 09bd
00000140: 7e42 a5bd 326e 9e3b a5dd 13bd afe8 4fbd
00000150: 74af d2ba acce 653c 96af ab3c 3a2a 89bd
00000160: 03d3 7abd 3863 2fbd 9d02 b6bc 457f 8a3d
00000170: 944f b63d 94d6 60bd 209c a83c f0f2 963d
00000180: 76ae b53c 9393 a53d e234 903d 3ca1 a1bd
00000190: 2e1a f73d 982b 96bd b804 8c3c e2c2 9abc
000001a0: 0d47 e53c 116b 7dbc 85ac 8d3d d063 c43c
000001b0: 4d63 ce3c 8898 bf3d 7837 5c3d 8c8c eb39
000001c0: 73fa 5ebd 3c33 bbbd 11e6 d23c 5114 98bd
000001d0: fbee bb39 ee19 3abd 7d4b 6b3d 6914 1c3d
000001e0: 0812 a6bd bd39 a03d bf2f 723d b282 e93c
000001f0: 79a8 a9bd 5e4b 323c ed7a 063d cf6d 983c
00000200: 4cce 2ebb 2e2a 34bd 2b24 78bd 3137 a13d
00000210: de53 1a3c b618 9e3c fb17 8f3d da56 1c3d
00000220: 8589 623d 77da 92bd d34f 843c 4e58 923d
00000230: fed1 d5bc 90ae 2dbd 76c9 7abc 40ea 983c
00000240: 265d 243b fdc7 283d 751b 3ebd e82a 6bbd
00000250: 8720 7fbd aefb 4d3d 943a b3bb adee 823c
00000260: 5d9e 19ba 1d29 36bd 2973 cbbd 3874 d9bd
00000270: 25fa f13c f6d5 86bd 4cec 6bbc 15ac 70bd
00000280: d31d 243b ae4a 80bd b1e1 253d 5f8c 273d
00000290: 9eae 413d c8e6 883d 7e32 6abc 92bf 70bd
000002a0: a01f 973d 3ae6 8a3d c08a 6ebd ce32 8cbd
000002b0: 1fc9 ed3c 7ec3 c13d 38c2 843d 0683 34bd
000002c0: 97b9 c43d a2c9 ae3d 2bcc 8dbd a012 6a3d
000002d0: 74b0 40bd 8183 5a3d 8757 2fbd 4bc8 723d
000002e0: 0321 793d 1b00 cf3d b6ef 59bd 142b 45bd
000002f0: 5e54 78bd 53f4 983d 888a 273b 6970 a63d
00000300: f639 26bd ab3e 9d3d 924c 023d 21de 373d
00000310: ef7f 70bd 1aa0 47bd b670 c53d e886 90bc
00000320: 4a02 9a3d 68e4 37bd 69ba 4abb 1e3b 93bc
00000330: e1f7 31bc 7d0a 603d 4cbb f73c 3be0 033d
00000340: b2f2 423d 94eb 0fbd d48a 85bd e11a 0a3d
00000350: c831 13bd 9761 e3bb af1c 81bd 8269 b1bc
00000360: ab89 0dbd cc92 92bc 6540 013d 2be7 97bd
00000370: 271c edbb 001f b0bd 1e8e 933d 3692 a5bd
00000380: 3195 d3bc 7d37 84bd cba9 55bd 81f0 90bd
00000390: 7d30 0b3c 598b 95bd 3a03 bf3d ea9a 56bc
000003a0: 4622 f5bc cfb4 7ebd fbb9 833d cc5e 52bd
000003b0: 456e 523d cb27 313c 0342 3cbd 506e 0fbd
000003c0: fe71 52bd 66db 3dbc c9b6 97bc 1c56 09bc
000003d0: dc4b f4bc 76ae 0cbd 0a33 17bb 97c7 af3d
000003e0: 6cca 883d 9954 09bc b862 3c3c f4b8 e4bb
000003f0: 6069 a8bd 85df f03c 62b2 b13d 002a 4ebd
-0.07989729 0.0098092565 -0.058907326 -0.005998379 0.074407645 -0.012858063 0.061082218 -0.020736752
0.07431808 0.11574184 -0.022081072 0.08023335 -0.01522106 -0.08220429 0.030349042 0.061518364
0.049589206 -0.02283966 -0.08638284 0.07116709 -0.059302635 -0.009304604 -0.01840149 0.009042886
0.085730776 0.028490646 -0.08941027 -0.07771998 -0.070133455 0.032279897 -0.0180056 -0.015898084
-0.011936869 0.035741933 -0.08210767 0.06632341 -0.06138165 0.0173487 -0.00591328 0.07410185
-0.02531345 -0.04945128 -0.090100676 0.07527184 -0.011076221 -0.0640769 0.053993493 0.029288769
-0.0224625 0.07384689 -0.081483625 -0.067031845 0.095439516 -0.0012259976 0.052165445 -0.038511977
-0.0661528 -0.08024323 -0.044238366 -0.048043203 0.0205331 0.057174034 -0.002740304 0.047155663
-0.100867 0.01797387 0.066986285 0.0539 -0.03992138 -0.06554786 0.024933867 0.06516725
-0.010642619 0.007878968 -0.068270594 0.065698355 -0.07058976 -0.08590089 -0.024478672 -0.0335355
-0.08069323 0.0048349136 -0.03610005 -0.050759014 -0.0016074018 0.014026325 0.02095775 -0.06697507
-0.061236393 -0.04281923 -0.022218043 0.06762556 0.08901897 -0.054892138 0.020582259 0.073705554
0.022177916 0.08084788 0.070413366 -0.07892081 0.1206554 -0.073325336 0.017092094 -0.018891755
0.027987981 -0.015467421 0.06917671 0.023973376 0.025193835 0.09355265 0.053763837 0.00044927408
-0.054438066 -0.091406316 0.02574447 -0.0742575 0.00035845474 -0.045434885 0.057445038 0.038105402
-0.08108908 0.07823513 0.059127565 0.028504703 -0.08284087 0.010882227 0.032832075 0.018607048
-0.0026673255 -0.04398554 -0.060581367 0.07871855 0.00941941 0.019298892 0.06986996 0.038168766
0.05530693 -0.07170575 0.016151344 0.07145749 -0.026101109 -0.042402804 -0.015306821 0.018666387
0.0025079935 0.04120635 -0.046412904 -0.057413965 -0.06228688 0.05028885 -0.0054696295 0.01598295
-0.0005860085 -0.044472802 -0.099340744 -0.1061787 0.029538224 -0.065837786 -0.014399599 -0.05875786
0.002504219 -0.06264244 0.04049844 0.040905353 0.04728567 0.06684643 -0.014294265 -0.058776446
0.07379079 0.067821935 -0.05823779 -0.06845628 0.029026566 0.09461115 0.06482357 -0.044070266
0.09605711 0.08534552 -0.069237076 0.05714667 -0.04704328 0.05334807 -0.042808082 0.059273046
0.060822498 0.10107442 -0.05320712 -0.048136786 -0.060627334 0.07468476 0.0025564749 0.08126909
-0.04058262 0.076779686 0.031811304 0.044889573 -0.058715757 -0.04873667 0.096406385 -0.017642453
0.07519968 -0.04489556 -0.0030933863 -0.017972525 -0.010862322 0.054697502 0.030240677 0.032196265
0.047594734 -0.035136774 -0.0652062 0.03371704 -0.035936147 -0.006939124 -0.06304299 -0.021656755
-0.03455512 -0.017892264 0.031555552 -0.07417139 -0.007236022 -0.08599663 0.07204841 -0.08084528
-0.025827976 -0.06455896 -0.05216388 -0.070771225 0.008495447 -0.07301969 0.09326787 -0.013098458
-0.02992357 -0.06218415 0.06431957 -0.051359937 0.051374692 0.01081271 -0.04596139 -0.03501731
-0.051378243 -0.011587953 -0.018519776 -0.0083823465 -0.029821329 -0.034346066 -0.0023071193 0.085829906
0.06679234 -0.008381986 0.011498146 -0.006980056 -0.08223224 0.029403457 0.08676602 -0.050333023

encoder.1.weight f4 [256]
00000000: df9a 663f 12df 743f f483 5c3f fd59 6c3f
00000010: e8cf 853f 1069 5b3f 3f4c 723f 86ec 903f
00000020: f1d7 8a3f 8eb2 923f 000b 743f fb7d 923f
00000030: fdbe 6f3f acbf 823f 065e 563f 149f 8a3f
00000040: 280c 7c3f 38ca 9c3f 8fb5 8f3f 875b 443f
00000050: d5e1 5c3f 4d5a 863f 8efd 8f3f 24c2 7e3f
00000060: a2ab 813f d2a0 673f 2298 843f df25 923f
00000070: 2421 763f 5d6a 643f 426e 763f c45c 843f
00000080: 5c36 853f d292 603f dccb 7a3f 29d2 923f
00000090: 2053 873f 7b69 873f 216e 743f ced6 743f
000000a0: a719 6c3f f284 8d3f e13e 873f b4aa 8f3f
000000b0: 3fcd 713f 32d9 853f ddcd 633f d219 783f
000000c0: a39d 803f 6ad2 883f acf6 723f fc22 803f
000000d0: 86a2 8c3f a524 663f 114c 853f 77a5 9a3f
000000e0: 6b20 653f 7f2a 873f 1c81 723f 8eab 863f
000000f0: 45a6 683f cfc5 6c3f 8872 a23f 172f 8d3f
00000100: d110 863f 595d 6a3f 07b3 883f 9b33 6a3f
00000110: 8eb6 5c3f 58be 693f 057a 743f 95e9 4f3f
00000120: 10a5 823f 4c19 783f 4906 8a3f ae54 4e3f
00000130: c91b 5d3f 6eb1 833f 13a4 7a3f 4264 8c3f
00000140: df2b 693f 7b24 773f 4b8b 813f 7175 423f
00000150: c152 833f 0416 6b3f 9875 603f 98fb 813f
00000160: bc23 8f3f b2d1 7f3f 742a 833f 635b 7e3f
00000170: 4d7c 693f dbdc 653f 68b4 7e3f a277 813f
00000180: 7d31 7e3f 32b7 723f c2df 933f 3eeb 8b3f
00000190: ef9e 833f e460 873f a445 8b3f c447 843f
000001a0: 78be 7c3f 11ac 9b3f 79f3 823f ed8e 813f
000001b0: 6e4d 893f 34aa 403f ca90 7b3f 9f17 7f3f
000001c0: bee8 813f 421f 803f a97f 833f a22e 693f
000001d0: 25bf 6e3f fac9 6d3f 6f8d 763f da45 783f
000001e0: 3f42 9c3f abc4 703f 4f7d 913f 79d9 713f
000001f0: 2e32 913f 91b0 873f e2c7 703f 4117 8d3f
00000200: 930f 7a3f a39b 7f3f 6fdf 5d3f 4c17 853f
00000210: af02 7b3f 2d9a 8a3f 08ac 8b3f 5f3c 593f
00000220: 9a8f 8d3f 3c93 953f 8e30 7f3f 8ba7 8a3f
00000230: 856c 843f 596e 753f df53 663f 83a5 733f
00000240: 98fd 7a3f 6f62 833f 1f51 8c3f 5323 673f
00000250: 431a 7b3f eee9 6d3f 6009 803f bbf4 883f
00000260: 40de 903f fb0a 833f a3ae 643f ddf9 753f
00000270: 6971 6b3f 3bc5 873f 7dc0 743f dc62 913f
00000280: bf77 853f 0b60 523f 6f03 713f 76a0 933f
00000290: 2a2e 833f ff20 673f a6a4 733f 0160 893f
000002a0: bb2c 6d3f 613f 733f e8a5 843f 95ca 8a3f
000002b0: b8b2 7d3f 779b 7c3f 22b3 6a3f 2636 9a3f
000002c0: 318b 803f 5a39 883f f43e 863f 6ff7 4b3f
000002d0: efe2 813f f89e 793f e415 5d3f 4df2 633f
000002e0: 7fc3 833f 62da 993f f274 7f3f 2f54 893f
000002f0: e77e 983f 0017 7c3f 5ae2 773f ee8a 553f
00000300: cdbb 6d3f 7db9 953f 7a06 843f 9711 6e3f
00000310: f44b 913f 24f5 6e3f 0c61 683f 7031 913f
00000320: 2f40 5a3f b9c9 7c3f c1c0 923f 4280 9d3f
00000330: dc1f 823f cdcb 813f 118b 903f 3f08 6e3f
00000340: 8982 723f 316f 693f 7fbb 8c3f c7b2 753f
00000350: 2326 643f 6652 873f 32a0 593f 1b82 6a3f
00000360: af9c 623f 1af8 923f 8c0b 823f 59d3 803f
00000370: 3d56 8a3f f9d3 6e3f b2df 6e3f 2c62 923f
00000380: 62e8 9a3f 0c9b 7a3f 05dd 663f 84da 733f
00000390: ae76 7f3f e144 703f 6a94 853f 3ba7 873f
000003a0: e09b 873f 977b 903f 69e7 713f de01 6b3f
000003b0: ac30 7d3f ec0b a13f 0127 843f f29f 943f
000003c0: a179 723f cc24 743f c20b 833f 09a3 833f
000003d0: 8c65 863f 2f36 783f 2da8 6f3f d000 573f
000003e0: f597 753f a457 793f 3108 8b3f ef20 8e3f
000003f0: c94b 773f e541 663f a15e 983f 7b96 593f
0.90080065 0.9565288 0.86138844 0.9232481 1.0454073 0.8570719 0.9464759 1.1322181
1.084715 1.146074 0.95329285 1.1444696 0.936508 1.0214744 0.8373722 1.0829797
0.9845605 1.2249212 1.1227282 0.7670216 0.8628209 1.0496308 1.1249254 0.99514985
1.0130503 0.9047977 1.0358927 1.1417807 0.9614432 0.892248 0.9626199 1.034081
1.0407214 0.8772403 0.97967315 1.1470386 1.0572243 1.0579065 0.95480543 0.95640266
0.9222664 1.1056197 1.0566064 1.122397 0.94453806 1.0456908 0.88986 0.969144
1.0048107 1.0689213 0.9490764 1.0010676 1.0987098 0.89899665 1.0413839 1.2081746
0.8950259 1.0559844 0.94728255 1.0521104 0.9087871 0.9248933 1.2691202 1.1029996
1.0473882 0.9154869 1.0679635 0.91484994 0.86216056 0.91306067 0.9549869 0.8121579
1.0206623 0.969136 1.0783168 0.8059796 0.8637052 1.0288522 0.9790661 1.0968096
0.91082567 0.9654004 1.0120634 0.7596045 1.025963 0.9183047 0.87679434 1.0154905
1.118278 0.99929345 1.0247331 0.99358195 0.9120529 0.89790124 0.9949403 1.0114634
0.99294263 0.94810784 1.155266 1.0931165 1.0282878 1.0576444 1.0880628 1.0334401
0.9872813 1.2161885 1.0230552 1.0121742 1.0726755 0.7525971 0.98267806 0.9964542
1.0149152 1.0009539 1.0273334 0.9108678 0.93260413 0.92886317 0.9630956 0.96981585
1.2207717 0.9405009 1.1366366 0.9447246 1.1343439 1.0600759 0.94054997 1.1022722
0.97680014 0.9984686 0.8666906 1.0397735 0.9805097 1.0828301 1.0911875 0.84857744
1.1059449 1.1685557 0.99683464 1.083238 1.0345618 0.958715 0.8997173 0.95174426
0.98043203 1.0264415 1.0962256 0.90288275 0.9808695 0.92935073 1.0002861 1.0699686
1.1317825 1.0237726 0.89328974 0.96084386 0.91969925 1.0607065 0.95606214 1.1358294
1.0427169 0.821778 0.94145864 1.1533344 1.0248463 0.90284723 0.9517311 1.0732423
0.9264638 0.95018584 1.036313 1.0843073 0.9910083 0.9867472 0.91679585 1.2047775
1.0042478 1.0642502 1.0487962 0.7967443 1.014738 0.9750819 0.8636153 0.89041597
1.0294036 1.201977 0.9978782 1.0728816 1.1913728 0.98472595 0.9682976 0.83415115
0.92864686 1.1697232 1.0314476 0.9299559 1.1351304 0.93342805 0.9077308 1.1343212
0.85254186 0.98745304 1.1465074 1.2304766 1.0165973 1.014032 1.129244 0.9298133
0.9473043 0.9118529 1.0994719 0.9597592 0.8912069 1.0572021 0.85010064 0.91604775
0.8852033 1.1481965 1.0159774 1.0064498 1.0807568 0.93292195 0.9331008 1.143621
1.2102168 0.9789283 0.90181 0.95255303 0.99790466 0.938551 1.0435917 1.059791
1.0594444 1.1287717 0.9449373 0.91799724 0.9890239 1.2581763 1.0324403 1.1611311
0.9471684 0.9536865 1.0237963 1.0284129 1.049974 0.9695768 0.9361599 0.83985615
0.95934993 0.97399354 1.0861875 1.11038 0.96600014 0.899443 1.1903878 0.8499524

encoder.1.bias f4 [256]
00000000: 6b5c 81be a081 d6bd d500 94be 8c15 14be
00000010: 390b bdbc 3aad 47be cfc0 4fbe 22d2 0c3e
00000020: 7d5c 7abd 378d 9b3c 0907 00bc 2baa 013e
00000030: 7170 54be e097 16be b78b c2be 217b 7b3d
00000040: 1f8e 14be bc90 093e bfed 073e 18b6 72be
00000050: 8d3a 82be ed7e f1bd 402b 35bd c08f 87bd
00000060: 417e 1fbe 60a1 4dbe d89e 82be 4b9b 17be
00000070: cf47 76be 0d37 40be 7f43 40be d069 03bc
00000080: e214 80bc 3e3e e7bd e602 32be 570c 1dbe
00000090: 3348 003e 9d3a 7dbd b0a4 afbe 1a0e 85be
000000a0: f8d2 ad3d 1b02 f8bd 7008 31be 3524 60be
000000b0: cce7 34be 8c64 f5bc f36c 5fbe dc33 39be
000000c0: ff18 89bd 9f18 51be c930 ebbd a54a a0bd
000000d0: ca9e 013d 1cda 90be 9138 c13d 7565 a03d
000000e0: 901b 7cbe e611 0a3d 42a5 3bbe 9d43 36be
000000f0: 49a8 21be 1ee1 1ebe 347a 823e f2f3 5ebe
00000100: 11e8 0ebe 39d0 67be 1718 083e 52cf 22be
00000110: 9c72 50be 0e91 f8bd 12bf 65be 5c4f 7fbe
00000120: cdee 3dbd ceb6 89be 5205 9dbc 3d9d 82be
00000130: b6f4 73be 96be 97be 4c18 01be eda3 053e
00000140: 5893 53be 7b48 61be cb83 dbbd a1af 64be
00000150: 9f35 8a3b 65a0 7dbe 56f8 60be 978e 79be
00000160: a24e 093e 5b66 14be bc26 ddbe 4579 8ebd
00000170: b6b9 44be ba7c 27be a25f f2bd e532 51be
00000180: bc3e 873c d7bc 6dbe 7c7a c0bd 644a 5abd
00000190: 4158 20be 332f 9fbc 363b 52be 8094 6cbe
000001a0: a577 53be ff2e 0fbc d57f cfbd 03c2 8cbe
000001b0: ca8a b6bc 4edb aabe 4d5f 9bbe 0166 56be
000001c0: 3982 edbd bbb8 88be dc31 3cbd a7e3 8dbd
000001d0: e24f 63be 038d 63be efa8 4fbe 4d91 56be
000001e0: 7e9d b4bd 0668 bdbe c846 8ebc 999d 67be
000001f0: 0958 52ba a2ab eabe 0f7d 1cbe 3861 7bbe
00000200: 5394 56be db20 5bbd 0872 9fbe e6a3 88bd
00000210: 3639 cfbd dc84 40bc 9b28 10be 6fb3 9abe
00000220: c9db 13bd 933e 553d 70c8 78be 3495 68bd
00000230: e74a 42be 8006 84be 1240 86be c79e 81be
00000240: 334c 22be 6861 9ebe b703 99be 2ceb 4ebe
00000250: 01b4 21be e9ee 86be 193d 5abe 388d 38be
00000260: 7a79 c43d a438 47be 1568 7bbe 6e33 9cbe
00000270: 07b5 1abe c8b3 363c cf75 6cbe d9e0 fdbc
00000280: d7db aebc 8518 72be ccf9 2dbe 017b 2a3d
00000290: c43e 04bd 6d2d 5dbe 37a3 83be 7e4a 92bc
000002a0: 6ff7 9cbe 032b 67be 6cfa 0fbe f29b 0e3e
000002b0: 509b 38be ca13 33be 9ef1 71be 6ec6 8dbd
000002c0: cc8e 0fbe 9734 0fbe 4711 7abe fe73 84be
000002d0: a7ee 63be 73f2 243c d8cc 58be 1483 9cbe
000002e0: 247f 5dbe 1317 2d3d 3c80 79bd e66f e4bc
000002f0: fc2b 51bd 63cb 0bbe 9a9c 7dbe 4e2b aabe
00000300: 07c6 65be c50d 2f3e ed7d 59bd aced b8be
00000310: 9246 e23a 2117 56bd 058a 72be af79 013e
00000320: 6f32 8fbe b4a6 713d 3ac9 89be 1f9e 42be
00000330: 742b bcbc d604 88be 0dd5 3ebd aa18 a9be
00000340: 8769 54be c5d4 8dbd 35af f53d 4a89 44bd
00000350: 7475 2cbe 5220 f9bd a57a 63be 6c13 54be
00000360: abd0 f9bd 8558 e33d a466 80be 4cd7 87be
00000370: 8390 0a3e 2c04 2cbe cace 67be 667c 5d3d
00000380: 52fb e43c fce9 debd 7d08 1fbe 93aa 2fbe
00000390: 0e69 66bd 5022 93be 2e10 debc 0e5d 383d
000003a0: 4d01 ebbd c8a2 5c3d 6b2b 2dbe 2e43 0fbe
000003b0: 17cf 91be 919c 86be 9846 8dbe 56dd 3c3c
000003c0: e666 4ebe aa2d 6ebd 7d92 31be dd13 40bd
000003d0: fbc7 123e bc59 70be 5fa9 a2be af5f a0be
000003e0: c5a8 72be f39f e7bc 7082 96be 455d 17bd
000003f0: 18bb f5bd 08e2 b3be 7546 e93d 20d3 88be
-0.25265822 -0.10473943 -0.28906885 -0.14461344 -0.02307664 -0.19499674 -0.20288394 0.13752034
-0.06112336 0.018988235 -0.007814177 0.1266257 -0.20746018 -0.14706373 -0.3799722 0.06139672
-0.1450734 0.13434118 0.13274287 -0.23702276 -0.25435296 -0.11791787 -0.0442307 -0.06619215
-0.15575506 -0.20081091 -0.25511813 -0.14805333 -0.2405083 -0.18771 -0.18775748 -0.008020833
-0.015634958 -0.11291169 -0.17383918 -0.15336739 0.12527542 -0.061823476 -0.34305334 -0.2598732
0.08487505 -0.121097766 -0.17288375 -0.21888812 -0.17666548 -0.029955171 -0.21818905 -0.18086189
-0.06694221 -0.20419548 -0.114839144 -0.07826737 0.031645574 -0.28291404 0.09434617 0.078318514
-0.2461989 0.033708476 -0.1832476 -0.1779923 -0.15786852 -0.15515563 0.2548386 -0.21772745
-0.13955714 -0.22638024 0.1329044 -0.15899399 -0.2035622 -0.12137042 -0.22436169 -0.24932617
-0.046370316 -0.2689728 -0.019167576 -0.25510588 -0.23823819 -0.29637593 -0.12606925 0.13050814
-0.20661676 -0.22000305 -0.10718497 -0.22332622 0.004217818 -0.24768217 -0.21969733 -0.243708
0.13408902 -0.1449217 -0.43193614 -0.06956724 -0.19211468 -0.16356173 -0.11834647 -0.20429571
0.016509406 -0.23216568 -0.09398362 -0.0532936 -0.15658666 -0.019431686 -0.205304 -0.23103523
-0.2065111 -0.008739232 -0.10131804 -0.2749177 -0.022282977 -0.3337044 -0.30346146 -0.20937349
-0.115971036 -0.26703438 -0.045945987 -0.06928187 -0.22198442 -0.2222176 -0.20279287 -0.20953865
-0.08819102 -0.36993426 -0.017367736 -0.22618712 -0.00080239825 -0.4583407 -0.15282081 -0.24548805
-0.20955019 -0.05349813 -0.31141686 -0.06671886 -0.10118334 -0.011750426 -0.1407799 -0.30215022
-0.036098275 0.05206163 -0.24295211 -0.056782916 -0.18973885 -0.2578621 -0.26220757 -0.2531645
-0.1584938 -0.3093369 -0.29885647 -0.20206898 -0.15791322 -0.2635415 -0.2131237 -0.1802262
0.09593482 -0.194552 -0.24551423 -0.30507988 -0.15108119 0.011151262 -0.23091815 -0.030991005
-0.021345062 -0.23642166 -0.16989821 0.041621212 -0.03228642 -0.2159936 -0.2571046 -0.017857786
-0.30657527 -0.22575001 -0.14060372 0.13926676 -0.18027997 -0.17488018 -0.23627326 -0.06922613
-0.14019316 -0.13984905 -0.24420653 -0.25869745 -0.22259007 0.01006757 -0.21171892 -0.30568755
-0.21630532 0.042258333 -0.06091331 -0.027885389 -0.051067337 -0.13651805 -0.2476677 -0.33236164
-0.22438823 0.17095096 -0.053098608 -0.3611883 0.0017263463 -0.05226815 -0.23685463 0.12644075
-0.27968165 0.05899687 -0.26911336 -0.19005631 -0.022969939 -0.2656619 -0.0465899 -0.3302663
-0.2074338 -0.06925348 0.11996309 -0.04798249 -0.1684168 -0.12164368 -0.22214754 -0.20710534
-0.121980034 0.11100868 -0.2507831 -0.26531446 0.1353169 -0.16798466 -0.22637478 0.054073714
0.02795187 -0.10884473 -0.15530582 -0.17154913 -0.05625253 -0.28737116 -0.027107324 0.04501062
-0.114748575 0.053866178 -0.16911094 -0.13990471 -0.2847831 -0.26291326 -0.2759292 0.01152738
-0.2015644 -0.058149017 -0.17341037 -0.046893943 0.14334099 -0.23471731 -0.31769845 -0.31323
-0.23697193 -0.028274512 -0.2939639 -0.036954183 -0.11998576 -0.35133386 0.11390392 -0.26723576

encoder.1.running_mean f4 [256]
00000000: 68ac 3bbf 1d5b 44c0 f8da 1cbf 4fde dbbf
00000010: 41cc c63f 2a0e 7b3c 9ff1 d13f 9fd1 86bf
00000020: 7185 2340 57bd 4140 885d b4bf 8d9c da3e
00000030: f188 66bf 2151 31bf d146 8fbf 526b 82be
00000040: e2b6 193f 6fd4 ad3f 90fd 0fbf d95b abc0
00000050: 8e54 88bf 8dbc 2cc0 016d 06c0 12ff 153f
00000060: db67 96bf 4206 e73d 964d 953f d936 8b3f
00000070: 9466 0a3e b3f7 f0bf 0dbd dabf 5fd5 ae3f
00000080: 9ab5 dd3f 28c2 d6bf 6fdc a83e c28f 613f
00000090: a8c6 36bf a578 bb40 586f 30bf 7eff f9bf
000000a0: 2c3c 50c0 9ef4 b3bf 3115 d1bf 722e 8d3d
000000b0: 4f8f 5cc0 723c 1c40 55ed 0dc0 a1bb 533e
000000c0: f252 e53f 8ced aa3f 3624 6abf 2732 bf3f
000000d0: 84e8 3640 d97e 723f 9e37 60bf 914a 74bf
000000e0: 7b26 a8bf c102 59bf ea2b a1bf 8407 a73e
000000f0: cec5 13c0 5d89 09c0 24ab 0a3c e7d1 67bf
00000100: 7067 dbbe dd2a d23f e86d 1bc0 810b fa3e
00000110: 3ba4 20be 8dca 89bf 8439 643e 7653 e1be
00000120: 1c78 0b40 ef48 05c0 7851 a23f c148 df3d
00000130: 75e9 32c0 9e6a 523e b2c8 89bf 0c86 e83e
00000140: 40f3 4040 77f9 91bf 5c0a ccbe 2e1c d0bf
00000150: 92ce ca3e 740d fa3f 82b7 04bf d565 6140
00000160: ac8c 943f a804 3dbe 0583 963f 3dfd 87bd
00000170: 2888 103e bbb0 9d3e 51e9 08bf 013c 7fbe
00000180: bca0 7cbf 6f36 8240 f0a0 8840 47f5 d03f
00000190: c836 5ac0 93e6 2040 5773 a440 839e d4bf
000001a0: 4143 00c0 b1a1 5540 f224 b5bf b4a2 f93f
000001b0: e5f4 4e40 78b0 d1be 854c 0140 8ca5 bd3f
000001c0: 046f 6a3e c5db 3f40 98a5 1b40 7858 3ac0
000001d0: ecc3 49c0 8fd8 7140 c359 8c3f 546b 3940
000001e0: d002 9340 8e16 4a40 8f58 053f 80f7 c63f
000001f0: b003 eabf 255e 263f afa0 f33f 3a7e 0a3f
00000200: 70e0 633e df22 aa40 0192 5dc0 14fc 9cbd
00000210: 944a 38c0 751a dc3f ed97 10c0 7070 0ec0
00000220: 70d4 22c0 3ca2 c73f 5368 6140 a18d 8a40
00000230: 3214 d3bf 8056 16c0 e2a8 f6bd 2852 6640
00000240: 0bfb abbe fb9b febf 314a 2d40 8d31 cdbe
00000250: 60fd 513f c188 afbd 3b82 efbf e2b0 973e
00000260: 7b30 413f 4c60 3340 fc5d 4b3e ed37 a3bf
00000270: 3578 903f c921 283e fca4 933e 9a5d 80bf
00000280: ae9f 0d40 821f a9bf fe62 f23f 9ff8 da3f
00000290: 7f99 4c3f 7808 81be 6362 733e 9c08 d63f
000002a0: c4c4 f0bc 2ebc 4cbf 5d5a de3f ba3f 81bf
000002b0: 13e4 29bf 37e0 54c0 279d a9c0 c247 4540
000002c0: ad78 27c0 875b 583f 79b5 89bf 0b00 45c0
000002d0: 2292 4c3f f663 b0bf c27e 27c0 694b e7be
000002e0: 0b4e 03bf e84d 703f 40ce 893f 0559 f43e
000002f0: a0b1 3a40 6da7 f8be 01ff 4c40 3e95 563e
00000300: 270c 7cbf 165f a4be 8565 0040 45cf c5be
00000310: 9208 5140 2127 b13f 23d9 2340 03a4 b43f
00000320: 370c ad3e 4f29 51c0 d324 853f 2452 74be
00000330: 64f3 c23f c579 0d40 ba81 5240 0c53 2f3e
00000340: a8a6 1dbf 1509 e83c 147a 9d3d 2f11 4b40
00000350: f460 6cc0 4776 1fbf 842f 00bf 102f 22c0
00000360: 7a52 49c0 907c 78bd 52d8 083f 3c87 3e40
00000370: c6c6 2bbf ceff 143d 3ee1 85be df69 953f
00000380: 70f0 6c3e 9639 d5bf 1add b53e 587d d2bf
00000390: ee01 f03f d602 c23e 5220 0740 a8f8 783f
000003a0: d98d 3cc0 2f2d ddbf f488 afbf dbd5 6fc0
000003b0: 945c 503e fe92 0840 9f18 163f eb0f aa3f
000003c0: ecd2 4a40 c9ed bf3f 2922 1040 6b7f f93f
000003d0: 1213 943f ac7f 373e 531b 45c0 8d48 fcbf
000003e0: 3952 6ec0 c2e3 113e b8e9 6e40 7cb7 2740
000003f0: e067 c93f 4777 cabf 66a6 423f b698 22bf
-0.73309946 -3.068061 -0.6127162 -1.7177218 1.5531083 0.015323201 1.6401862 -1.0532721
2.5550196 3.0271814 -1.4091043 0.42697564 -0.90052706 -0.6926442 -1.1193486 -0.25472504
0.6004468 1.3580455 -0.5624628 -5.354962 -1.0650804 -2.6990082 -2.100403 0.5859233
-1.1750444 0.112804905 1.1664302 1.0876113 0.13515693 -1.8825592 -1.7088944 1.3658866
1.7321045 -1.6778002 0.32980677 0.8810998 -0.71396875 5.858477 -0.689199 -1.9531095
-3.2536726 -1.4059026 -1.6334592 0.06893624 -3.4462469 2.4411893 -2.2176106 0.20677043
1.7915938 1.3353744 -0.91461504 1.493718 2.8579416 0.94724804 -0.87584865 -0.9542628
-1.3136743 -0.8476983 -1.2591527 0.3262292 -2.308948 -2.149009 0.008463655 -0.9055466
-0.42852354 1.6419331 -2.4285831 0.48836902 -0.15687649 -1.0764939 0.22287565 -0.44008988
2.179206 -2.0825765 1.2681112 0.109025486 -2.795499 0.20548484 -1.0764372 0.4541477
3.0148468 -1.1404256 -0.39851654 -1.62586 0.39610726 1.9535356 -0.5184251 3.5218403
1.160543 -0.18458807 1.1758734 -0.06640098 0.1411444 0.30798897 -0.5348101 -0.24925233
-0.9868276 4.0691447 4.2696457 1.6324853 -3.4095936 2.5140731 5.1390796 -1.6610874
-2.0041049 3.3379939 -1.41519 1.9502778 3.2336972 -0.40954947 2.0202954 1.4816146
0.22893912 2.9977887 2.431982 -2.9116497 -3.1525831 3.7788427 1.0964893 2.8971758
4.5940933 3.1576266 0.52088255 1.5544281 -1.8282375 0.64987403 1.9033412 0.54098856
0.22253585 5.3167567 -3.4620364 -0.076652676 -2.879552 1.7195574 -2.2592728 -2.2256126
-2.5442162 1.5596385 3.5219924 4.3297887 -1.6490538 -2.3490295 -0.120439306 3.5987644
-0.33589968 -1.9891351 2.7076533 -0.40076867 0.82027245 -0.085710056 -1.8711618 0.29627138
0.754646 2.8027525 0.19860071 -1.2751442 1.1286684 0.16419138 0.2883681 -1.0028565
2.212871 -1.321274 1.893646 1.7107123 0.79921716 -0.25201774 0.23768 1.6721377
-0.0293907 -0.7997464 1.7371327 -1.0097573 -0.6636364 -3.326185 -5.3004336 3.0825047
-2.6167405 0.8451466 -1.0758506 -3.0781276 0.7991048 -1.3780506 -2.6171117 -0.4517472
-0.5129096 0.93868876 1.0766068 0.47724167 2.9170914 -0.48565236 3.2030642 0.20955369
-0.98456043 -0.32103795 2.0061963 -0.38634697 3.266148 1.3840066 2.560128 1.4112552
0.33798382 -3.2681463 1.0401863 -0.23859459 1.5230527 2.2105572 3.289168 0.17121524
-0.6158242 0.028324643 0.076893 3.1729238 -3.6934175 -0.6228985 -0.50072503 -2.5341225
-3.145659 -0.060665667 0.5345508 2.977004 -0.6710018 0.036376767 -0.2614841 1.1672934
0.23138595 -1.6658199 0.3552025 -1.6444502 1.8750589 0.3789279 2.1113477 0.9725442
-2.9461577 -1.7279414 -1.371367 -3.7474277 0.20347816 2.1339717 0.5863132 1.3286108
3.1691236 1.4994441 2.252085 1.949201 1.156832 0.17919797 -3.0797927 -1.9709641
-3.7237685 0.14247039 3.733015 2.620574 1.5734825 -1.581765 0.76035154 -0.6351427

encoder.1.running_var f4 [256]
00000000: ae94 1b3a 3605 783d 4c3b 313b af8d bf3c
00000010: 1798 8b3c 2777 dd3b e9ef e63b e4b0 923c
00000020: 2014 d33c 75df 703c b0e9 053a 7437 fe39
00000030: 63df e93b 98f2 6d3b dfa8 393c 5050 0a3a
00000040: a814 ac3b 07e6 d43a 4e74 fd3a dca7 973d
00000050: c735 b73b eb3b ec3a c62c 843b 9e26 2f3c
00000060: be82 4e3a c87c 163b 2446 cc3b 33ee e33a
00000070: 4517 9d3a 1e84 273c 10be df3c 0cfc 373c
00000080: cb5a 8f3b 7358 053c 4d49 9c3b 98b2 e83b
00000090: 760a f43a c5a1 eb3d 25f5 4339 433d 823c
000000a0: b2f9 c13c 9ba6 b93b 8607 f83a c32b 4e3a
000000b0: 24cc 353d bbbe 1f3d 0a75 4f3d 0ae2 003b
000000c0: da97 943c a077 163b ac54 9c3b e9f2 f63c
000000d0: 7fa6 d53b a25c 613c 9f1d ff3a 6899 873b
000000e0: 714d eb3b 5ebd 753b b5d0 fc3c 31fc 6c3c
000000f0: 95bc 913c 42bb c93c 7587 5d3b d627 cd3a
00000100: 1a79 853b d711 0a3c a5aa 723c a8cb 833b
00000110: 5d6e 963b ccf8 ab3b 8a8a 9c3b 6790 6b3c
00000120: 074a 013d 377f b83a 6012 a53b af07 da3b
00000130: 6e71 c43c 68f5 a73b 3c23 d23b 3175 853a
00000140: 1307 153d 84cc d93b 5029 ef3b ef98 1c3c
00000150: 654e 9a3b d925 963c eb7c 953b cc28 3f3d
00000160: b5d6 0b3b 5e91 113c 19aa 613b f95f 2b3a
00000170: 98c5 0b3c 7887 913b 078c 473c dca6 883b
00000180: 73e7 8f3a e755 893d 7207 ea3d 2f20 f43c
00000190: a7ea 073d 07e8 913c 9688 8f3d 5e40 d739
000001a0: 5a3f 0b3d 7a14 ae3c d70d a33b 4b1d e13c
000001b0: f2cb e03c 89ae ae3b 2416 ad3c 2b64 133c
000001c0: e74d c73b 76bb 8b3d 773b 0e3d 8e79 193d
000001d0: 34a7 fd3c f4f1 603d 00b9 7a3c 2591 7a3c
000001e0: 8e7b cd3d 6f1d 4a3d d0e2 383b a08f 863c
000001f0: a8c0 723c d481 303c a65a dd3c d436 1a3c
00000200: 0c05 083b abec cf3d ec90 653d d233 883c
00000210: 65fd 0a3d 7611 cb3c e925 f63c 20b9 523c
00000220: 564a 183b 1ced d53c f805 823d ba36 9d3d
00000230: 7468 a23c 9579 9b3a 8ea2 793c dcfc 7b3d
00000240: 3890 d63b 2cd4 e83b 1f4b 1c3c 4a78 a03b
00000250: 96c8 c73b 2967 9a3a e881 cd3c c559 483b
00000260: 9c9d 5b39 78cd f13c cc45 de3b 43e5 003c
00000270: 9970 863c 50d1 843b 97de c33b dfa6 a73b
00000280: df20 ba3c cc71 e63c e7fa e33b ebd7 e03b
00000290: 5300 af3c 9810 003b 5651 dd3b d0c3 633c
000002a0: 97a9 4d3c cdce a63b fa93 ce3b 8b6d 323c
000002b0: 2e03 d23b 71dc 363d 81c1 ae3d ef32 843d
000002c0: a58f 0f3d 0355 103b 695b 823c 7c9e 973d
000002d0: fccc 0c3c 50ff 923b ce21 043d a2a6 3d3b
000002e0: 030d 003c a667 b43b dc64 903c 3359 aa3b
000002f0: fe2e 143d f346 923b 35f3 1e3d 6165 3a3c
00000300: 8465 ab3a df49 2d39 7145 313d 4099 3c3c
00000310: 7084 c53c 09d1 153c ae92 ba3c b0df 7d3a
00000320: fd83 573b 7929 d93c d18e 283b 6dba 173b
00000330: dc09 1a3c 9447 173d e96e 063d 949c 1e3c
00000340: c7ad 0e3b 0c5a 233c a999 c53a 87c3 013d
00000350: f677 e33c 5cfc 473b 99d6 c93b 1168 f43b
00000360: caa3 143d f011 9c3a 7ebc d13b 1e92 943d
00000370: 8359 3b3a ed07 4f3b a9a3 db3a 6a9f ee39
00000380: dab3 af3b b58b 9d3b a4d9 db3b fe33 f83c
00000390: ffde 663d 9548 1f3c 4f04 b63c b270 463b
000003a0: 5893 443d f240 9b3b 06a8 de3b 4a22 7f3d
000003b0: 5262 613b 29f8 233d 884b 643c d169 373c
000003c0: 1237 833d 513e 8d3c 35af 263c 9263 443c
000003d0: ed95 013a 124d 293c a339 b43b 2ecd 103d
000003e0: be17 883d 372e dd3b dcb9 863d f15d ca3c
000003f0: bd9f 2b3b 59bc 1b3c e1a7 a33b eaa6 dc3b
0.0005934936 0.060551845 0.00270434 0.02338299 0.017040296 0.006758589 0.0070476425 0.017906614
0.025766432 0.014701714 0.00051083695 0.0004848797 0.0071372255 0.0036307927 0.011331766 0.000527625
0.005251486 0.001624287 0.001933703 0.074050635 0.0055911276 0.0018023228 0.0040336577 0.010690359
0.00078777585 0.002296256 0.0062339474 0.0017389714 0.0011985084 0.01022437 0.027312309 0.011229526
0.004374837 0.008138764 0.0047694803 0.007101368 0.001861884 0.115054645 0.00018687973 0.015898352
0.023678634 0.005665613 0.0018923141 0.00078647974 0.044384137 0.039000254 0.050648727 0.001966598
0.018138815 0.0022959486 0.004770836 0.030145125 0.006520092 0.013754996 0.0019463784 0.0041381605
0.0071808626 0.0037496905 0.030861238 0.014464424 0.017790118 0.024625424 0.0033802663 0.0015652131
0.0040732743 0.008427105 0.014811193 0.0040220805 0.004590793 0.0052481648 0.0047772573 0.01437769
0.03156474 0.0014075999 0.005037591 0.006653748 0.023979869 0.0051256903 0.0064128917 0.001018202
0.0363837 0.0066466946 0.007298626 0.009557947 0.0047090524 0.018328594 0.0045620105 0.046669766
0.0021337692 0.008884756 0.0034433661 0.00065374334 0.008530997 0.004441198 0.012179381 0.004170282
0.0010979011 0.06705838 0.11427201 0.029800503 0.033182766 0.017810835 0.070084736 0.00041055953
0.033995964 0.021249998 0.004976015 0.027479788 0.027440999 0.005330865 0.021128722 0.00899605
0.0060822847 0.06822865 0.03472468 0.03746944 0.030963518 0.054918244 0.0153028965 0.015293394
0.10033332 0.049344476 0.0028211363 0.016425908 0.014816441 0.010773141 0.027020764 0.009412486
0.0020754961 0.10152563 0.05604641 0.016626272 0.033933062 0.0247886 0.030047374 0.01286152
0.0023237667 0.02611404 0.06348795 0.07676454 0.019825198 0.0011861796 0.01523651 0.061520442
0.006547954 0.007105371 0.009539395 0.004897152 0.0060969098 0.0011780012 0.025086358 0.0030571085
0.00020944182 0.02951692 0.006783223 0.00786716 0.016411113 0.0040532723 0.0059774625 0.005116328
0.022720752 0.028130434 0.0069574 0.006861677 0.02136246 0.001954114 0.0067540808 0.013901666
0.01255264 0.0050905705 0.0063042613 0.010890375 0.0064090705 0.044643823 0.08533002 0.06455027
0.0350491 0.0022023327 0.015912728 0.07403275 0.008593794 0.004486002 0.0322588 0.0028938432
0.007815602 0.00550552 0.017626218 0.0051986217 0.036177628 0.004464024 0.03880616 0.01137671
0.0013076519 0.00016526085 0.043279115 0.011511147 0.024111003 0.009144076 0.02277502 0.0009684516
0.0032885068 0.026509034 0.002571989 0.002315189 0.009401765 0.036933497 0.032820616 0.009680886
0.002177106 0.009970199 0.0015075702 0.03168061 0.027767163 0.0030515408 0.0061596152 0.0074586947
0.036289014 0.0011907201 0.006400644 0.07254432 0.0007146822 0.0031590417 0.0016757149 0.0004551367
0.005362016 0.004807914 0.0067092944 0.03029823 0.05636501 0.009721895 0.022218851 0.0030279574
0.04799208 0.0047379667 0.0067949323 0.06228856 0.003439088 0.040031586 0.013934024 0.011194662
0.06406988 0.017241629 0.010173609 0.01198663 0.00049433 0.010333316 0.005500035 0.035351925
0.066451535 0.006749894 0.065784186 0.024702998 0.002618774 0.009505355 0.004994378 0.006733765

encoder.4.weight f4 [128, 256]
00000000: 1d3f d63d 3599 b03d 9a76 eebd 5b17 7e3d
00000010: b736 47bc a5be 513d 57b6 28bc af49 163e
00000020: 58ee a43c 1dfe efbc aeda 56bd 8115 73bd
00000030: 9e27 b53d ba61 a0bd 37ba fa3c 9d05 5bbe
00000040: 0095 82bd 6ed9 38be 86fb 69bd 04ac b43c
00000050: 83e2 293b 104d ebbd d4fb 36be 2aff 8a3d
00000060: 1d3b 88bd 397d 653c 0b8a 9f3d 165a 503d
00000070: 59ba a0bd f507 11bd 9e7c 133d f787 ecbc
00000080: a06b fd3d b294 9ebd 055f 303e 19ef 9e3d
00000090: 54cd 49be 42eb 6fbc 85e3 6a3c 5155 bcbc
000000a0: f6c8 acbc 8964 c1bd ea1b 1dbd 6398 edbd
000000b0: b68f cf3d 7ab2 503c 2409 ae3d a810 b63d
000000c0: 5997 403d 84fb a73d fdfb b7bd 78f9 b83c
000000d0: 16ed 0f3e 6265 48bc 01af b73c 8c88 2e3d
000000e0: 52ef c03a 89dd 18be 3c56 4e3d 5b3a c43c
000000f0: 7f84 9a3d 08ee 0c3e 212c 153e e7b6 2f3e
00000100: 0f4a efbd 3274 903d 8cbf 583d bc33 d5bc
00000110: 5605 143e e657 47bd ded9 413d e8c5 143b
00000120: d314 223d 501f fcbd 4aed 1e3e 9ab8 6d3d
00000130: 88b0 263d 4994 953d 8ebc 123e 80cf 2e3c
00000140: 261f dd3c d8f3 b3bd 5d7c 1ebd b864 223d
00000150: d88c 68bd 8169 e13c 82f2 b3bc ef34 463d
00000160: aa75 2abe d91a d03b 1e40 983c d649 c4bd
00000170: 9cee c93b 43bf 1c3e f5b3 43bd 00ca 013d
00000180: ebee e0bd d0fd cb3d 4b3c c1bd f688 363d
00000190: be1c 513d 7c2e 883d e9de 593d e699 cfbd
000001a0: 1ee0 f23c 76a6 afbc ef95 3fbe ca7d dfbc
000001b0: bf35 9f3d 1cdc 963d 8aec 173d a95b 233c
000001c0: 7aa2 9c3d 201e 633d f7ff 84bd 544b be3c
000001d0: 1ed5 0d3e 2d7f 983d 9ea1 cebd d415 bb3d
000001e0: d052 c5bc e06b e33c 8c10 9abc 378a 633d
000001f0: 2d9e bcbc 5d11 5d3e 6e3e 333d 4c0d 2e3d
00000200: 828e 4a3d 3a05 e23d 97da 94bc 5cbc 803d
00000210: 0249 56bd ae76 e9bb ee29 c7bc 0a22 783d
00000220: 4510 60bd 8082 e2bd 80ee 663d 7f01 be3d
00000230: 07a8 513d b0cc 23be 1bee eebc bb36 103c
00000240: 7886 5b3d 73a0 963d fd22 a33c 1a55 e1bd
00000250: 4ae5 353d 883b b3bd 894d bc3d 7d0e 273c
00000260: 377e e6bd c9c2 97bc 075d a63d b555 d23d
00000270: 01c9 833d 9f3d 89bc a862 113e 778d 47be
00000280: fb15 963d b669 443e a5ee de3d 6c88 32be
00000290: 9277 ea3d 68c5 32bd 09f6 6a3d cc2b 123e
000002a0: 6bc2 a73d caf5 643d 4078 2abd 3b4d 423e
000002b0: 52cf 86bd f950 b93d 3ed3 a8bd 197e fc3d
000002c0: edf3 80bc 6685 223c 6fc9 003e 5f7d b23d
000002d0: 21ec 49bd 0b2b af3d cdaf b73c b3d2 3ebd
000002e0: 9fcb e0bd 26f1 62bc 3324 fe3d 6dc1 bfbc
000002f0: c307 55bd 6914 da3c 8b85 6c3c e744 ce3d
00000300: 2b55 2fbe ad15 febd 7629 09bd 58da d73c
00000310: 348b b5bd 0bbf 7a3c 615e 543d a577 88bd
00000320: 411c be3d 94ce 20be d601 34bd 1dc6 803d
00000330: 2036 5fbd a84f db3b 92bf 0e3d 6248 ebb9
00000340: ea91 bcbd bbee 003e 0fc3 c23d 691b 403d
00000350: f1d9 c9bd eb65 21bd cd5c 263d b8f7 073c
00000360: 1f28 263d 937e 3cbe 76c1 373d 4404 153e
00000370: ebe2 cb3d cabc 53bc 863c be3c e6fc 9fbd
00000380: a036 fb3c dd82 2bbe 0b5e c13c f0a4 f4bd
00000390: 6ad5 4e3d 4e12 913c d063 8e3d 3f5b 43be
000003a0: 1b4d 843b a8c3 ccbd 9314 413d ae3a 1f3c
000003b0: 3035 d03d f17e 033e 5442 ab3d 1174 4bbd
000003c0: fa01 bd3c 7ba3 a8bc 8ab6 e43d 867b 713d
000003d0: 6c89 043e cfc1 c93d 2e92 733d b659 863d
000003e0: eb51 4a3d cdb8 00bc 7785 d93d 46d4 223c
000003f0: 546f e53d 3d5c c93d af3e ecbd cad8 a6bb
0.10461257 0.08622972 -0.11643715 0.062033992 -0.012159041 0.051207203 -0.010297379 0.14676546
0.020133182 -0.029295975 -0.052454643 -0.05934668 0.08845447 -0.0783114 0.030606372 -0.2138886
-0.06376076 -0.18051693 -0.057124637 0.02205468 0.0025922365 -0.11489308 -0.17869502 0.0678695
-0.066519 0.014006906 0.077900015 0.050867163 -0.07848043 -0.03540798 0.036007516 -0.028873427
0.123740435 -0.07743205 0.17223747 0.07760448 -0.19707233 -0.014643492 0.014336471 -0.0229899
-0.02109192 -0.09443004 -0.0383567 -0.11601331 0.101348326 0.012737865 0.08497837 0.08889896
0.047019336 0.0820227 -0.0898361 0.022579893 0.14055285 -0.012231203 0.022422316 0.04261069
0.001471976 -0.14928259 0.05037521 0.023953607 0.07544803 0.13762677 0.14567615 0.17159615
-0.116840474 0.070534125 0.05291705 -0.026025645 0.1445516 -0.04866781 0.047326915 0.002270097
0.03957064 -0.1231066 0.15520206 0.058037378 0.040695697 0.07303674 0.1432974 0.010669589
0.026992392 -0.08786744 -0.03869282 0.039646834 -0.056774944 0.027516128 -0.021966223 0.048390325
-0.16646448 0.0063508567 0.018585261 -0.095843956 0.0061624777 0.15307336 -0.047779042 0.031686783
-0.1098307 0.0996052 -0.09435328 0.04456421 0.0510528 0.06649491 0.0531911 -0.10136776
0.029647883 -0.02144168 -0.18709539 -0.02728166 0.07773923 0.07366201 0.037090816 0.009970584
0.076481774 0.05544865 -0.06494134 0.023229279 0.13850829 0.07446132 -0.1008942 0.09135023
-0.02408734 0.0277614 -0.018806718 0.055551734 -0.023024643 0.21588655 0.04376071 0.04249315
0.049452312 0.11036153 -0.018170638 0.06285927 -0.05231572 -0.0071247434 -0.024311986 0.060579337
-0.054703016 -0.11060047 0.056379795 0.09277629 0.051185634 -0.15996051 -0.029166272 0.008802111
0.053595036 0.07354822 0.019914145 -0.1100256 0.04440812 -0.08751589 0.09194476 0.010196325
-0.11254542 -0.018525498 0.08123212 0.102702536 0.06434823 -0.016753016 0.1419779 -0.19487558
0.07328411 0.1918095 0.108853616 -0.17434853 0.114485875 -0.043645293 0.057363544 0.1427452
0.08191379 0.055898465 -0.041618586 0.18974774 -0.06582512 0.090486474 -0.08243416 0.12328739
-0.015741313 0.0099195 0.12576841 0.08715319 -0.049297456 0.08553132 0.022422696 -0.046587657
-0.10976338 -0.01385144 0.12409248 -0.023407662 -0.052009355 0.02662106 0.014436136 0.10071736
-0.17122333 -0.12406478 -0.033486806 0.026349232 -0.088644415 0.015304337 0.05184782 -0.066634454
0.09282733 -0.15703803 -0.043947063 0.06287787 -0.054494977 0.0066928454 0.034850664 -0.00044876622
-0.092075184 0.12591068 0.09509861 0.04690114 -0.09856022 -0.039403837 0.040615845 0.008298807
0.040565606 -0.18407659 0.044862233 0.14552408 0.099553905 -0.012923429 0.02322222 -0.078119084
0.030665696 -0.16749139 0.023604413 -0.11945522 0.050496496 0.017708924 0.069526315 -0.19077776
0.004037512 -0.09998256 0.04713876 0.00971858 0.10166395 0.12841393 0.083622605 -0.049671236
0.023072232 -0.020585766 0.11167629 0.05895569 0.12943047 0.09851419 0.05946558 0.0656008
0.04939453 -0.00785656 0.106211595 0.009938305 0.11202875 0.09832046 -0.115353934 -0.0050917612

encoder.4.bias f4 [128]
00000000: 2d72 e63c 210f 99bc dac0 543d 9b9d f7bc
00000010: 573c 13bc 7906 6cbd aac6 cabc 3c4e 0e3d
00000020: 6aa1 68bd 251b 9d3c 3406 d9bc 6bac 493c
00000030: b0d5 833c bc1f 6e3d ee12 903c a0ec b83c
00000040: edab eabc 58bb 29bc a510 7d3c 289b 3e3d
00000050: 9444 ebbc 512f 813b 1d06 51bd 2219 313d
00000060: ded4 5ebc 024d d8bc fff0 05bc f88f fd3c
00000070: f531 d5bb 2d75 e13c 83de 63bd 2b58 033d
00000080: f1da 7d3d 488b 27bd 6d07 183d e16e 833b
00000090: 5655 053d af75 f3bc e2ff e1bb 2868 8b3c
000000a0: 71a5 933c 51ef 8bbc e98d 50bd 65af b8bb
000000b0: f36f ecbc 7245 cfbc 1d3d 513b f4fe 383d
000000c0: 777e 38bd f6e4 77bd 8bae 09bc 036c 84bc
000000d0: 9ecc dcbc 4934 19bb 664d 5d3d 0b7c 21bd
000000e0: c7c5 0b3d 5aac 29bd b2f8 623b d00a 3bbd
000000f0: 96a9 3d3c b9f8 77bd ace5 0bbd dcf0 1f3d
00000100: c435 63bd dd2d 96bb 49e9 febc ff7d 6a3d
00000110: 19d7 2e3d a51d ebbc 0219 10bc 8f98 3f3d
00000120: 8709 3abd 86d7 d3bc da09 423d 4434 c83a
00000130: 83d9 873c 9087 32bd 05f5 c6bc a2a3 02bc
00000140: ca46 30bd 00e4 573d 3d96 b43c 1f4c 67bd
00000150: 3b71 1f3d fc85 07bd b203 ea3c decf 12bb
00000160: df79 31bd 390d a93b 6a9b 32bc 782a 843c
00000170: 74d7 493d 2d6f 1abd e6d3 70bc fa33 3cbc
00000180: 33d1 6a3d 61db 6ebd aea3 5c3c 7977 9cbc
00000190: 52b8 cb3b 9d4a 383d c8df 753d c9b0 eabc
000001a0: fbe0 c83b 3df5 5cbd 0f08 f7bc 0c37 46bc
000001b0: afd6 163d 5791 38bd d7b8 723d fefe b83c
000001c0: 2f50 acbc 0fad 02bd 28f4 2fbd b08b 6bbd
000001d0: 9535 5a3d 58b4 1dbd dd35 423c 9872 7bbc
000001e0: 0e51 ea3c 9cf1 3db9 10cf 933c 525a 81bc
000001f0: ef48 cd3c 8886 53bc cc02 35bd 1d14 143d
0.028130615 -0.018683972 0.05194173 -0.03022652 -0.008986554 -0.05762336 -0.024752934 0.03474258
-0.05679456 0.019177983 -0.026492216 0.012309174 0.016093105 0.058135733 0.017587151 0.02257377
-0.028646434 -0.010359608 0.015445863 0.046534687 -0.028719224 0.003942408 -0.05103122 0.04323686
-0.013600556 -0.026403908 -0.008175134 0.030952439 -0.0065061995 0.027521694 -0.055632126 0.032066505
0.061976377 -0.040904313 0.037116457 0.0040110205 0.032552086 -0.029719202 -0.0068969587 0.017017439
0.018023225 -0.017081888 -0.050916586 -0.005636143 -0.028861975 -0.025301669 0.0031927295 0.045165017
-0.04504248 -0.06052109 -0.008403431 -0.016164785 -0.026953038 -0.0023377112 0.05402889 -0.039424937
0.034124162 -0.041424133 0.0034633097 -0.04566461 0.011576077 -0.060539935 -0.03415458 0.03904806
-0.055471197 -0.004583104 -0.031117098 0.057249065 0.0426856 -0.028700659 -0.008795025 0.04677635
-0.045419242 -0.025859606 0.047372676 0.0015274365 0.01658321 -0.043586314 -0.024286756 -0.007973583
-0.04303626 0.052707672 0.022044295 -0.05646908 0.038926344 -0.03308676 0.028566215 -0.002240173
-0.043329116 0.005159047 -0.010901311 0.016133532 0.049277738 -0.03770368 -0.014698958 -0.011487002
0.057328414 -0.058314685 0.013466759 -0.019099938 0.006217041 0.04499303 0.060027868 -0.02864875
0.0061303354 -0.053944815 -0.03015521 -0.012098085 0.036825832 -0.045060482 0.05925831 0.022582527
-0.021034328 -0.031903323 -0.042957455 -0.057506263 0.053273756 -0.038502067 0.011853662 -0.0153471455
0.028603103 -0.00018114451 0.018043071 -0.015790138 0.025059192 -0.012910493 -0.04419212 0.036151994

encoder.5.weight f4 [128]
00000000: 14a5 753f b9d8 943f 3eaa 783f 9b84 8d3f
00000010: 559e 8d3f e1b6 8a3f aaf1 7d3f ed5b 863f
00000020: dc49 753f ab3d 603f 901a 873f bbba 703f
00000030: c2e1 873f 535b 7f3f b5b2 7b3f f5b5 8f3f
00000040: fced 5e3f 691b 753f 077e 803f e86a 8d3f
00000050: adf8 873f aa5d 7f3f 6511 863f 99de 913f
00000060: a40a 6c3f 6792 693f 38a1 873f 14ed 713f
00000070: e784 713f 0cc9 7c3f 610e 7c3f efb5 8e3f
00000080: f4c2 753f db03 7e3f ff97 803f ef1b 693f
00000090: 04ed 7a3f 0c01 863f 85d5 713f ebe7 8a3f
000000a0: eb78 903f 48f5 8a3f 3855 8e3f c65e 7f3f
000000b0: 6efc 783f 4235 8a3f e093 6d3f 7d99 833f
000000c0: 3824 743f 7eca 653f 54f0 8f3f 95d5 853f
000000d0: a9ab 893f 14a9 8a3f 828a 793f 1f06 9b3f
000000e0: 1014 603f 7870 873f 5f3c 8f3f 4ffb 813f
000000f0: cf46 903f bbb7 743f ec86 823f 4a83 7e3f
00000100: 4a18 773f e75c 7a3f cf76 7a3f f2a6 813f
00000110: 4fdc 8d3f dd2f 803f 9ab5 893f 0653 5d3f
00000120: c25c 6e3f d008 753f d414 7e3f a5a7 943f
00000130: 6656 613f fd85 693f 6622 863f 9c2b 663f
00000140: 07f6 8f3f ca5a 6d3f d43a 8a3f 0460 803f
00000150: 959c 833f c1ef 853f 4afa 8c3f 7cff 5d3f
00000160: eb53 823f c18c 7c3f 2080 8d3f d121 7d3f
00000170: d1eb 753f dc2b 7c3f 59de 823f 29ff 673f
00000180: 13b7 7a3f 41c8 8f3f 31b6 6e3f ef58 823f
00000190: 85d3 6b3f 1601 5a3f caa3 7e3f ef50 873f
000001a0: 37e3 8d3f f9f0 943f 4233 873f da7d 823f
000001b0: e3bd 603f cc4c 8f3f 825b 873f 46ce 883f
000001c0: 5b44 903f efb7 723f c97d 683f 787e 633f
000001d0: 4c9a 863f e6f7 603f 9678 6a3f 9813 933f
000001e0: 0de6 743f 3907 923f 299c 923f ba45 863f
000001f0: fe3a 6a3f e0e2 7c3f cdf3 6a3f efbe 733f
0.95955014 1.1628639 0.9713477 1.1056093 1.1063944 1.083706 0.99196875 1.0496804
0.95815825 0.875941 1.0554981 0.9403493 1.0615771 0.99748725 0.9831956 1.1227404
0.87081885 0.9574495 1.003846 1.104825 1.0622765 0.99752295 1.0474058 1.1396056
0.92203736 0.9123902 1.0596075 0.9450238 0.9434342 0.98744273 0.9845944 1.1149272
0.960006 0.9922463 1.0046386 0.9105825 0.9801791 1.046907 0.9446643 1.0852026
1.1286901 1.0856104 1.1119757 0.9975399 0.9726018 1.0797503 0.92803764 1.0281216
0.95367765 0.89762104 1.1245217 1.0455805 1.0755512 1.0832849 0.9747697 1.2111243
0.8753061 1.0581198 1.1190299 1.0154818 1.1271609 0.9559285 1.0197425 0.9941908
0.9652144 0.9779801 0.9783754 1.0129073 1.1082858 1.0014607 1.0758545 0.8645481
0.9311029 0.9571657 0.9925053 1.1613661 0.8802246 0.91220075 1.0479248 0.8991029
1.1246957 0.9271666 1.0799203 1.0029302 1.028216 1.0463792 1.1013882 0.86717963
1.018186 0.98652273 1.1054726 0.98879725 0.9606295 0.98504424 1.0224105 0.9062372
0.979356 1.1232988 0.9324675 1.018339 0.9211963 0.85157907 0.9946867 1.0571574
1.1084965 1.1636039 1.0562518 1.0194657 0.87789744 1.1195312 1.0574801 1.068795
1.127086 0.9481191 0.9081693 0.8886485 1.0515838 0.87878263 0.9159025 1.1490355
0.9566353 1.1408454 1.1453906 1.0490029 0.91496265 0.98783684 0.9177826 0.95213217
