models/ssl_renegotiation_model.pth (torch, 603511 bytes, 32 tensors)

encoder.0.weight f4 [256, 114]
00000000: 3f14 003f 5bc6 aabe b4e7 813c bcdd 613e
00000010: 984e 4bbe 17e5 9fbc e43e 313c a475 49be
00000020: d11c f1bc cf0b 18be 0020 16be 8947 173e
00000030: de8c 203e b94e 3ebe 2259 283e cd84 cb3e
00000040: fff1 2abe 201a 2a3e 681a 9f3e e7aa 7fbe
00000050: 4ff9 003e 22ae ddbd c204 98be fdde 203c
00000060: 2d81 5dbe f2b7 1ebe 78ef 1b3e dd16 313e
00000070: cd16 a4be 37eb 983d 7e03 f83e 1783 13bd
00000080: 65be cf3d 66d6 f0be 3a88 883e 1464 de3d
00000090: 3b79 513e fb66 be3e 0c60 c9bd 1f4e 4b3e
000000a0: a9c3 dcbe bdcb 1a3e 746f a5bc 906a b03d
000000b0: 1a22 133c bd52 4dbd 7e9b 023e 0103 b6bc
000000c0: 2bf6 e83c ee04 9f3a 648c f23d e8d0 98be
000000d0: 5682 8b3c 0504 4f3e 9cd3 5f3e 19e5 703e
000000e0: 3269 d03e 9c81 103e 73c6 d63d dac1 a03d
000000f0: 33ac 853e 82a8 d63e 7e34 523e ac59 a03e
00000100: cc2f 203d 7db2 fa3e 6918 c8bd 182b 3ebe
00000110: 9b9f 873e 5a09 913c 1105 bdbd e382 993d
00000120: 9b16 d2bd 2f4b bebd 533e 56be e0c7 a1bd
00000130: 58d2 3bbe 42ad 0e3e 40c7 e9bd dfd0 e2bd
00000140: 71a1 023f 6fd3 ef3d 259f 07be 189f 9a3c
00000150: b51f 1abe 97ac 85bd b431 193b 64b1 a93e
00000160: 0d07 db3c 22f7 cb3c f269 cd3d c70d e3bd
00000170: e34b 883c d10d 69bd 2bf2 83bc a7e0 44bd
00000180: 6bcf a0bd d020 d73d 12be 92bb 81d7 d63d
00000190: 59a3 db3d 292e 17be dfdb 313d 6cd4 203d
000001a0: a3be 75bd e5c0 ab3d fcc7 243e a733 023c
000001b0: 850d 753e 62f7 5b3d 2732 d1bb 3ea0 26bd
000001c0: a656 c93d 2c60 f13d a79d 9d3e 364b d9bc
000001d0: 6c88 c43d 43d1 163e 6a8e b63d 9c5b 473d
000001e0: 2279 2fbe de38 2cbd 003f b53d 675f f5bd
000001f0: ca36 3e3d 8c48 c53d 58a5 443e f5dc b6bd
00000200: be77 4d3d 0b0d c53e 745d cbbc df32 523e
00000210: 4500 843d 9ee0 b6bd 51ca 093e ff74 5dbe
00000220: e503 3f3d 75e4 dc3b 1692 69be 8bd5 813d
00000230: b202 3b3e 42b4 5a3e 8e7e bdbd 1b1b fc3d
00000240: 2081 a43e cf83 253d 74a2 a23d ed46 a6be
00000250: 8349 1f3e d9bb ab3e 9793 183e 38ca f23d
00000260: c0b5 e53c ebe0 ef3d 16e0 00bf d92c 983d
00000270: e108 db3d 9838 243e a8ee 86be b3a9 2bbc
00000280: df6f 8ebc 32dd 7fbe 5d0b 343d 5b52 043e
00000290: b3ab 283e a128 73be 9bb6 98bc bcc4 293e
000002a0: 9fb2 553e 4b81 0ebd d779 013f 9888 7d3e
000002b0: 95ec 903e 9e56 92bb 0c32 293e 6c2d c33e
000002c0: 0e4f cd3d c4c3 2c3e 27b2 623e 78fe b03e
000002d0: 042b 373d d3a0 fabd 7673 c13d dd76 bcbc
000002e0: ce90 ff3c 5513 e9bd c5a9 9e3d d6e3 6abd
000002f0: ac29 f3bd 6f46 14bd 9522 20bd 6dac 893e
00000300: f386 633c b3b8 f03c c8c8 e23e cabf 413d
00000310: 1df8 98be 5df0 a6bc 24c8 b5be 7507 673d
00000320: 28d7 c9bd c694 a13e 4dc3 823d 575e 5abe
00000330: b641 cebc 0da3 9ebe 6e34 13bd 5220 06be
00000340: 7266 66bc c692 52bd 3588 1cbe a23a 6cbd
00000350: 41d4 5bbe 54f9 94bd 429a 11bd b331 8ebe
00000360: 4a24 68bd 8e0f f63c b93d a13b 5d96 eebb
00000370: e57d 1bbc b535 e5bd 8f98 c13c 728c 633d
00000380: 895b a0bd ba68 a9bd 055d abbb b423 18bd
00000390: 0ae8 183f 34a3 6e3d 308d 823c 18ed 913e
000003a0: 70a6 b33b e7e2 193b 8035 06be d25c ac3d
000003b0: 12c9 07bd 246b 84be c4d8 b1bd 658b 6c3d
000003c0: ccfc 7f3d 5ea9 9c3c 892e 553d d15a 1e3f
000003d0: ec2b 553d dc0a c03c 7bd9 e63e 2b58 bc3d
000003e0: c96c e33c aef7 d9bd 02d7 d03d fdf2 47bc
000003f0: 6f98 8bbe 223a ebbd 1fc7 2e3e ed69 9b3d
0.50030893 -0.33354458 0.015857555 0.22057241 -0.198542 -0.019518418 0.010818217 -0.19673783
-0.029432686 -0.14848255 -0.14660645 0.14773382 0.15678737 -0.18584718 0.16440251 0.39749756
-0.16693877 0.16611528 0.31074834 -0.24967538 0.12595104 -0.10824229 -0.2969113 0.00981879
-0.21631308 -0.15499857 0.15228069 0.17293878 -0.32048646 0.07466739 0.48440164 -0.03601369
0.10143737 -0.47038573 0.26666433 0.10858932 0.20456402 0.37187943 -0.098327726 0.1985402
-0.43118027 0.15116782 -0.020194747 0.08614075 0.008980298 -0.050127733 0.12754628 -0.02221823
0.028437695 0.0012132206 0.11843184 -0.29846883 0.017029922 0.20216377 0.21858066 0.23524894
0.40705258 0.14111942 0.1048707 0.07849474 0.2610794 0.41925436 0.20527837 0.31318414
0.039108083 0.489643 -0.09770281 -0.18571126 0.26488957 0.017704654 -0.09229482 0.07495668
-0.10258218 -0.09291684 -0.20922212 -0.07899451 -0.18341959 0.1393328 -0.11414957 -0.11074995
0.5102759 0.1171025 -0.13244303 0.01887469 -0.15051158 -0.065270595 0.0023375573 0.3314315
0.02673676 0.024898116 0.10029973 -0.11086612 0.016637748 -0.056897942 -0.016106686 -0.048065808
-0.07852062 0.10504305 -0.0044782246 0.10490323 0.107245155 -0.14763702 0.043422576 0.03926508
-0.05999626 0.08386401 0.16091913 0.007946885 0.23930939 0.05370272 -0.0063841525 -0.040680163
0.0983098 0.117859215 0.30784342 -0.026525121 0.09596333 0.14728265 0.08913882 0.04867135
-0.17136052 -0.04204642 0.08849907 -0.11981087 0.04643897 0.09632978 0.19203699 -0.08928863
0.050163023 0.38486513 -0.024824835 0.20527218 0.06445364 -0.08929561 0.13456084 -0.21626662
0.046634573 0.0067411014 -0.22809634 0.06339558 0.18262747 0.21357825 -0.09252654 0.123098575
0.32129765 0.040408906 0.07941142 -0.32475987 0.15555386 0.33541754 0.14900051 0.118549764
0.028040767 0.117128216 -0.5034193 0.07430429 0.10695053 0.16037214 -0.26353955 -0.010477471
-0.017387329 -0.24986723 0.04395615 0.12922041 0.16471748 -0.23745967 -0.01864176 0.16578954
0.2086892 -0.034791272 0.5057654 0.24759138 0.28305498 -0.004465892 0.16522998 0.38120592
0.10024844 0.16871554 0.22138272 0.34569144 0.044718757 -0.12237706 0.094458506 -0.023005897
0.031196978 -0.113806404 0.07747225 -0.057346188 -0.11873183 -0.036199983 -0.03909548 0.26889363
0.013887155 0.029384946 0.4429381 0.047302045 -0.29876795 -0.020378286 -0.35504258 0.056403596
-0.09855491 0.31558818 0.06384907 -0.2132505 -0.025177818 -0.30983773 -0.035938673 -0.13098267
-0.014062511 -0.051409505 -0.15286334 -0.057673104 -0.21467687 -0.07274118 -0.035547502 -0.27772292
-0.056675233 0.030036714 0.004920688 -0.0072811083 -0.009490465 -0.111918844 0.023632316 0.05555386
-0.07829959 -0.08271928 -0.0052295947 -0.037143424 0.59729064 0.05826111 0.015936464 0.285012
0.0054824874 0.0023481192 -0.13106346 0.084161416 -0.03315074 -0.25862992 -0.08683923 0.057750124
0.062496945 0.01912373 0.052046333 0.61857325 0.05204384 0.023442678 0.450878 0.09196504
0.027761834 -0.10642944 0.101972595 -0.012203929 -0.27264735 -0.11485697 0.17068146 0.07588563

encoder.0.bias f4 [256]
00000000: ba16 a53a 0a6d aabd 4799 9bbc 0523 9f3c
00000010: 6c89 943d 2e68 f63c d88c 10bd 5e87 b6bd
00000020: 8c90 893d 6cca 0cbd e107 bbbc f63d 413d
00000030: d133 98bd 0ae5 e83b 95e4 b1bc 2ed0 3bbd
00000040: 8c6d bdbd 1811 7fbc 9a61 073c 91de 0c3d
00000050: 3cce 0c3d b055 c43c fbcf fa3c bf21 85bd
00000060: 8920 52bc 7021 563c 2d51 74bd 8cd1 ae3b
00000070: f43d 24bc 8c7c 3abd 3ef6 9bbd 3ea5 9f3d
00000080: fcec 523d 954a debc 2533 353d 2689 173b
00000090: 9414 603d 3552 8f3d 727b f5bc a232 3b3b
000000a0: c634 503d 993f e5ba c6e3 c3bc 6ce5 df3c
000000b0: f436 a5bd 56fe af3d da61 773d c8ea 73bd
000000c0: b29d 0a3d e70a 48bc cf2f da3c 54d1 2abd
000000d0: 36cb 253d 08a7 b6bd 686f 583d d556 6dbd
000000e0: 2f5a 543d b7e7 a63c 6f45 b63b e1ab 06bd
000000f0: 9f05 ac3d 1969 f8bc c6f9 873d bf32 313d
00000100: ecd0 a23d 438c 32bd f320 8d3c cb10 b83d
00000110: 1f1b abbd 0a7b 9b3d 9d74 91bd ceea 523c
00000120: 692d abbd 7859 b13d 5be1 983d 6104 49bd
00000130: 1daa e93b 4c33 0b3d 8bd6 663d 83c9 a7bd
00000140: 9100 42bb 067e 25bd 34b1 2abd 9a28 9ebb
00000150: 72be b3bd ce79 933d 731a 413d b6fa 7e3d
00000160: c5ee 713d 3545 b3bd ddea dc3c 7b03 17bc
00000170: 0abf 1f3d 627e 4bbc 5721 b63c 7c0a 943d
00000180: 97b0 8a3d 31fe 5f3c 50c0 903d 233a f0bb
00000190: c33d 80bd 524d a6bd cd5b 8bbd f068 93bd
000001a0: a02e 8dbc 289d 833d 4132 febb f8ca a4bd
000001b0: d103 b2bc 5ef5 b7bd 739c 6d3d 4077 83bc
000001c0: 3aa5 8dbd 5233 a5bd c500 fe3c 6590 1939
000001d0: fc36 f3bc 614c 113d 47e8 8a3d b6b0 a1bc
000001e0: e366 ae3d 64d2 aebd 92aa 243d df8e 7dbd
000001f0: c672 d53c 4387 83bd 844d cd3c 93f0 1dbc
00000200: 513d 213d 4efa 6abd 3828 493d a64c 433d
00000210: 74b2 793d 1c2f 4dbc 3755 78bd a4e0 c33a
00000220: 0180 41bd 669b bbbd a12e c73c 321a 4c3d
00000230: b351 223d 78d1 4f3d 29e7 71bc d0ca fe3c
00000240: 32dd 74bc 78bd 9bbd aabe 123b 1dc5 ab3d
00000250: 6352 b9bd d51e 8c3d 60af 07bd 4bcd 78bd
00000260: 5555 683c 698a 55bd 3561 8f3d 0036 abbc
00000270: 91a8 87bb 3752 98bd f43c 1f3d 7690 933d
00000280: 24e9 ae3d e3d9 af3d 16f6 1ebd 65f4 8fbd
00000290: 79c4 933d 5c73 bbbd 7154 58bd ad9c 0e3d
000002a0: c6c0 a93d 4c74 d4bc 333f 8bbd 7284 afbc
000002b0: bb53 7d3d c97a 1c3d 2c26 2c3d 4812 67bd
000002c0: e742 1c3c fdeb 1e3d 7bff 23bd af3e 003d
000002d0: b1d3 3d3c 5f25 9cbc 2ea4 f73c 4d97 b13c
000002e0: 069f 3d3d 49b8 b0bd 18c3 a23d 4c59 0d3d
000002f0: 72d7 943d 3c19 5cbd 8eac e53c 32fa 8b3d
00000300: e8b3 2bbd 3eb9 833d b178 113c 2371 2d3d
00000310: 9261 88bb b427 9fbd 04d6 ad3c bba0 703d
00000320: 5326 be3d 766f 913d 7825 273d 38ff 8dbd
00000330: f93b a3bd 0a73 a43d 2ffd d2bc 3bee 45bc
00000340: 486a 4fbc af96 833d bcdb 2abd 7fb5 82bd
00000350: ab48 293d 28cf b6bd f970 72bd 5381 0bbd
00000360: cfa7 1cbd d7b3 12bd 1974 a8bd d905 6fbb
00000370: 673c bd3b ce4f 81bc 27fd 093d 8f0e 873d
00000380: 78c1 883d 8f4c be3d d55c 223d b3f4 743d
00000390: 1119 033d 990e 6dbd 3971 23bd 0044 953d
000003a0: c408 42bc 9c5c ac3c badd 03bc 37cd a43d
000003b0: 9d3b e23c 9b07 bc3d 4eab 573c 32bb 88bc
000003c0: 9820 02bd daf8 40bb 6908 293d a7ca 813d
000003d0: 0a4d babd 15dd 07bd feb5 bfbd 73bf adbd
000003e0: 31f5 7dbd 6990 af3d fcd6 ab3d a1f3 55bd
000003f0: 0239 8bbd bcb2 ee3b 7a26 5a3d 1c72 113d
0.0012595274 -0.08321579 -0.018993987 0.019425878 0.07252774 0.030078974 -0.03529057 -0.08912538
0.06717023 -0.034372732 -0.022830905 0.04717823 -0.07431758 0.0071073817 -0.021715442 -0.045852832
-0.0924941 -0.01556804 0.008263016 0.034391943 0.034376368 0.02396664 0.030616751 -0.06500577
-0.01282514 0.013069496 -0.059647728 0.0053350385 -0.010024536 -0.045528933 -0.07615326 0.07795189
0.051495537 -0.027135173 0.04423823 0.0023122518 0.054707125 0.069981016 -0.02996609 0.0028564115
0.05083158 -0.0017490267 -0.023912322 0.027331077 -0.08067122 0.085934326 0.060396053 -0.059550077
0.033841796 -0.012209631 0.026634125 -0.041703537 0.040477 -0.089185774 0.05284062 -0.057944138
0.05184382 0.020374162 0.0055624763 -0.03287876 0.0839951 -0.030323552 0.066394374 0.043261286
0.07950005 -0.043590795 0.017227625 0.08987578 -0.08354782 0.07591827 -0.0710232 0.012873365
-0.08358271 0.08659643 0.07464858 -0.04907644 0.007130875 0.033984467 0.056356948 -0.08192732
-0.0029602388 -0.04040339 -0.0416729 -0.0048266174 -0.08776559 0.07200967 0.047144365 0.062250815
0.0590656 -0.087534346 0.02696746 -0.009217138 0.03900055 -0.012420269 0.022232695 0.07228562
0.06771963 0.013671444 0.07067931 -0.007331149 -0.0626178 -0.081202164 -0.06804619 -0.071977496
-0.017234147 0.064264596 -0.0077574556 -0.08046526 -0.021730335 -0.08982347 0.05801053 -0.016048074
-0.0691628 -0.08066429 0.031006226 0.00014645008 -0.029689305 0.03547323 0.06782585 -0.019737583
0.08515718 -0.085362226 0.04020173 -0.06190383 0.026055705 -0.064222835 0.025061376 -0.009639877
0.039365117 -0.057367615 0.04911062 0.04768052 0.0609612 -0.012523439 -0.060628142 0.0014944267
-0.047241215 -0.09160499 0.024314227 0.04982967 0.039628696 0.050736874 -0.0147645855 0.031102568
-0.014945315 -0.07604498 0.0022391477 0.08387206 -0.09048917 0.06841818 -0.033126235 -0.060742658
0.014180501 -0.05213395 0.07000963 -0.020899773 -0.0041399677 -0.07437556 0.03887649 0.07205288
0.08540562 0.085864805 -0.038808905 -0.070290364 0.072152086 -0.091528624 -0.052814905 0.034817386
0.08288722 -0.02593436 -0.06799164 -0.02142546 0.06184743 0.038203035 0.04202859 -0.05641392
0.009537435 0.038799275 -0.040038567 0.03130978 0.011586116 -0.019060789 0.030229654 0.021678591
0.046294235 -0.086288996 0.079473674 0.03450899 0.072676554 -0.053735003 0.028036382 0.0683483
-0.04191962 0.064318165 0.008878873 0.042344224 -0.004162022 -0.07771245 0.021220215 0.058747035
0.092846535 0.071013376 0.040807217 -0.06933445 -0.07970423 0.080297545 -0.025755493 -0.012080724
-0.012659617 0.06425225 -0.04171346 -0.06382274 0.041329067 -0.08926231 -0.05918977 -0.03405888
-0.038245972 -0.03581604 -0.08225269 -0.0036471991 0.005775023 -0.015785124 0.03368869 0.06594574
0.06677526 0.09291946 0.039639313 0.059803676 0.032006327 -0.05787525 -0.0399029 0.072883606
-0.01184291 0.021040253 -0.008048469 0.08046954 0.027616316 0.09181138 0.013163401 -0.016690824
-0.031769365 -0.0029445202 0.041267786 0.06337481 -0.09096725 -0.033169825 -0.09360884 -0.08483782
-0.06200141 0.08572466 0.083906144 -0.052234296 -0.06797983 0.0072844904 0.05325935 0.035509214

encoder.1.weight f4 [256]
00000000: b46b 5e3f ff07 6a3f 157a 6e3f 712b 733f
00000010: 879d 8b3f e14f 8b3f 70a1 853f c5b3 923f
00000020: 41e2 833f 392b 5a3f f72d 903f 5729 763f
00000030: 4fbe 6f3f f6e5 773f acf1 6d3f 7170 823f
00000040: 6eaa 913f 6b93 823f 295d 793f c954 803f
00000050: eac6 6c3f f296 863f d7e2 623f 2113 843f
00000060: 17c5 583f 4f4f 863f dae4 673f 0227 a43f
00000070: 1c56 7d3f 7895 723f e987 9a3f 460c 8e3f
00000080: c2bb 733f 719c 563f 3f6d 803f e411 743f
00000090: 4748 5f3f ddf7 863f 0c4a 6a3f 43c7 863f
000000a0: 83a0 8f3f f6e5 713f 0878 783f abd0 7c3f
000000b0: 0efe 803f 747c 653f 64a3 823f 927c 853f
000000c0: 8f61 563f 46b3 883f 2887 7d3f 08a3 653f
000000d0: 962b 603f 51e2 3e3f cc5e 623f f49c 823f
000000e0: 9da8 9c3f 3094 6f3f ccb0 893f ed64 623f
000000f0: f61c 683f 3d28 5f3f 2795 5f3f 15ff 7d3f
00000100: 29ce 713f 6d1a 6b3f ca1f 6a3f 66b8 6e3f
00000110: f77e 613f 4495 853f f71f 8f3f 8669 803f
00000120: 3fa5 883f 39c0 7b3f 4ad4 813f 0b04 5f3f
00000130: 932f 763f 478c 553f 8778 843f ec9c 793f
00000140: fc9c 7c3f d92b 7b3f 6c49 723f 0855 7a3f
00000150: f0f6 673f c915 873f 86ce 853f 69b3 723f
00000160: 0176 803f 386d 693f d6fe 713f dc5d 673f
00000170: 2b16 673f 51d9 733f ba0f 763f 8131 743f
00000180: 1af4 6e3f 519e 7f3f 5e74 8f3f 2bc2 823f
00000190: 9070 863f 6228 753f 076d 883f 52d5 6b3f
000001a0: 5e95 7c3f cd24 8e3f d431 653f daab 673f
000001b0: 0afb 7a3f 649d 493f 838b 853f f570 863f
000001c0: f989 593f ad46 533f 5b84 773f 10e2 603f
000001d0: 7e24 823f 0a3e 873f b797 823f 0331 823f
000001e0: 9b04 5f3f 8203 663f 891c 723f a4cb 743f
000001f0: 5149 683f 9aa4 8c3f f53b 6f3f 083f 753f
00000200: 2018 433f 54bd 783f 0a14 7c3f 6c5d 6c3f
00000210: e2ea 853f 243b 873f ee97 5f3f 7fb3 883f
00000220: 399d 743f 614f 6f3f f05b 773f 2756 6a3f
00000230: 4838 4c3f 6748 653f c8e0 823f 1064 6a3f
00000240: fcde 653f 26e6 883f 3df9 7b3f aa89 4b3f
00000250: 60ce 793f 8f62 663f de5b 743f 72c5 773f
00000260: 7a7b 783f ec7e 523f f987 573f b623 463f
00000270: 9fc8 6f3f c006 853f 6e7b 6b3f 9feb 8c3f
00000280: 2b19 663f 0ff4 4f3f 3297 6d3f 4716 633f
00000290: 57ab 563f bcb7 7c3f 752b 6d3f 107d 8f3f
000002a0: 8294 863f 3123 723f 3cc0 903f a761 7c3f
000002b0: b35d 743f 06cd 803f 1dc8 623f ce63 793f
000002c0: 8a10 7a3f 8293 663f 3c17 793f 93cf 593f
000002d0: a0b5 683f 114e 7c3f e487 673f 95f4 763f
000002e0: 393b 753f b918 733f 213a 8c3f 8e88 6f3f
000002f0: 55ee 723f c368 6f3f e121 6b3f 5243 7b3f
00000300: 1200 833f 8702 7c3f 7f1d 7c3f fdc1 843f
00000310: 3a1b 833f ee5c 5b3f dbc8 953f f318 5b3f
00000320: 1523 853f a460 643f 7729 6d3f 170a 703f
00000330: a489 813f 5494 823f f46d 6c3f 8311 653f
00000340: 7aef 733f 58a5 893f 55aa 783f 7cdc 683f
00000350: 54ee 753f fa81 853f 1f46 893f a917 423f
00000360: d8fd 813f 58b7 733f 7801 743f baee 973f
00000370: fb02 623f a728 843f 1df8 873f 896d 8b3f
00000380: aff2 7a3f 35cf 753f ca11 893f 8ac1 733f
00000390: 85de 813f 66b7 713f 742a 673f 7bb1 763f
000003a0: 3463 893f 38cd 753f ed33 7c3f 82be 723f
000003b0: f21b 803f a844 913f 32a9 583f a4cd 923f
000003c0: 690f 873f a2eb 783f 4042 803f 01f8 403f
000003d0: 14bb 8b3f 3048 743f 60c8 6d3f 2534 7c3f
000003e0: cd82 623f 9a0d 853f bba4 723f 200f 563f
000003f0: 2884 803f 573b 7f3f e9ed 5b3f 7052 883f
0.8688309 0.9141845 0.9315503 0.9498816 1.0907449 1.0883752 1.0439892 1.1461111
1.0303422 0.852222 1.1264027 0.9615683 0.9364976 0.9683527 0.92946887 1.0190564
1.1380136 1.0201238 0.97407776 1.0025874 0.9249102 1.0514815 0.8862738 1.0318338
0.84675735 1.0492953 0.90583575 1.2824404 0.9895952 0.9475932 1.2072726 1.1097496
0.9520837 0.8383246 1.0033339 0.953398 0.8721966 1.0544392 0.91519237 1.052956
1.1220859 0.9449152 0.97058153 0.987559 1.0077531 0.89643025 1.0206113 1.0428641
0.8374261 1.067971 0.9903436 0.8970189 0.87566507 0.7456408 0.884259 1.0204148
1.2238957 0.9358549 1.0757079 0.8843525 0.9066919 0.87170774 0.87336963 0.9921735
0.944552 0.918372 0.91454756 0.9325012 0.8808436 1.0436177 1.118163 1.0032203
1.0675429 0.98340183 1.014291 0.87115544 0.9616634 0.8341717 1.0349282 0.9750507
0.9867704 0.9811378 0.9464328 0.97786 0.9061117 1.0553523 1.0453651 0.9480501
1.0036012 0.9118228 0.94529474 0.90377593 0.902682 0.95253474 0.96117747 0.95388037
0.9334122 0.99850947 1.1207387 1.0215505 1.0503101 0.95764744 1.0658273 0.92122376
0.98665416 1.1104981 0.89529157 0.904966 0.98039305 0.78755784 1.0433201 1.0503222
0.84976155 0.8252972 0.96686333 0.87844944 1.0167387 1.0565808 1.020255 1.0171207
0.871164 0.898491 0.9457479 0.9562323 0.9073687 1.0987732 0.9345086 0.95799303
0.76208687 0.9716389 0.9846808 0.9233005 1.0462306 1.0564923 0.873412 1.0679778
0.955524 0.934805 0.9662466 0.9153771 0.7977338 0.895636 1.0224848 0.91558933
0.8979337 1.0695236 0.9842718 0.79506934 0.9758053 0.8999414 0.9545268 0.9678565
0.9706341 0.8222492 0.8419185 0.7739824 0.936655 1.0392685 0.91985214 1.1009406
0.89882153 0.8123178 0.9280883 0.8870587 0.83855194 0.98717856 0.92644435 1.1210041
1.0514071 0.9458495 1.1308665 0.98586506 0.95455474 1.0062568 0.885866 0.97417915
0.97681487 0.9006883 0.9730108 0.8508236 0.9090214 0.9855662 0.9044173 0.9646695
0.9579349 0.949596 1.095524 0.9356774 0.94894916 0.9351923 0.9184857 0.981496
1.0234396 0.98441356 0.9848251 1.03717 1.0242684 0.85688674 1.1701921 0.85584944
1.0401331 0.8920996 0.92641395 0.93765396 1.012013 1.0201516 0.92355275 0.89479846
0.9528729 1.0753584 0.97134906 0.9096143 0.96066785 1.0430291 1.0724524 0.7581735
1.0155592 0.95201635 0.9531474 1.1869729 0.882858 1.0324906 1.0622593 1.0892802
0.98026556 0.960193 1.0708554 0.9521719 1.0146033 0.9442047 0.90299153 0.96364564
1.0733399 0.96016264 0.9851673 0.9482194 1.0008528 1.1349077 0.8463317 1.1469007
1.0551578 0.9723455 1.0020218 0.75378424 1.0916467 0.9542265 0.92883873 0.98517066
0.88480836 1.0394776 0.9478261 0.8361683 1.0040331 0.9969992 0.859099 1.0650158

encoder.1.bias f4 [256]
00000000: 956e afbe 4a06 f3be 5036 5ebf 460d 21bf
00000010: 409a a2be a371 c8be 104b 2abf 0d83 8ebe
00000020: 1f38 103e a691 15bf 4225 05bf d0de 2dbf
00000030: d8c9 b8be 0c6c a9be 9de0 8dbe 121d 10bf
00000040: c953 01bf e158 2ebf 5bbf 15bf d3b0 2bbf
00000050: fa98 25bf 5322 a4be a575 0bbf 6732 25bf
00000060: 2846 4bbf 190a 89be e9b0 c7be b847 a4be
00000070: c523 13bf 99fc 98be 8798 32bf 1a37 45bd
00000080: 0c48 9dbe fee8 2abf 7730 c5be 1529 f1be
00000090: 49f6 47bf d9fd ffbe adc8 17bf d45b 04bf
000000a0: 6e87 30be 8e13 78bf e1e5 94be 6496 f1be
000000b0: 071d 0dbf cf53 4bbf 40bc 03bf 96e0 6a3d
000000c0: 7a67 12be 6e51 8abe 0111 68be 7dc4 ccbe
000000d0: a02e 41bf 7614 cfbe 8e71 0bbf 283e 62be
000000e0: 73c6 1ebf d4bd a7be c2f6 58be b0b7 e8be
000000f0: d328 1abf aed3 c3be 9db0 02bf 5e5e 17bf
00000100: 2b5e 12bf e20b 11bf 0a64 babe 5c9c d6be
00000110: d198 0fbf d31a 06bf 6397 63be 375f 85be
00000120: c539 f6be ce79 10bf e56f 98bc 036a d1be
00000130: 5aca 11bf c879 51bf ea1d ddbe d7a2 11bf
00000140: 307e bbbe b2ce b7be 1409 c3be 009c 2bbf
00000150: 96c0 37bf 8bfb 1fbd 8f26 b3be 6670 22bf
00000160: 6018 01bf 3331 3ebf e37e 37bf f72d 02bf
00000170: ccea c53c 307c e7be 17ce adbd cbb3 aabe
00000180: 62fc 01bf 5fb2 15bf 6921 abbe f26f 82be
00000190: 3468 0fbf d72f d8be c838 69be 917a 02bf
000001a0: ac6e f4be 1deb d8be 1eb9 46bf 6bac 3abf
000001b0: 8d74 1cbf bde4 cbbe 4832 1ebf 1fbd bdbe
000001c0: d5ca 5ebe efa3 c3be 97ad 1fbf 27b2 e4be
000001d0: b5be eebe a28e 7dbe cdf9 2cbf f0a3 f0be
000001e0: 1f88 35bf e882 40bf edd6 4cbf 2ffe e6be
000001f0: eb86 e6be c0e0 b6bd 776a d2be dd68 34bf
00000200: 65c0 0dbf d4f8 cbbe 7336 17bf cd59 3bbf
00000210: 4d0a 1bbf f14c 05bf f5e0 5bbf 72f3 c2be
00000220: cee5 2cbf 0f65 34be b079 34bf 734d bbbe
00000230: 7f94 29bf ea1e 1abf 4db7 e1be 656a 0ebf
00000240: 13a3 28bf e16e fdbe ae99 c8be 544f 03bf
00000250: 0be0 5ebe 2e3e 10bf 3476 f4be c03e 35bf
00000260: 081d 9fbe 8d1e 7fbf 6966 c3be 54b7 5cbf
00000270: d3db 02bf b5f2 afbe c84a 32bf d727 3cbf
00000280: 4ac1 b7be b283 a6be 0543 06bf 25b1 1cbf
00000290: 7a39 e7bd a652 07bc 67bc b2be 2811 d3bd
000002a0: d619 7dbe c41e 0cbf ca56 11bf d6e9 56be
000002b0: 31fd c1be 69bc 17bf 4c77 1abe f0c8 12bf
000002c0: 468b 11bf ab2f 95be 912d 11bf 162e 14bf
000002d0: a710 38bf b7aa 1dbf bc5f 28bf 2149 1cbf
000002e0: 3d97 c2be 0fe6 13bf b712 1dbf 81dd 0bbf
000002f0: e213 31bf d431 1fbe 9a86 21be 56f2 a7be
00000300: fd81 17bf fcac d4be 3a49 12bf 0f24 09bf
00000310: 0c5c c5be 8b2f 0abf 3d37 18bf 060a 18bf
00000320: 6e9c 0abf 9500 d4be 0652 42bf 3573 79be
00000330: 4343 1abf 11f2 90bd 5b31 3dbf 88ef 23bf
00000340: ed11 b1be d0b2 b3be a9be f83d 7d3b 9fbe
00000350: 1657 38be 2c6e 44be f700 24bf 89e0 dfbe
00000360: 7146 31be c580 a1be 8e4a c7be f102 cdbe
00000370: 4e41 25bf 0743 9cbe f16c e0be ba03 45be
00000380: d30d 83bf 67f0 cbbe 8e0a c3be f815 d9be
00000390: a544 d3be ee43 bdbe 0316 94be dba5 09bf
000003a0: 7a70 1ebf 86ca abbe a4c9 33bf 20a3 85be
000003b0: 5aff debe c562 4abf c382 b5be 3bad 4fbe
000003c0: f555 83be 65b6 2cbf 3dd8 52bf f413 5ebf
000003d0: f73e 58be 053e bbbe 69e5 e4be 0153 29bf
000003e0: 36d6 04bf 7feb 55bf 4873 46bf 1c57 e3be
000003f0: 1c12 b2be b38e ebbe 4ed8 6dbf 738b dfbe
-0.34264055 -0.47465736 -0.86801624 -0.6291088 -0.31758308 -0.39149198 -0.66520786 -0.2783436
0.14083908 -0.58425367 -0.52009976 -0.6791811 -0.36091495 -0.33090246 -0.2771043 -0.5629436
-0.5051847 -0.6810437 -0.5849511 -0.6706669 -0.6468655 -0.32057437 -0.54476386 -0.6453003
-0.79403925 -0.26765516 -0.3900216 -0.32085967 -0.57476455 -0.29880217 -0.6976399 -0.048148252
-0.3071903 -0.6676177 -0.38513538 -0.47101656 -0.78110176 -0.49998358 -0.5929058 -0.5170262
-0.17239162 -0.9690484 -0.29081634 -0.4718505 -0.5512242 -0.79424757 -0.5145912 0.057343088
-0.14297286 -0.2701525 -0.22662736 -0.3999366 -0.7546177 -0.40445298 -0.54470146 -0.22094023
-0.6202156 -0.32762015 -0.2118788 -0.45452642 -0.6021854 -0.38247436 -0.5105074 -0.5912837
-0.5717494 -0.56658757 -0.3640445 -0.41916168 -0.56092554 -0.5238468 -0.22225718 -0.26049206
-0.4809095 -0.5643586 -0.018608043 -0.40901193 -0.5694939 -0.8182645 -0.43186885 -0.568891
-0.3661971 -0.35899884 -0.38092864 -0.6703491 -0.7177824 -0.03905825 -0.34990355 -0.63452756
-0.5042782 -0.7429382 -0.7167799 -0.50851387 0.024159811 -0.45211935 -0.08486574 -0.33340296
-0.5077573 -0.584753 -0.33423927 -0.25476032 -0.56018376 -0.42224 -0.22775567 -0.5096827
-0.47740686 -0.42366877 -0.77626216 -0.7291934 -0.6111534 -0.3982295 -0.61795473 -0.3705835
-0.21757062 -0.3821101 -0.6237425 -0.4466717 -0.46629873 -0.24761441 -0.67568666 -0.47000074
-0.7091083 -0.7519975 -0.8001545 -0.45115802 -0.4502481 -0.089295864 -0.4109685 -0.7047251
-0.55371696 -0.39838278 -0.5906746 -0.731839 -0.6056259 -0.5207053 -0.8589013 -0.3807636
-0.67538154 -0.17616676 -0.7049818 -0.36582527 -0.6624221 -0.6020342 -0.4408516 -0.55631095
-0.6587383 -0.49498656 -0.39179748 -0.5129292 -0.21765153 -0.5634488 -0.47746432 -0.70798874
-0.31076837 -0.9965599 -0.3816407 -0.86217237 -0.51116675 -0.34364858 -0.6964536 -0.7349829
-0.35889655 -0.3252235 -0.52446014 -0.612078 -0.1129026 -0.008259451 -0.34909365 -0.10306007
-0.24716887 -0.54734445 -0.56773055 -0.20987639 -0.37888482 -0.59271866 -0.1508457 -0.57337856
-0.5685314 -0.2913793 -0.56710154 -0.5788282 -0.7190041 -0.61588615 -0.6577108 -0.61049086
-0.3800601 -0.57772917 -0.6135668 -0.54634863 -0.69170964 -0.15546352 -0.15774003 -0.32802075
-0.5918272 -0.41538227 -0.57142985 -0.53570646 -0.3854679 -0.53978795 -0.59459287 -0.59390295
-0.5414494 -0.41406694 -0.7590641 -0.24360354 -0.60258883 -0.070774205 -0.73903435 -0.6403737
-0.3458399 -0.3509736 0.121457405 -0.31100073 -0.1800197 -0.19182652 -0.6406397 -0.43725994
-0.17312028 -0.31543556 -0.38924068 -0.40041307 -0.6455277 -0.30519888 -0.43833116 -0.19239703
-1.0238594 -0.3983185 -0.3809399 -0.42399573 -0.4126331 -0.3696589 -0.28923044 -0.537687
-0.61890376 -0.3355295 -0.70229554 -0.26101017 -0.43554193 -0.7905696 -0.35451326 -0.20280926
-0.25651518 -0.6746581 -0.82361203 -0.86749196 -0.21117769 -0.36570755 -0.44706276 -0.6614228
-0.5188936 -0.83562464 -0.77519655 -0.44402397 -0.3477944 -0.46007308 -0.9290818 -0.4366108

encoder.1.running_mean f4 [256]
00000000: a353 7740 34a1 4b40 b75f 8a40 cb2f cfbf
00000010: e139 3b3f 6f0b ffbf 169d 973f 13f3 88bf
00000020: 6ee3 e13f ded5 25c0 a010 9c3f 5906 e9bf
00000030: ee89 8e40 24b2 78c0 c8ff dbbf 9f25 8ac0
00000040: 63fb 7bbf f148 c1bf 7700 0940 8327 70bf
00000050: 0790 023f 99c0 17c0 9ae2 173f a801 ab3f
00000060: 31aa 1e3e c9c2 b53f 0f7d 26c0 b488 85c0
00000070: ccf2 6e40 5bad 3340 6089 51be aa3c b13f
00000080: 380c 82c0 6016 0d3f c250 5c3f 72bd b53f
00000090: 2b03 193d 1cf9 3cbe cab7 793f 9103 afbf
000000a0: d49e 693f 266b 993f 7303 dabf e3a6 c540
000000b0: 4395 91bf 7768 3140 7211 de3f 0692 f340
000000c0: 0f4c 0040 5a6f d8bf 7eb7 8540 ea42 25c0
000000d0: c422 553f 2cd2 b3bf fa2e 95bf 378e 08bf
000000e0: d76e a13e d3b4 8c40 6d92 f83f efe4 8a3f
000000f0: cb7d 32c0 0ff1 f93f 25b4 db3f e1b1 a23f
00000100: 2d87 4c40 97c6 8cc0 6f67 ae40 6c02 4c40
00000110: cf3d edbf ccca 49bf e97b c2be 8e11 2640
00000120: a86b 9a3f 3b0f 4fbf ff34 2e40 153d 1ebf
00000130: 26b6 5e3f 808f 0940 2422 0540 a632 b13f
00000140: b511 6cc0 f6fc acbe 22e1 2dc0 0265 ccbf
00000150: 238f 3b3f ace1 d240 c18c 883f 8afa 3c40
00000160: 5823 1640 2a29 4740 8535 24c0 3a4b 7a40
00000170: e800 7440 2764 6540 0041 9b40 953e f4bf
00000180: 776d 6abe 86bb 06c0 1b2c 83c0 08b0 6fc0
00000190: e74e c9be 30aa 5bc0 ec97 e33f f0d8 cbbd
000001a0: 8e11 57c0 0a1b e63f 2e78 8040 b386 3fbf
000001b0: 2e73 e13e 9de0 19c0 9f5e 203e a15e 28bf
000001c0: fff8 7c40 bfdd 6a3f ec09 423f 3d60 703f
000001d0: 2f30 5840 2fac 1d40 53bd 873f 45db 02c0
000001e0: 7cc8 913f d3df 403f 9c65 583e 0bdf e4bf
000001f0: 3201 74c0 10bb d040 ebbc c43e cf18 8f3e
00000200: 06f1 4dc0 faf8 0640 8efa 1140 7b7c c73e
00000210: 2f32 5ac0 a791 b5be 06de 2f40 3db9 15bf
00000220: 95f1 91bf e224 1440 24c7 0a3f 5567 403f
00000230: c3ac 29c0 6f03 babe ff73 36c0 af61 42c0
00000240: 9f05 28bf 05fa 23c0 fbb7 e7bf 6d85 d8bf
00000250: 1d55 9e40 4380 9240 e406 dc3f 1c3b f33f
00000260: a2b3 d43f aaaf 2b40 1129 dabf 70c3 ca3e
00000270: 02b5 9b40 9eb9 9140 da33 f2bf ef53 cdbf
00000280: 82a9 5dc0 9d6c 07c0 fd40 d63f 109b 67c0
00000290: c1f8 7f40 0c88 80bf fa2c 92bf dc0e 7b40
000002a0: c307 a43f 4e58 42c0 e3db 9dbf dfef 66c0
000002b0: 3ba5 823f be31 9a3f 24ff 2e3e f9d4 0b40
000002c0: 71b0 1d3f a05f 4fc0 a863 fb3f 9be1 6940
000002d0: f7dc 0140 48ac 8640 2605 503f f0a5 bc3f
000002e0: 43cb 6b3f 2c49 ea3f 05ce 33bf 8af1 1c3f
000002f0: 1874 79c0 b1ba 4140 da49 9c3f a109 3840
00000300: 3b07 f13e 19c6 3740 bec7 2a3e b29b a93f
00000310: c02b 1dc0 31b3 4bc0 bc5f a43e 2157 ff3f
00000320: 6357 1bc0 8073 de3f 259c 3a40 1a76 9640
00000330: 7564 4f3d fa1b b240 b8ff 3640 0ec8 2bc0
00000340: 2666 35bf e262 4d40 1603 a83f a366 4540
00000350: 7a73 a4be 87ee 1d3e 84e4 58bf e898 dcbe
00000360: c17e 39c0 e8ff 6cbf bee3 3ec0 e014 a9be
00000370: 5d67 903f d45d 3bc0 7a93 06c0 b4ba 393f
00000380: 51d8 843f 9586 a13f abf3 2040 3ce0 2d40
00000390: 8896 2dc0 212f 9e3f 43b2 80c0 b9d3 0e3e
000003a0: 25a2 c2bf 717d 52c0 1a8f c53f e3e4 55c0
000003b0: c947 9240 213a 33bf fa62 bfbf 2782 1a40
000003c0: 8ac2 0840 d536 393f 3a99 533e 5a05 d33f
000003d0: f1cf 18be b154 1b40 2d6e 24c0 7c2a 4a40
000003e0: f62a 57bf de0a adbe ab2d e6bf 8ba6 dd3f
000003f0: d294 ab3f 2724 2c3e f202 9ebf 3d63 b73f
3.8644798 3.181714 4.324184 -1.618646 0.7313519 -1.9925364 1.1844814 -1.069918
1.7647531 -2.5911784 1.2192574 -1.8205062 4.454337 -3.8858728 -1.7187433 -4.3170924
-0.9843046 -1.5100385 2.1406534 -0.9381029 0.5100102 -2.3711302 0.5933014 1.335988
0.1549461 1.4200069 -2.601383 -4.1729374 3.7335691 2.8074558 -0.2046256 1.3846638
-4.0639915 0.55112267 0.86060727 1.4198439 0.037356537 -0.18454403 0.97546065 -1.3672963
0.9125798 1.1985824 -1.7032303 6.176622 -1.1373676 2.772001 1.7349074 7.611575
2.0046422 -1.6908982 4.178649 -2.582209 0.83256173 -1.4048514 -1.1654961 -0.53342
0.31529877 4.3970733 1.9419686 1.0851115 -2.7889278 1.952669 1.7164351 1.2710534
3.1957505 -4.399242 5.450126 3.1876478 -1.8534487 -0.7882507 -0.3798516 2.5948215
1.2064104 -0.80882615 2.7219846 -0.61811954 0.86996686 2.1493835 2.0802088 1.3843582
-3.6885808 -0.33786744 -2.716866 -1.5968325 0.73265284 6.590048 1.0667955 2.9527917
2.3459072 3.1118875 -2.5657666 3.9108415 3.8125553 3.5842378 4.8516846 -1.9081599
-0.2289332 -2.1051955 -4.099134 -3.745119 -0.3931801 -3.4322624 1.7780738 -0.09953487
-3.3604465 1.7977002 4.0146704 -0.7481491 0.44033188 -2.4043343 0.15661095 -0.6576939
3.9526975 0.9174461 0.7579639 0.9389685 3.377941 2.4636343 1.0604652 -2.0446332
1.1389308 0.7534153 0.21132511 -1.7880567 -3.812573 6.522835 0.38425383 0.27948615
-3.217836 2.1089463 2.2809176 0.3896216 -3.409313 -0.35462686 2.7479262 -0.58485776
-1.140185 2.3147511 0.54210114 0.7515767 -2.6511695 -0.36330745 -2.8508298 -3.0372121
-0.6563358 -2.562135 -1.8103021 -1.6915718 4.94789 4.578157 1.7189603 1.9002414
1.661732 2.6825967 -1.7043782 0.39602232 4.8658457 4.5539083 -1.8922074 -1.604124
-3.463471 -2.1160042 1.6738583 -3.6188393 3.9995577 -1.0041518 -1.1419976 3.922782
1.2814869 -3.0366397 -1.2332729 -3.6083906 1.0206674 1.204643 0.17089516 2.1848738
0.61597353 -3.2402115 1.9639788 3.6543949 2.0291116 4.2085304 0.81257856 1.473814
0.9210703 1.830358 -0.70236236 0.6130606 -3.8977108 3.0270197 1.2210038 2.8755877
0.4707583 2.871466 0.16677758 1.325064 -2.4557953 -3.182812 0.3210429 1.9948465
-2.4272087 1.7378998 2.9157803 4.7019167 0.050632913 5.565915 2.8593578 -2.6840854
-0.7085899 3.2091603 1.3125942 3.0843894 -0.32119352 0.15423022 -0.8472369 -0.43085408
-2.8983614 -0.9257798 -2.9826503 -0.3302374 1.1281544 -2.9276018 -2.1027513 0.7255051
1.0378515 1.2619196 2.5148723 2.7168112 -2.7123127 1.2358133 -4.0217605 0.13947953
-1.5205733 -3.2889063 1.5434296 -3.3420951 4.571263 -0.7001057 -1.495208 2.4141939
2.1368737 0.7234929 0.2066392 1.6486008 -0.14923073 2.4270442 -2.5692246 3.158843
-0.8404993 -0.33797354 -1.7982687 1.731645 1.3404791 0.16810666 -1.2344649 1.432716

encoder.1.running_var f4 [256]
00000000: d083 0c3e db86 8e3d 99d7 3d3e 8ade 0b3d
00000010: 2200 6e3e 12be 9c3e 9419 213d 7c93 963d
00000020: 77e1 a83c fa9a 593e 904e 503e 9d59 923d
00000030: 489e c63d 1f37 3d3f 6147 793d 525b 4b3d
00000040: 5149 963d 3020 a93d f7d4 4b3e e29b c23e
00000050: c57e 943d 2df0 f03d 8895 ba3d b2a5 4d3e
00000060: 5151 d53d acf2 253f f1bf f13e dcdf cf3d
00000070: b1ce 0d3e b838 813e 655c 1f3e a877 723f
00000080: 1f58 793f 6ae5 7f3d 16f2 003f e165 123e
00000090: be8b 0b3f 1bb9 4d3d 96d1 8d3e 2de5 323e
000000a0: d711 3c3d b966 923e 2ec3 ea3e 71d1 ef3d
000000b0: 1bba c93d 3a6e 3c3e 0a83 aa3d cac9 873e
000000c0: 8de7 a03c e576 cf3d f898 fa3d e731 cf3e
000000d0: 722b 5d3d 4471 8e3d edb3 193e 6a48 983d
000000e0: 81f9 db3c 6b99 c33e 48fe cb3c eb67 6c3e
000000f0: dbb0 013e 4654 953e e134 b73d 3732 f53e
00000100: 2b2c 603e 341f b33d 1be4 253e ae93 943e
00000110: 065c c13e 55ca 863c ec49 bb3d 37bf 233d
00000120: 8390 1f3c c7a3 c93e 6abb 6a40 1667 d73c
00000130: 2c7c d03c d484 7e3e 73bd ac3d 5bac 4f3e
00000140: c77a 943e a134 233e bb37 873c ebd0 c53d
00000150: 1a30 6c3e c0d9 833e 2813 fe3d 6e1c b23d
00000160: d7a0 b03d 18d8 df3d 4870 7b3e 41c1 113e
00000170: 268c 6d3e ed73 483e 0011 213e d0a7 8f3e
00000180: 8092 793e a1d4 d33d c5a3 cc3d b754 223f
00000190: 8c27 843d db1c 593e 03c3 8d3c ba6f 8b3d
000001a0: 40e2 aa3e dbe2 1b3d ed6b 1d3e 06de 203e
000001b0: 147f 5f3e 61f1 133e 3895 2b3c c566 ac3b
000001c0: d1e7 543e b711 cf3e a37a c43d 74da a13d
000001d0: 23a2 9d3d 947a e23d 17e6 e03c 1e50 963e
000001e0: 65fa dc3d 4718 813e 6eda 473d 5991 133e
000001f0: 5e10 533e 4dd6 653e e0f7 133f 51fe 233e
00000200: e133 1d3e 023e da3d c730 df3d d7b0 dc3d
00000210: c6c7 6f3e 2110 3f3d 770c 003e 0faf 8a3e
00000220: f814 1b3d 8c58 d43c 6976 653e 0812 223e
00000230: 5ff2 3b3e a787 d43d 03f1 dc3e 5cc5 443e
00000240: 8d49 283e ba29 f53c 917d 643e 5848 d33d
00000250: 0d93 193e 23b1 233e 803c 5f3d c711 813c
00000260: 34ee 0e3e 9f6d 3a3e aef4 883e ba63 083f
00000270: e99a 763e 05d6 fe3c 4fcf d73d 2441 f53d
00000280: 47f9 4f3e 5c42 143f 2bde 033d c971 453e
00000290: a3fc 853e af98 be3f 94d9 403e 54b6 253d
000002a0: 48de 173f 55b0 113f d246 9d3d 1bb8 2f3f
000002b0: 400c 9c3d 9d44 a13d dc1d 143e 21f5 a23d
000002c0: 392b e53b 1376 1d3f bccc 883d 6cfd c33d
000002d0: 3863 0b3e 4ad8 3a3e f363 5a3e 5e7b 803d
000002e0: a4e2 db3e 2c22 923d d6a5 d83b 41f5 0f3f
000002f0: b9b7 c43c ee5e 0b3e 1b88 aa3d c839 4c3c
00000300: 827d 443e f684 723e 1b02 363c db95 b23c
00000310: d9e8 9c3e d176 253e c44c 863d 5eec ed3d
00000320: cba8 6a3d 5f25 c93d 957e fb3d 0d04 033e
00000330: 3440 153e f92c 563e 6bc5 e13d a101 e43d
00000340: 9d12 303e 259d 663e b471 ab3d 4496 ac3d
00000350: 3ed6 3f3f df37 d73d 3caf 943e 65fd 493e
00000360: f92a a23e 8daf 933d 4070 f93e 4697 d33d
00000370: 9269 213e 4a36 2d3e 5aed 2a3c dbe8 173d
00000380: 8258 d43d 3dfb 2f3e 190c 653d 76d3 d73d
00000390: f5f3 953e 3195 303c 6fe0 a93e a151 3b3e
000003a0: 849e 163e 6d7c ec3e ce51 963d 399c 323f
000003b0: 7e2f 323e 8d91 373e ec83 5f3e 20d6 363d
000003c0: 03a6 9b3d 5582 803d a96a fb3e 24c3 763d
000003d0: 9318 a93e 52a0 fd3d 4033 4f3e fe8e 1e3d
000003e0: d8bb ff3c 4880 b83d d288 bd3d ba32 0b3e
000003f0: 7413 7f3c ebdd bf3d ebc2 043e 9872 9d3d
0.13722157 0.069593154 0.18539275 0.034147777 0.23242238 0.30613762 0.039331034 0.07352349
0.020615323 0.21250525 0.20342469 0.071459986 0.096981585 0.73912233 0.060859088 0.049647637
0.07338203 0.082580924 0.19905458 0.38009554 0.07250742 0.1176456 0.09110552 0.20082739
0.104159005 0.6482341 0.47216752 0.1015012 0.13848378 0.25238585 0.1556259 0.9471383
0.9740009 0.062474646 0.50369394 0.14296676 0.54510105 0.05022536 0.27698964 0.17470236
0.04591545 0.28593996 0.45852035 0.1170987 0.0984995 0.18401423 0.08325775 0.2652114
0.019641662 0.10130099 0.12236208 0.4046776 0.05399651 0.069551975 0.15010042 0.07435687
0.026852371 0.38202986 0.024901524 0.23086517 0.12665121 0.29165858 0.08945633 0.47889873
0.21891849 0.08746186 0.16200297 0.2901892 0.3776552 0.016453901 0.09144959 0.03997728
0.009739044 0.39382765 3.6676888 0.026294272 0.025449835 0.24855357 0.08434572 0.20280592
0.28999922 0.15938045 0.016506067 0.096589886 0.23065224 0.25752068 0.124059975 0.08696829
0.08624428 0.109298885 0.2455455 0.14233877 0.23197994 0.19575472 0.15729141 0.28057718
0.24372292 0.1034329 0.09992174 0.63410515 0.064528555 0.21202414 0.017304903 0.068084195
0.3337574 0.038058143 0.15373202 0.15709695 0.2182582 0.14447547 0.010472588 0.0052612745
0.20791556 0.40443203 0.095937036 0.07902995 0.07696941 0.11058536 0.027453465 0.29358
0.107899465 0.25213835 0.048792295 0.14410914 0.20611712 0.2244503 0.578001 0.16014983
0.15351821 0.10656358 0.108979754 0.10775917 0.23416051 0.04664624 0.12504755 0.27086684
0.037861794 0.025921129 0.22408451 0.15827191 0.18354176 0.10377436 0.43152627 0.19215912
0.16434307 0.029927123 0.22313525 0.10316533 0.14997502 0.15985541 0.054501057 0.015755547
0.13958055 0.1820588 0.26749176 0.5327717 0.24082531 0.031107912 0.10537588 0.11975315
0.20309936 0.57913756 0.032194298 0.19281687 0.2616931 1.4890345 0.18833 0.040457085
0.5932355 0.56909686 0.076795235 0.686403 0.07619524 0.07874415 0.14464515 0.07956911
0.006993678 0.6150829 0.06679675 0.09569821 0.13612068 0.1824657 0.2132719 0.062735304
0.4294635 0.07135424 0.006611566 0.562336 0.024013387 0.13610432 0.08326741 0.012464948
0.19188502 0.23683533 0.0111089 0.021799972 0.306464 0.16158606 0.06557611 0.11617349
0.05728988 0.09821581 0.12280003 0.12794514 0.14575273 0.20915593 0.110239826 0.11133123
0.171946 0.22520883 0.083712965 0.084270984 0.7493628 0.105087034 0.29039943 0.19725569
0.3167341 0.07211218 0.48718452 0.103315875 0.15762928 0.16915241 0.010432566 0.037087303
0.10368444 0.17185684 0.05591974 0.1053838 0.29287687 0.0107777575 0.33179042 0.18292858
0.14708906 0.4618868 0.07339822 0.69769627 0.1740093 0.17926617 0.21827668 0.0446378
0.076000236 0.06274859 0.49104813 0.060244694 0.3302656 0.12384094 0.20234394 0.038710587
0.0312175 0.09008843 0.09254612 0.1359357 0.015568603 0.09368499 0.1296498 0.07687873

encoder.4.weight f4 [128, 256]
00000000: 75f2 863d 9819 de3c 60b7 aa3d f1a8 373e
00000010: fa1f 593e 1b38 36bc 2ba9 df3e 1635 25bd
00000020: 2a12 52be 638e 54bd 58b4 a6be cf59 c33d
00000030: 5e7d 13be f4a4 ae3d c73d a63d c033 b13e
00000040: f08f 8cbd 2b6a 07be 3406 023e 7c74 0fbe
00000050: f4e6 3e3d 12df 99bd 971d 863e e073 2f3e
00000060: af95 393e e38c 953d f4b8 e23d c1b6 463d
00000070: 0a88 3c3e d76e 8d3e 4d00 6e3e 4f79 ecbc
00000080: c40c 5d3e 869a 00be 4c96 ef3d d63a 12be
00000090: c423 1cbe 51af f63d ddca 303e 27bb e2bb
000000a0: 5a0e fbbd 3838 61bd 4c6c 733e 9e30 f13e
000000b0: 19d3 993e 5a45 753e de8c e4bd 9b99 b7bc
000000c0: 58f6 cbbd 37fa 00be 9ab9 5ebe b3c7 57bd
000000d0: 3891 36bd 1f49 a5bc 929d 1e3d 9603 8c3d
000000e0: 4acc 44bd 30ae 72be 45d1 3f3e eff0 96be
000000f0: 1141 93bc 9370 7ebe 27b7 853e 975f 063e
00000100: 3b7d 39be 9fb3 933e ce45 68be 474b 1dbd
00000110: 3d79 11bd 5c81 5abe 5f82 72be 5388 4fbd
00000120: f5af 90bd 71d5 603e 7a08 433b b627 48bd
00000130: 531e 83be dae1 c43d 83db 9c3e 283b 663d
00000140: 8ff0 8a3e ad5c 473d 8398 d0bd 225f 4b3d
00000150: bcef 1abe 8ce0 b33c 3b9c 46bd 8133 713e
00000160: c426 e43d e177 b1be 215f bb3c 8a20 873e
00000170: 0246 0a3e 9baa b6bc 3817 8ebd 6a21 9ebd
00000180: a842 03bd 2275 983e 612a 88bd 0212 363e
00000190: f658 b33e 0c6b ac3d f3fd a63e 4901 1abe
000001a0: 4bd7 a33d 3fe7 383e 66fe 7a3e c323 a13d
000001b0: 6e2f 163e 4361 b63c 7f35 acba 3b38 aa3d
000001c0: a406 9a3d c9f0 663e 12a9 e1bc c23d a23e
000001d0: f389 3abe 58bd c23d 911c d13e 1c01 90bd
000001e0: 0b9e 913e a393 edbc e71b e2bd a69e 413e
000001f0: 1ff4 de3c fe0d 27be 326e 48be 5b1f 6c3d
00000200: df0d 46bd af38 953d d07d bbbe 84d3 84bc
00000210: 9ee6 c13d 83e2 ae3c 7c0f b73d 92e9 13bb
00000220: 8978 0cbe 7bcc 88be fe50 0cbe b41d 963c
00000230: 6a5f f4bc c04e 903e 0266 653d 559d 0f3e
00000240: f430 773d 6afe 4c3e 0ed0 7f3d 384b 383e
00000250: 26e0 01be edf0 653e 619e 1a3d e1eb 7ebd
00000260: d014 84be 9146 6fbd 1c2b 843d 38fd 9cbd
00000270: b357 2f3e 7bb2 03bc 83bc 4b3e 2eb6 d1bd
00000280: 1662 f0bd 595b d9bd 25b2 23be 1473 b8bc
00000290: 61a0 1c3e 7fe9 a33d 9ff3 41be c125 0ebe
000002a0: 6016 a23d 904e 623d 50b9 d23c 08b4 803d
000002b0: f73d 9cbe 1630 59be c875 863e 6b6d ed3b
000002c0: 5122 5a3e b25e 86bb 3463 24bd b6b2 223e
000002d0: 893f 12bf 2ddc 1b3e fb67 0f3e bd7b bfbe
000002e0: 1bd9 8ebc a5b1 8bbd 1978 8b3e fe73 4dbd
000002f0: 47eb 3a3d 9be9 2dbe e298 c43e f278 e43c
00000300: 910e ac3d 2ea7 edbd 9e14 20be f74a 3f3e
00000310: ed93 153d c691 b3bd b150 e73e fdbc d4bc
00000320: 6d8c 15be 5d4c da3e c517 7e3c c907 d23c
00000330: d0e3 29be 01c8 34bd cc00 2f3e 9243 7fbd
00000340: d88f b43d 7626 1cbe 8793 703e 6b85 14be
00000350: efed 623b b479 a9bd e417 79bd 1954 293d
00000360: 1e8a a4bc 4972 f8bd 400f ec3c cb43 493d
00000370: bd2c 653d b742 0abe e653 b3bd cec9 77be
00000380: 69fa 613e 12e7 0cbe 7aaa ca3e a24f 76bd
00000390: 78b6 bbbd 9db7 b3bd 3daf e63c 4583 3e3e
000003a0: df30 a33e 856f c2bc a0cd d5bd 86a3 d53d
000003b0: c5f8 143d 7ed4 cd3c bed3 60bd 2733 713d
000003c0: 9833 d53e ebe2 ce3d 1139 58be ebfa bd3e
000003d0: 5382 a4be d9f0 0dbe 27bc 0bbe bf17 8ebe
000003e0: e6cb 21be 23a3 88bd 933a 303e b979 90bd
000003f0: 87f5 39bc 7bce 8e3e 3a87 02be 952b a73e
0.06589214 0.027111813 0.08335757 0.1793554 0.21203604 -0.011121775 0.43683752 -0.04033383
-0.20514742 -0.051893603 -0.32559466 0.09538614 -0.14403293 0.08527556 0.08117252 0.34609795
-0.068633914 -0.13224094 0.12697679 -0.14009279 0.046606973 -0.075132504 0.2619445 0.17134047
0.18123506 0.07302263 0.11070433 0.04851413 0.1841127 0.27623627 0.23242302 -0.028866438
0.21586901 -0.12558946 0.11698589 -0.14280257 -0.15248019 0.12045158 0.17264886 -0.006919283
-0.12258597 -0.054985255 0.2377178 0.47107404 0.30043867 0.23952237 -0.11159681 -0.022412112
-0.09959096 -0.1259545 -0.21750489 -0.052680682 -0.044572085 -0.020176468 0.03872449 0.068366215
-0.048046388 -0.2369926 0.18732174 -0.29480693 -0.017975362 -0.24847631 0.26116297 0.13122402
-0.18114178 0.28847978 -0.22682878 -0.03840187 -0.035516012 -0.21338409 -0.23682545 -0.05066712
-0.07064811 0.21956421 0.002975969 -0.048865996 -0.25609073 0.0961339 0.30636224 0.05620876
0.27136657 0.048672367 -0.10185339 0.049651273 -0.15130514 0.021957658 -0.048488837 0.23554803
0.111402065 -0.34661773 0.02287251 0.26392013 0.13503268 -0.022298148 -0.069380224 -0.07721217
-0.03204599 0.29776865 -0.06648708 0.17780307 0.3502881 0.08418855 0.32615623 -0.15039553
0.08000048 0.18056963 0.24511108 0.07868149 0.1466653 0.022263175 -0.0013138502 0.08311506
0.07520798 0.2255279 -0.02754644 0.31687742 -0.18216686 0.09508771 0.40842107 -0.070314616
0.2844089 -0.029001063 -0.11040478 0.18908176 0.027216015 -0.16313931 -0.19573286 0.05764709
-0.048353072 0.07286202 -0.36619425 -0.01621414 0.09467815 0.021348244 0.089385 -0.0022569639
-0.13717856 -0.26718506 -0.13702771 0.01832471 -0.029830653 0.2818508 0.056005485 0.14024861
0.06034942 0.20018926 0.062454276 0.17997444 -0.12683162 0.22455187 0.0377487 -0.06223667
-0.2579713 -0.058416907 0.06453535 -0.07665485 0.17123298 -0.0080381585 0.1989613 -0.10239826
-0.117374584 -0.10613126 -0.15985925 -0.022515811 0.15295555 0.0800352 -0.1894059 -0.1388159
0.07914424 0.055250704 0.02572313 0.06284338 -0.30516025 -0.2120975 0.26261735 0.0072457097
0.21302153 -0.004100644 -0.04013367 0.15888485 -0.57128197 0.15220709 0.14004509 -0.37399092
-0.017437508 -0.068209924 0.27240065 -0.050159447 0.045634534 -0.16983645 0.3839789 0.027889702
0.08401216 -0.116041526 -0.15632865 0.1868094 0.036518026 -0.087680385 0.4517875 -0.025969023
-0.1460435 0.42636386 0.015508597 0.025638478 -0.1659081 -0.04413605 0.17090148 -0.0623203
0.088164985 -0.15249047 0.23493777 -0.1450402 0.0034626683 -0.08275166 -0.0608138 0.041339967
-0.02008539 -0.12131173 0.028815866 0.049136918 0.05595087 -0.13502012 -0.08756237 -0.24198076
0.2206818 -0.13760021 0.39583188 -0.060134538 -0.091656625 -0.08775256 0.028159732 0.18604763
0.31873223 -0.023734817 -0.104396105 0.1043158 0.036370058 0.025125738 -0.054889433 0.058886673
0.41640925 0.10101875 -0.21115519 0.37105498 -0.3213068 -0.13861407 -0.13645993 -0.27752492
-0.15800437 -0.06671741 0.17209844 -0.07054467 -0.011350042 0.27891907 -0.12746897 0.32650438

encoder.4.bias f4 [128]
00000000: 9ad4 0fbc db65 61bd 85f6 6dbd 0c79 5bbd
00000010: 819b 17bd 5673 e6bc 8bf0 51bd ef2a 313a
00000020: f18e 753c 2961 95bc d8f3 50bc a4e2 08bd
00000030: 4de5 eebb a56f 43bd 2cc3 1ebd 214b 6a3b
00000040: e0d1 25bd d77f 59bd 6b52 17bd 3661 923c
00000050: e931 1abd e910 6abd 8512 5dbd 6580 023c
00000060: 3a2d a5bb ce34 3c3c d2f0 ebbb d695 dd3b
00000070: 9cee 623d 8e42 0dbc 2476 ee3b 3c85 b9bc
00000080: 25a1 1cbd 50f4 8e3c 1c99 b5bc 52e4 ee3c
00000090: 3a61 10bd 2af3 93bc d797 b6bc da5b 723d
000000a0: d7e3 8a3c 5788 08bd 2a07 03bd d676 1cbd
000000b0: 9b92 683d 0556 25bd 4f14 9fbc 130e 7fbd
000000c0: 7949 1fbc 32d0 2bbc 5a6f 0ebd d34a 243d
000000d0: 1a76 69bc 3ec5 1abd a286 133d 830e 723d
000000e0: 5585 04bd 6a51 113d 70af 5abd 614f 5ebd
000000f0: c74f c53c b554 8dbc 0165 263d 969c af3b
00000100: 6581 4ebd 5cee 05bb cbcb 8e3c 2a9f 36bd
00000110: c66f dbbc edf6 dc3c baf4 14bd c06b bcbc
00000120: 1434 72bd 5330 483d 249c 4b3d b184 6abb
00000130: a020 193d f276 6c3c 54c8 223d b6f4 623c
00000140: ef3f e73c dd05 7f3d ad19 323d 9e84 d7bc
00000150: 5d79 663d e377 77bb 394c 193c b59c 2fbd
00000160: 09d9 1c3d 5bc4 b6bc 7911 a13c 4070 663d
00000170: 22f9 9d3c bbc1 043d d9bc 373d 57de 713c
00000180: a41f a83c 0285 663d f97c 013c ecb9 47bc
00000190: e246 21b9 0f8f d1bc 7155 713d 8f0e 363d
000001a0: fa83 2abd c0e0 81bc 2470 6f3d 0807 9ebc
000001b0: ccd6 203c 2db0 853c 9cbb 02bd 94a4 523c
000001c0: ffd9 303d 8a3e 443d d9c7 23bd 4e95 2bbb
000001d0: 5e8f 31bd 22b2 6bbd bc12 dbbc fbe4 64bd
000001e0: a689 3abd 8996 89bc 38a1 d5bb 32c2 293d
000001f0: 8d1f 26bd ea25 3abc aabc db3c dbae 9cbc
-0.0087787155 -0.055028778 -0.058096427 -0.053582236 -0.037013534 -0.028131168 -0.05125479 0.0006758412
0.014987693 -0.018234806 -0.012753449 -0.033419266 -0.0072905184 -0.047713894 -0.03876035 0.0035750347
-0.040483356 -0.053100433 -0.036943834 0.01786862 -0.037645254 -0.057145033 -0.05397274 0.007965182
-0.005040792 0.011487199 -0.007200339 0.0067622466 0.055403337 -0.008621825 0.007277267 -0.022646539
-0.038239617 0.017450482 -0.022167735 0.029161606 -0.035248972 -0.018060286 -0.0222892 0.059169628
0.016954346 -0.03333315 -0.031989254 -0.03819927 0.05678044 -0.040365238 -0.019418864 -0.06226928
-0.009722107 -0.010486649 -0.034774162 0.04011042 -0.014249349 -0.03778576 0.036017068 0.05909587
-0.032353718 0.035478033 -0.053389966 -0.05427492 0.024085892 -0.017252306 0.04062367 0.0053592427
-0.05041637 -0.0020436263 0.01743116 -0.044585384 -0.026786696 0.026973212 -0.036366202 -0.023000598
-0.059131697 0.04887421 0.049709454 -0.0035784657 0.03738463 0.014432656 0.03974183 0.013852289
0.028228728 0.06226145 0.043481518 -0.026308354 0.056268085 -0.0037760667 0.009356552 -0.042874057
0.03829292 -0.022310426 0.019661652 0.056259394 0.019283835 0.03241132 0.044857834 0.014762483
0.0205229 0.05627919 0.007903331 -0.012190323 -0.00015380562 -0.025580911 0.058919374 0.044447478
-0.04162977 -0.01585424 0.058456555 -0.019290462 0.009816837 0.016319359 -0.0319172 0.012856621
0.043176647 0.047911204 -0.03998551 -0.0026181522 -0.043349616 -0.057542928 -0.026742332 -0.055882435
-0.045541428 -0.016795414 -0.006519463 0.041444965 -0.040557433 -0.0113615785 0.02682336 -0.019126346

encoder.5.weight f4 [128]
00000000: 2bc1 8a3f 99f5 933f 4d65 763f cb5d 803f
00000010: a53d 923f f1c8 9f3f 21fa 893f 25be 723f
00000020: c958 793f 0447 943f 27f6 873f 6f4f 803f
00000030: 8391 8b3f da4d 7e3f cf87 953f de9f 963f
00000040: ff77 833f f506 8d3f 76ef 943f 794b 643f
00000050: f764 703f 0f32 6e3f 401f 853f ef59 663f
00000060: 509d 773f 07fd 953f c1d1 6e3f b032 903f
00000070: dcf7 993f 6703 703f e31a 8f3f ba1a 833f
00000080: 4cbe 923f 5afc 873f 9565 9a3f e207 663f
00000090: 5187 9f3f f300 473f 7b48 823f fad7 863f
000000a0: 638b 923f fa45 803f e83a 893f f2f0 923f
000000b0: e4df 8f3f bfec 873f 85d1 8b3f 0b74 933f
000000c0: dc15 733f 4696 8f3f 23ab 673f 576e 863f
000000d0: be21 823f f9b5 823f e69b 8c3f 09a8 873f
000000e0: 183c 4f3f 6271 8a3f 96a8 693f 7f90 873f
000000f0: 7875 703f 3445 863f df7a 683f 2c02 8e3f
00000100: b45f 543f f95e 653f 8817 6d3f c9a2 963f
00000110: 7e3d 8b3f d974 863f 8c7d 943f c7e5 843f
00000120: 66e3 9a3f d543 7f3f 53b2 8a3f 576d 693f
00000130: f117 843f ce26 853f 424f 8b3f ebe5 7e3f
00000140: e718 5f3f d24e 893f 4680 8f3f a160 9b3f
00000150: 9da3 833f ff0a 803f b77d 733f d58a 913f
00000160: 3052 823f 34b5 8c3f 0317 883f 3d5e 7e3f
00000170: 4833 713f 2054 973f 06ce 793f a35b 663f
00000180: 43fb 823f 21ec 933f 6e84 873f a5f0 6c3f
00000190: 4afc 873f 5a2e 703f 80e7 903f 6873 853f
000001a0: b9f5 783f 87a2 9e3f 4ccd 913f bff4 913f
000001b0: 4aee 833f 2329 993f b745 873f 9316 753f
000001c0: 71c3 853f 60f0 543f 4ae8 983f f152 8c3f
000001d0: 4f03 913f feab 8e3f 7711 8d3f 66f2 8c3f
000001e0: 47df 7d3f f617 7f3f 1766 943f 8d8c 8f3f
000001f0: 2f80 6c3f 2d7c 873f 9ef9 943f 905c 903f
1.08402 1.1559325 0.9624832 1.0028623 1.1425062 1.2483197 1.0779458 0.9482139
0.974011 1.1584172 1.0621995 1.0024241 1.0903782 0.9933754 1.168207 1.1767538
1.0270995 1.1017748 1.1635578 0.8917766 0.9390406 0.93045133 1.0400162 0.8998098
0.96724415 1.1717843 0.9328881 1.1265469 1.2028766 0.9375519 1.118008 1.0242531
1.1464324 1.0623887 1.206225 0.8985578 1.246317 0.77735823 1.0178369 1.0534661
1.1448787 1.0021355 1.0721102 1.1479781 1.1240201 1.0619124 1.0923315 1.1519789
0.9495523 1.1217735 0.9049551 1.0502423 1.0166547 1.0211784 1.0985076 1.0598155
0.8095107 1.0815852 0.91272867 1.0590972 0.93929243 1.0489869 0.90812486 1.1094413
0.8295853 0.8959804 0.9261403 1.1768428 1.0878141 1.0504409 1.1600814 1.0382622
1.2100646 0.9971288 1.083567 0.91182464 1.0319806 1.0402467 1.0883563 0.99569577
0.8714737 1.0727179 1.1211021 1.2138864 1.0284306 1.0003356 0.951137 1.1370493
1.0181332 1.0992799 1.0632023 0.99362546 0.94218874 1.1822548 0.9757999 0.89983577
1.0232929 1.1556436 1.0587289 0.92554694 1.0623868 0.93820727 1.1320648 1.0425844
0.97249943 1.239335 1.1390777 1.1402816 1.0307095 1.1965679 1.056815 0.9573757
1.0450269 0.83179283 1.1945889 1.0962812 1.1329135 1.1146238 1.1020955 1.1011474
0.9916882 0.99645936 1.1593655 1.1214768 0.9238309 1.058477 1.1638677 1.1278248
