models/syn_dos_model.pth (torch, 603037 bytes, 32 tensors)

encoder.0.weight f4 [256, 114]
-0.04812684 -0.79215425 -0.041768007 -0.37521997 -0.6345144 -0.13028076 -0.12726037 -0.1330474
-0.112390965 0.24167912 -0.079448774 -0.110655144 0.22683343 -0.09823588 0.1464893 0.03607226
-0.8022826 0.011128058 -0.2267769 -0.50976735 -0.27598414 -0.1549439 -0.1811545 -0.20778118
0.19994332 -0.039279837 -0.23608178 0.060491297 -0.093138844 0.1385992 0.050548177 -0.75349635
0.11248395 -0.21783374 0.6331328 -0.30564138 -0.26653954 -0.31168234 -0.4189646 0.1924006
0.09740775 0.35768306 -0.048682287 0.07102562 -0.121041186 -0.022812968 0.017773287 0.6383256
0.37346485 0.36162916 0.40215248 0.23811756 0.30738798 0.27543116 1.1669867 0.6230996
0.88811994 0.6600685 0.19861622 0.32918605 0.22613743 1.2795827 0.7219744 0.020862713
0.14591934 0.031265453 -0.41488618 0.015979622 -0.2747045 -0.4884942 -0.04046571 -0.086668074
-0.56700456 -0.06459633 0.2015784 -0.64150673 -0.11699414 0.113174714 -0.5443507 -0.31175506
-0.21191256 -0.2460049 -1.0305047 -0.13341743 -1.2386183 -0.27370065 -0.14711629 -0.6304201
-0.18371415 -0.9150216 -0.21845913 -1.3090506 0.07468636 0.10655137 -0.31873402 -0.11042715
-0.6737046 -0.24014755 -1.1564006 -0.0633336 -0.14798994 0.09210586 -0.15535341 -0.051769722
-0.057715826 -0.10907627 0.11188263 0.14738642 0.18696897 -0.04605717 0.04671857 -0.08265214
0.07489433 0.2608983 -0.9174596 -0.11687013 -0.38757154 -1.529275 -0.117837235 -0.39840102
-1.1774725 -0.23603557 -0.22972064 -0.058265727 0.09036305 -0.019379586 -0.7781002 -0.07873925
0.10851303 -0.9606217 -0.19669732 -0.39200622 -1.5979354 -0.2147693 -0.23358653 -1.0852642
-0.28628182 -0.30490473 -0.13890369 0.15113668 -0.053081762 -0.80516654 -0.1350074 0.09105032
-0.60477084 0.1714947 0.07947567 -0.09291342 -0.13805702 0.05520522 0.10016353 -1.0591594
0.09699707 0.06014763 -0.043341313 -0.1800158 0.09379929 0.25744513 -0.4455291 0.2281535
0.07637393 -0.07859447 -0.06902629 0.11263417 0.05193991 0.071210705 0.19127777 0.14833629
0.025858555 0.021856716 0.6288871 0.6556908 -0.35600734 0.24089807 0.2986659 0.0051943483
0.21989709 0.16765586 0.1663688 -0.5385814 0.042594116 0.45694914 -0.9391901 0.09263557
0.37088597 -0.38793376 0.1085891 0.2919481 0.1713321 0.16881795 0.43462056 -0.24183702
0.23928702 0.066394255 -0.32754028 0.20330052 0.50781107 0.111766696 0.3497647 0.14142607
0.23031506 -0.61611974 0.15923978 0.5236166 0.076676734 0.528861 -0.06827612 -0.18817732
-0.17370217 0.08870918 0.34496614 0.038062207 0.43287024 -0.19762927 -0.09811936 -0.1336373
0.037355777 0.13819283 0.05243567 -0.008023665 0.042379446 0.13991986 -0.5756201 0.008401949
0.17941208 0.01310742 0.12944655 0.37451965 -0.8115818 -0.41154206 -0.68142086 -0.8795348
-0.192799 -0.33607242 -0.40808022 -0.22237526 -0.082006775 0.19862513 -0.15517221 0.10778155
0.48584145 -0.5963891 0.38937476 -0.9266582 -0.4752683 -0.739789 -0.79614496 -0.17887937
-0.40371853 -0.34856084 -0.050295103 0.0710206 0.12706882 -0.1946245 0.14022675 0.49888906
00000000: a620 45bd 9fca 4abf ee14 2bbd d51c c0be
00000010: 896f 22bf 5268 05be 8b50 02be 943d 08be
00000020: 3c2d e6bd bb7a 773e 0ab6 a2bd 2a9f e2bd
00000030: 0647 683e e52f c9bd 4b01 163e 82c0 133d
00000040: 6462 4dbf 7552 363c 3438 68be 1d80 02bf
00000050: cb4d 8dbe 9da9 1ebe 9180 39be 97c4 54be
00000060: f1bd 4c3e e5e3 20bd 6cbf 71be b9c5 773d
00000070: 94bf bebd f3ec 0d3e 9b0b 4f3d 23e5 40bf
00000080: fc5d e63d cf0f 5fbe fe14 223f 077d 9cbe
00000090: df77 88be d494 9fbe 8782 d6be aa04 453e
000000a0: b77d c73d 3c22 b73e 1467 47bd e175 913d
000000b0: 71e4 f7bd 43e2 babc 4999 913c 4e69 233f
000000c0: c936 bf3e 7527 b93e eee6 cd3e 17d5 733e
000000d0: f561 9d3e 5005 8d3e d25f 953f 7583 1f3f
000000e0: d45b 633f 40fa 283f 0d62 4b3e 138b a83e
000000f0: 9290 673e 5ec9 a33f 50d3 383f 48e8 aa3c
00000100: e16b 153e 3410 003d f66b d4be b2e7 823c
00000110: 11a6 8cbe e91b fabe 5fbf 25bd 087f b1bd
00000120: 3627 11bf 154b 84bd 916a 4e3e c939 24bf
00000130: a09a efbd 25c8 e73d 915a 0bbf 5c9e 9fbe
00000140: 9bff 58be b5e8 7bbe 94e7 83bf 949e 08be
00000150: 0b8b 9ebf 7e22 8cbe a7a5 16be 3663 21bf
00000160: 901f 3cbe db3e 6abf c0b3 5fbe f88e a7bf
00000170: 2af5 983d 9b37 da3d 1b31 a3be a127 e2bd
00000180: e877 2cbf 3de9 75be ef04 94bf 0cb5 81bd
00000190: ad8a 17be ffa1 bc3d f714 1fbe 7d0c 54bd
000001a0: 6e67 6cbd 6163 dfbd b822 e53d 77ec 163e
000001b0: cb74 3f3e 71a6 3cbd f95b 3f3d 8645 a9bd
000001c0: 3362 993d 7694 853e a2de 6abf 9b59 efbd
000001d0: c76f c6be 48bf c3bf a654 f1bd 38fb cbbe
000001e0: 6bb7 96bf 4fb3 71be e33b 6bbe 0ba8 6ebd
000001f0: 4310 b93d f0c1 9ebc 9331 47bf 0b42 a1bd
00000200: 143c de3d 4eeb 75bf 066b 49be 0ab5 c8be
00000210: 2689 ccbf 7cec 5bbe 4f31 6fbe f0e9 8abf
00000220: 8893 92be 791c 9cbe c53c 0ebe 93c3 1a3e
00000230: 436c 59bd 651f 4ebf 613f 0abe 9778 ba3d
00000240: 43d2 1abf 4e9c 2f3e 24c4 a23d 6449 bebd
00000250: d25e 0dbe de1e 623d 8922 cd3d 8992 87bf
00000260: 66a6 c63d 5c5d 763d a986 31bd 1056 38be
00000270: d819 c03d d9cf 833e 641c e4be 12a1 693e
00000280: ef69 9c3d 23f6 a0bd a85d 8dbd beac e63d
00000290: f1be 543d ebd6 913d 52de 433e 78e5 173e
000002a0: 52d5 d33c db0c b33c bffe 203f 5adb 273f
000002b0: 9846 b6be fcad 763e bdea 983e 5a35 aa3b
000002c0: b42c 613e faad 2b3e 955c 2a3e 78e0 09bf
000002d0: 2b77 2e3d 3df5 e93e c36e 70bf b8b7 bd3d
000002e0: c4e4 bd3e 419f c6be f663 de3d 397a 953e
000002f0: af71 2f3e 9dde 2c3e 9686 de3e 20a4 77be
00000300: a807 753e b6f9 873d 5cb3 a7be 032e 503e
00000310: e8ff 013f f0e5 e43d 5c14 b33e ffd1 103e
00000320: b6d7 6b3e 06ba 1dbf c10f 233e bd0b 063f
00000330: b108 9d3d 6f63 073f 5ad4 8bbd 8eb1 40be
00000340: fbde 31be 29ad b53d 679f b03e 1ee7 1b3d
00000350: 2ba1 dd3e 545f 4abe cef2 c8bd 37d8 08be
00000360: 5f02 193d 6c82 0d3e c9c6 563d b175 03bc
00000370: 1296 2d3d 2747 0f3e d75b 13bf 54a8 093c
00000380: cdb7 373e 81c0 563c a38d 043e 0ac1 bf3e
00000390: d3c3 4fbf a4b5 d2be 9971 2ebf 3129 61bf
000003a0: 1a6d 45be af11 acbe e4ef d0be 57b6 63be
000003b0: 2bf3 a7bd 6364 4b3e 77e5 1ebe 93bc dc3d
000003c0: 36c0 f83e f5ac 18bf 215c c73e 7939 6dbf
000003d0: 5e56 f3be d062 3dbf 28d0 4bbf 272c 37be
000003e0: 32b4 cebe 9176 b2be 3d02 4ebd 4073 913d
000003f0: 541e 023e a54b 47be 9a97 0f3e 636e ff3e

encoder.0.bias f4 [256]
-0.07566544 -0.0158235 -0.050977264 0.0520244 -0.023261927 -0.024052903 -0.062004928 -0.060725342
0.07983736 0.04718139 -0.0037027122 -0.086542405 -0.07414148 -0.08044428 0.06908541 -0.06984727
0.0596597 0.075387165 -0.008557533 -0.077938475 0.065353416 -0.07384059 -0.06623266 -0.02074956
-0.069182985 0.038393743 -0.0834236 -0.05449013 0.07169733 0.021101065 0.006209256 -0.021922689
0.062384043 -0.0050928667 -0.05899748 -0.07180705 -0.058683317 0.07624686 0.020429367 0.024569547
0.040353686 0.04813875 -0.07943032 -0.08779742 -0.041252412 0.0098418705 -0.06936204 0.03444262
0.07812236 -0.07618984 -0.01454299 -0.059871778 0.052167468 0.03222798 0.026640872 -0.0002396617
0.00043170564 -0.06630466 0.018465059 0.062699184 -0.07100001 0.018556854 0.08148805 0.0027916483
-0.07630336 0.021844048 0.05353293 0.031477127 0.00521252 0.0020094316 0.016825257 -0.07488626
-0.092405215 -0.025742026 0.010431269 -0.0237832 0.04880156 -0.017193565 -0.04635479 0.0024774163
-0.052642062 0.0034550182 0.014581966 0.06538785 0.052534603 0.033285968 -0.029085234 0.03323961
0.08273531 -0.027219635 0.06838438 -0.014711031 -0.024683626 -0.07371006 0.076622464 0.02909043
-0.02136361 -0.038485676 -0.04113128 -0.07927865 0.05340739 0.05592634 -0.0032047012 -0.043249015
0.06947559 -0.058674607 0.003169835 -0.031113321 0.051697616 0.09345837 -0.03448044 -0.059572924
0.027368976 0.008095709 -0.021734387 -0.08497097 0.090983264 -0.062442765 0.052944638 0.080461696
0.06441266 -0.027883219 0.022966085 0.08597341 -0.090188295 0.05664085 0.044418227 -0.09240847
-0.090024404 -0.023636432 -0.0026440644 0.05147353 0.027032673 0.050041776 0.012738835 0.02949682
0.052370127 -0.026339844 -0.07282941 -0.09227486 -0.06563388 0.011477164 0.03606701 0.0059870635
0.03729534 -0.013589172 -0.092291966 -0.022550697 0.08669477 0.03366019 -0.032225158 0.027892409
0.009400759 0.009597893 -0.07155978 0.056454092 -0.006196381 -0.037660044 0.0858235 -0.09298851
0.07835849 0.041576292 0.040260796 0.016515812 -0.05931668 0.039198473 -0.04133228 0.053568274
0.09132169 0.06392792 0.036646653 -0.00086973695 -0.043834694 0.055495363 -0.005908122 -0.069042034
-0.018072434 -0.035873607 -0.008898572 -0.09252664 -0.023154378 -0.07069591 0.017016854 0.07848929
-0.038432486 0.06716972 -0.0135080945 0.0060677803 0.0873505 -0.049052887 0.06416724 0.08975788
0.065742 -0.020903116 -0.07607249 -0.055567186 0.0715551 0.09208067 0.079233296 0.087646954
0.028949028 -0.051090702 0.012629838 -0.09108647 -0.01594248 -0.058630526 -0.060603585 -0.044064414
0.07519283 0.020203806 -0.020997375 0.08517869 -0.03830093 0.010067051 -0.036862247 -0.06315436
0.092452854 -0.09142903 0.02620311 -0.013519303 -0.056606386 0.009777769 -0.08747165 0.06147794
0.029579286 -0.0902962 0.039966732 0.0015460316 0.090482675 -0.013179704 0.045521524 -0.0421453
-0.024185356 0.07536961 0.076431096 -0.048888788 0.022469752 -0.04823354 -0.028389804 0.00070593314
-0.025490468 0.024342166 0.037598636 0.042592917 0.08888483 -0.09170948 0.051251568 0.025750713
0.013773546 0.025062231 -0.06430363 0.044404242 0.07165384 0.0295512 0.06515389 0.093454264
00000000: 7bf6 9abd 49a0 81bc 89cd 50bd 8a17 553d
00000010: cc8f bebc 980a c5bc e1f8 7dbd 23bb 78bd
00000020: c581 a33d 4641 413d 34a9 72bb 253d b1bd
00000030: 7dd7 97bd f8bf a4bd a77c 8d3d 160c 8fbd
00000040: bb5d 743d 9664 9a3d e534 0cbc 359e 9fbd
00000050: 03d8 853d bc39 97bd fda4 87bd fbfa a9bc
00000060: cfaf 8dbd c242 1d3d fed9 aabd 0b31 5fbd
00000070: 0dd6 923d 24dc ac3c 0477 cb3b 3697 b3bc
00000080: 6986 7f3d 10e2 a6bb 57a7 71bd 930f 93bd
00000090: eb5d 70bd 5027 9c3d 7d5b a73c 1346 c93c
000000a0: e849 253d 232d 453d 5dac a2bd 22cf b3bd
000000b0: 4af8 28bd cc3f 213c af0d 8ebd b413 0d3d
000000c0: 9efe 9f3d 6b09 9cbd b945 6ebc 1c3c 75bd
000000d0: 8ead 553d 7d01 043d f53d da3c b34d 7bb9
000000e0: 8d56 e239 bdca 87bd 0944 973c 6e68 803d
000000f0: 7468 91bd 8b04 983c 35e3 a63d 16f4 363b
00000100: f044 9cbd 4af2 b23c 5845 5b3d 29ee 003d
00000110: c9cd aa3b abb0 033b 1fd5 893c f85d 99bd
00000120: f23e bdbd f1e0 d2bc eae7 2a3c fcd4 c2bc
00000130: 25e4 473d 85d9 8cbc 85de 3dbd 265c 223b
00000140: 349f 57bd 966d 623b 33e9 6e3c 11ea 853d
00000150: 862e 573d de56 083d 2844 eebc 4226 083d
00000160: 2171 a93d b6fb debc 1c0d 8c3d 8906 71bc
00000170: 5135 cabc 4df5 96bd 3dec 9c3d 0e4f ee3c
00000180: bd02 afbc 28a3 1dbd 4679 28bd d85c a2bd
00000190: b5c1 5a3d 0513 653d f705 52bb e125 31bd
000001a0: 3849 8e3d c954 70bd 02bd 4f3b 5de1 febc
000001b0: e1c0 533d 1a67 bf3d 5d3b 0dbd bd02 74bd
000001c0: e734 e03c dda3 043c 500c b2bc 4305 aebd
000001d0: 6f55 ba3d fcc3 7fbd 7adc 583d 1ac9 a43d
000001e0: c9ea 833d 596b e4bc 5f23 bc3c d412 b03d
000001f0: a4b4 b8bd 3c00 683d e3ef 353d a740 bdbd
00000200: b75e b8bd 31a1 c1bc 0a48 2dbb e8d5 523d
00000210: a073 dd3c 9bf8 4c3d 8cb6 503c 51a3 f13c
00000220: 0f82 563d a8c6 d7bc 9627 95bd 9afa bcbd
00000230: 0e6b 86bd b70a 3c3c 00bb 133d 212f c43b
00000240: 00c3 183d 1ea5 5ebc 9203 bdbd 3dbc b8bc
00000250: 078d b13d 44df 093d 87fe 03bd 9f7e e43c
00000260: a405 1a3c 7b40 1d3c ef8d 92bd 683c 673d
00000270: 030b cbbb 6b41 1abd 3bc4 af3d c370 bebd
00000280: 6a7a a03d e74b 2a3d 81e8 243d 2b4c 873c
00000290: 0cf6 72bd 948e 203d 094c 29bd 686a 5b3d
000002a0: de06 bb3d a4ec 823d cd1a 163d 0fff 63ba
000002b0: 028c 33bd 1b4f 633d eb98 c1bb e965 8dbd
000002c0: a40c 94bc 34f0 12bd 51cb 11bc 9b7e bdbd
000002d0: 40ae bdbc 04c9 90bd ee66 8b3c febe a03d
000002e0: 626b 1dbd 4790 893d 0e51 5dbc 3bd4 c63b
000002f0: d2e4 b23d aeeb 48bd 1d6a 833d fbd2 b73d
00000300: bea3 863d 033d abbc e5cb 9bbd 6b9a 63bd
00000310: 7b8b 923d ca94 bc3d 1145 a23d 3f80 b33d
00000320: 8326 ed3c 7c44 51bd 61ed 4e3c 8b8b babd
00000330: ce99 82bc 9026 70bd 773b 78bd e37c 34bd
00000340: b3fe 993d 7482 a53c b002 acbc 2a72 ae3d
00000350: 70e1 1cbd 46f0 243c defc 16bd 1357 81bd
00000360: ec57 bd3d 253f bbbd e8a7 d63c 1180 5dbc
00000370: 19dc 67bd f032 203c 5624 b3bd 4bd0 7b3d
00000380: 4250 f23c 37ed b8bd 28b4 233d 36a4 ca3a
00000390: fb4e b93d afef 57bc c774 3a3d 8da0 2cbd
000003a0: 5e20 c6bc 625b 9a3d e887 9c3d 9c3f 48bd
000003b0: 7c12 b83c 8890 45bd bc91 e8bc 5f0e 393a
000003c0: 63d1 d0bc 3969 c73c 0701 1a3d e975 2e3d
000003d0: 4009 b63d 2ed2 bbbd 2aed 513d 29f3 d23c
000003e0: 70aa 613c 4f4f cd3c 9fb1 83bd 39e1 353d
000003f0: 40bf 923d 5c15 f23c 676f 853d f364 bf3d

encoder.1.weight f4 [256]
1.1832013 0.8105879 0.9563703 1.0189344 0.81244713 1.0840551 0.5572319 0.81914634
1.1516932 0.9813634 0.8093174 1.0927483 1.0427729 0.8835568 0.95552015 0.92694503
0.94016165 1.1080538 1.1286308 0.9224455 0.68311346 0.8641103 0.87252873 0.9101926
0.9780473 0.9380732 0.8979485 1.0162188 0.9449373 0.9078546 0.67606825 0.8528072
1.0799564 0.9208645 0.8596768 0.922553 1.1117237 0.7377388 0.9727516 0.91545844
0.9434669 0.72224826 0.555633 0.62757653 0.85312665 1.0002391 0.9084209 0.6731978
0.90063643 1.0219975 0.9374119 0.7528636 0.8003501 0.90296435 0.8032941 1.0204425
0.6914522 0.88823694 1.0320156 1.0752089 0.94568807 0.75662035 0.9314713 1.1655927
0.69640833 0.6739244 0.784037 0.9889846 1.0599767 0.76657605 0.7185015 0.9596662
1.0155933 0.9107206 0.95776665 0.99354124 0.8854468 0.92385924 1.0936888 0.54970497
0.9641714 1.1243429 0.9805635 0.7739689 0.6877935 0.6795988 0.9871073 1.0740747
0.862375 0.8061821 0.87283033 1.0014392 0.9000486 1.0557032 1.0272423 0.90007937
0.8818796 0.8566788 0.997962 0.8146605 0.7167508 0.8923643 0.9498667 1.1157013
0.7763124 1.0416845 0.8420545 0.815794 0.69507873 0.9493298 0.8572686 1.0064119
0.9608157 0.93866676 0.99293417 0.8034966 0.6444797 1.1504861 0.9396681 0.71437395
0.8614397 0.9050935 0.9287214 0.8174694 0.8503241 0.95055515 0.7466595 1.0872893
0.9004718 0.9253733 0.7953019 1.0171589 0.938366 0.84543025 0.8135748 0.92723775
0.8988793 1.0517126 0.8594301 1.1197946 0.8830725 0.9632937 0.9905793 0.82873255
1.065171 0.61156374 1.0368633 0.84468037 0.72765076 1.12896 0.96766293 1.173649
0.8682279 1.0439922 0.6888567 0.78510034 0.95781875 0.817567 0.83092064 0.8768373
0.8914195 0.73706466 0.8431148 0.87028104 0.9944726 1.0869912 0.8466982 0.98366475
0.9539978 0.5518962 1.1861193 0.88578767 1.0448186 0.9979679 0.91494566 0.8870088
0.8602265 1.0011054 1.1408974 0.7782685 1.1909999 0.8232399 0.57659215 0.96773213
0.8312238 0.9955268 0.7559313 0.7288446 0.96139187 0.932031 0.7750337 1.0251467
0.9756929 0.84080815 1.0288069 0.9379476 0.74419016 1.0363398 0.7750012 0.90118366
0.9233806 0.96425414 0.85569763 0.87462425 0.947897 0.73776966 0.8882948 0.7953236
0.8293391 0.9861668 0.7976947 0.9271873 0.9444068 0.93448865 0.8770697 0.87675273
0.9864207 0.8391349 1.0025889 1.0787399 0.9123996 0.9290044 0.7948572 0.8564913
0.6721795 0.99925804 0.7540644 1.3440226 0.6985848 0.78452003 0.9601276 0.7404138
0.95529574 1.0207956 1.1434535 1.0560126 0.8572654 0.8342854 0.9198604 0.7195329
0.8389633 0.77060556 0.77372855 1.0642049 1.2009368 0.8206612 0.99504447 0.7223955
0.8813589 0.8978307 0.8154541 1.0874755 0.87890536 0.89987904 0.8331377 0.8999252
00000000: 2473 973f b082 4f3f afd4 743f 716c 823f
00000010: 89fc 4f3f 51c2 8a3f c0a6 0e3f 93b3 513f
00000020: af6a 933f a23a 7b3f 6d2f 4f3f 2ddf 8b3f
00000030: 9579 853f c730 623f f89c 743f 454c 6d3f
00000040: 6fae 703f b5d4 8d3f f976 903f 6325 6c3f
00000050: 86e0 2e3f 5536 5d3f 0b5e 5f3f 6202 693f
00000060: 4f61 7a3f 9125 703f f4df 653f 7513 823f
00000070: 69e7 713f 2969 683f cf12 2d3f 9351 5a3f
00000080: 033c 8a3f c7bd 6b3f c713 5c3f 6f2c 6c3f
00000090: f64c 8e3f 73dc 3c3f 4006 793f 7c5b 6a3f
000000a0: 0c87 713f 43e5 383f f73d 0e3f dba8 203f
000000b0: 8266 5a3f d607 803f 468e 683f b156 2c3f
000000c0: 1c90 663f d0d0 823f 3afa 6f3f abbb 403f
000000d0: bfe3 4c3f ac28 673f afa4 4d3f dc9d 823f
000000e0: 0303 313f 7f63 633f 1619 843f 72a0 893f
000000f0: 9d18 723f dfb1 413f e774 6e3f 2432 953f
00000100: d147 323f 4f86 2c3f a6b6 483f 182e 7d3f
00000110: 51ad 873f 543e 443f b7ef 373f afac 753f
00000120: f6fe 813f fc24 693f 3230 753f b858 7e3f
00000130: a4ac 623f 0a82 6c3f fffd 8b3f 77b9 0c3f
00000140: f0d3 763f 78ea 8f3f 3606 7b3f d322 463f
00000150: 3c13 303f 30fa 2d3f 10b3 7c3f 487b 893f
00000160: 9cc4 5c3f f361 4e3f cf71 5f3f 292f 803f
00000170: 9669 663f 4821 873f ad7c 833f 9a6b 663f
00000180: ddc2 613f 4d4f 5b3f 707a 7f3f 978d 503f
00000190: fb7c 373f fd71 643f 772a 733f 4dcf 8e3f
000001a0: 69bc 463f eb55 853f e290 573f e0d7 503f
000001b0: aef0 313f 4707 733f f475 5b3f 1bd2 803f
000001c0: 05f8 753f 774c 703f ef30 7e3f f4b1 4d3f
000001d0: 9ffc 243f 2143 933f 178e 703f 36e1 363f
000001e0: 5087 5c3f 35b4 673f b0c0 6d3f ad45 513f
000001f0: d7ae 593f 9557 733f 1425 3f3f 4c2c 8b3f
00000200: 5285 663f 44e5 6c3f e898 4b3f 4332 823f
00000210: c138 703f 1e6e 583f 7046 503f 745f 6d3f
00000220: f41c 663f 859e 863f 9c03 5c3f 6e55 8f3f
00000230: 0a11 623f 6a9a 763f 9b96 7d3f d127 543f
00000240: 8657 883f 718f 1c3f f0b7 843f f93c 583f
00000250: 5247 3a3f c381 903f c2b8 773f 213a 963f
00000260: 2f44 5e3f 89a1 853f ea58 303f 56fc 483f
00000270: 9c33 753f 124c 513f 37b7 543f 6978 603f
00000280: 1134 643f 45b0 3c3f 5fd6 573f bdca 5e3f
00000290: c295 7e3f 8722 8b3f 37c1 583f 74d1 7b3f
000002a0: 3339 743f 1249 0d3f c2d2 973f fbc2 623f
000002b0: 9ebc 853f d37a 7f3f e139 6a3f 0213 633f
000002c0: ce37 5c3f 3924 803f ed08 923f 9b3c 473f
000002d0: af72 983f dabf 523f 8b9b 133f 4bbd 773f
000002e0: 15cb 543f d8da 7e3f b784 413f 8f95 3a3f
000002f0: c71d 763f 9599 6e3f 9c68 463f 0238 833f
00000300: 03c7 793f 343f 573f f2af 833f 551d 703f
00000310: 3f83 3e3f c8a6 843f 7b66 463f f9b3 663f
00000320: ac62 6c3f 5cd9 763f 000f 5b3f 60e7 5f3f
00000330: 61a9 723f 79de 3c3f 4a67 633f 549a 4b3f
00000340: 914f 543f 6d75 7c3f b835 4c3f 265c 6d3f
00000350: a5c4 713f a63a 6f3f a487 603f de72 603f
00000360: 1186 7c3f 8bd1 563f d554 803f 2614 8a3f
00000370: 0593 693f 3bd3 6d3f c37b 4b3f 0443 5b3f
00000380: f513 2c3f 60cf 7f3f 5d0a 413f ef08 ac3f
00000390: 74d6 323f 4ed6 483f ecca 753f c28b 3d3f
000003a0: 438e 743f 6ea9 823f af5c 923f 6c2b 873f
000003b0: bf75 5b3f ba93 553f f97b 6b3f 4f33 383f
000003c0: 4dc6 563f 6846 453f 1313 463f de37 883f
000003d0: 4cb8 993f da16 523f 3cbb 7e3f e9ee 383f
000003e0: bda0 613f 3cd8 653f 9ac1 503f 6632 8b3f
000003f0: f1ff 603f 795e 663f 8348 553f 7f61 663f

encoder.1.bias f4 [256]
-0.5225595 -0.43369928 -0.7981786 -0.33080384 -0.4367337 -0.9814396 0.02279212 -0.9124233
-0.4748121 -0.6313528 -0.4732919 -1.2150048 -1.1906713 -0.83512765 -1.0096159 -0.5971753
-0.9083791 -0.71018577 -0.61761695 -0.96849436 -0.53360486 -0.5185911 -0.2198143 -0.8489692
-0.7587155 -0.85466313 -0.24972576 -0.30529296 -0.6751371 -0.48542544 0.06286955 -0.43494952
-1.1826006 -0.79536635 -0.61331236 -0.7364637 -0.87088513 -0.10803546 -0.6508454 -0.40398267
-0.6225628 -0.9562684 -0.004905818 -0.12195649 -0.61515534 -0.9166015 -0.4956701 -0.2310605
-0.8654267 -0.5736298 -0.9395643 -0.56141084 -0.18725537 -0.4833709 -1.0496318 -0.9989423
-0.46239054 -0.7797054 -0.8342008 -1.2299538 -0.7303274 -0.14646932 -0.33699593 -1.4467703
-0.44961482 -0.11429233 -0.345397 -0.4671794 -1.0677173 -0.029279444 -0.22214574 -0.59871125
-0.600276 -0.67056453 -0.87803006 -0.7506605 -0.8678612 -0.5867036 -0.902697 0.108451694
-0.9876466 -0.547071 -0.6614305 -0.36544457 -0.20507278 0.05437797 -0.82420945 -0.6682131
-0.42822188 -0.5166226 -0.5061347 -1.0857359 -0.8390793 -0.59144247 -0.4998925 -0.5144924
-0.46287358 -0.66076773 -0.85217553 -0.15383558 -0.2708683 -0.61827976 -1.0329427 -0.9334833
-0.058245327 -1.043569 -0.7149305 -0.46669722 -0.16406703 -0.9201837 -1.2107525 -0.99836886
-0.5282278 -0.8953598 -0.63726896 -0.30562976 -0.009411066 -1.081156 -0.56040233 -0.46204463
-0.66360754 -0.45477492 -0.25662625 -0.7722408 -0.43447137 -0.58106834 -0.08565452 -1.036014
-0.24737525 -0.76524055 -0.0935087 -0.7805018 -0.19779423 -0.50667757 -0.3638767 -0.3695068
-0.8083192 -0.6951911 -0.62668496 -1.015521 -0.43421713 -0.82084584 -0.1313692 -0.8053839
-0.4594128 0.089152046 -0.39279455 -0.58177924 -0.16121392 -0.6574175 -0.17288063 -0.43885642
-0.45498872 -0.5216331 -0.11321997 -0.32252622 -0.3901334 -0.68669444 -0.68192095 -0.30375755
-0.63643366 0.11754893 -0.553927 -0.9830206 -0.5699236 -0.5791749 -0.9905956 -1.3450229
-0.7725163 0.14358667 -0.6201024 -0.83020234 -0.6124069 -0.79331815 -1.2922833 -0.607125
-0.6155317 -0.7915931 -0.50819147 -0.42630604 -0.87865555 -0.66841596 0.14432321 -0.65970135
-1.0140088 -0.5179713 -0.4121704 -0.1977404 -0.3386943 -1.115598 -0.48620945 -0.72095
-0.5746783 -0.34427792 -0.49490184 -1.1750373 -0.2545711 -0.7683668 -0.36964273 -0.75354284
-0.6923046 -0.86965805 -1.2729797 -0.4641169 -0.5890211 -0.5074798 -0.6742202 -0.60246104
-0.51390743 -0.9846697 -0.68851835 -0.8443899 -0.68448514 -0.71388555 -0.5904197 -0.40346897
-0.47162256 -0.46129173 -0.74817675 -0.19179504 -0.6568782 -0.9414628 -0.50626093 -0.712976
-0.16814165 -0.69065064 -0.13854222 -0.6457288 0.081599355 0.030597193 -0.77788377 -0.03931247
-0.5137189 -0.509641 -0.84061915 -0.3807498 -0.7400354 -0.34066272 -0.10480683 -1.1932766
-0.5380792 -0.42934716 -0.13903819 -0.90093845 -0.36163062 -0.35487732 -1.0314592 -0.73000485
-0.42306894 -0.48977438 -0.26149395 -0.5780785 -0.54069734 -0.76287293 -0.41417578 -0.34455597
00000000: 76c6 05bf d50d debe 6f55 4cbf 1f5f a9be
00000010: 8f9b dfbe a03f 7bbf 8ab6 ba3c 9394 69bf
00000020: 921a f3be 56a0 21bf 5153 f2be 4785 9bbf
00000030: eb67 98bf edca 55bf 183b 81bf 7be0 18bf
00000040: 888b 68bf bcce 35bf 251c 1ebf 3fef 77bf
00000050: 549a 08bf 63c2 04bf 0017 61be 0c56 59bf
00000060: 2e3b 42bf 34cb 5abf 1cb8 7fbe 5c4f 9cbe
00000070: c9d5 2cbf af89 f8be c0c1 803d b4b1 debe
00000080: 755f 97bf 219d 4bbf 0a02 1dbf e388 3cbf
00000090: 54f2 5ebf b241 ddbd ce9d 26bf d1d6 cebe
000000a0: 4760 1fbf 02ce 74bf fcc0 a0bb 53c4 f9bd
000000b0: d27a 1dbf 65a6 6abf 79c8 fdbe 209b 6cbe
000000c0: 9b8c 5dbf 67d9 12bf 4987 70bf 9fb8 0fbf
000000d0: dfbf 3fbe 647c f7be 565a 86bf afba 7fbf
000000e0: 74be ecbe c69a 47bf 2f8e 55bf 206f 9dbf
000000f0: bdf6 3abf 0efc 15be bb8a acbe c52f b9bf
00000100: ea33 e6be 1912 eabd e0d7 b0be 2332 efbe
00000110: f6aa 88bf 72db efbc 2c7a 63be 2445 19bf
00000120: b0ab 19bf 1eaa 2bbf 94c6 60bf 492b 40bf
00000130: 272c 5ebf 3532 16bf 2717 67bf ec1b de3d
00000140: 68d6 7cbf d80c 0cbf 8253 29bf 8d1b bbbe
00000150: 99fe 51be 6fbb 5e3d 64ff 52bf 0410 2bbf
00000160: e63f dbbe 6141 04bf 0b92 01bf 65f9 8abf
00000170: e7cd 56bf c668 17bf e9f1 ffbe c6b5 03bf
00000180: c4fd ecbe 1328 29bf 2d28 5abf 1387 1dbe
00000190: 40af 8abe 9547 1ebf 7737 84bf c3f8 6ebf
000001a0: a792 6ebd ab93 85bf af05 37bf f0f2 eebe
000001b0: 3001 28be 2991 6bbf f0f9 9abf 1a95 7fbf
000001c0: f039 07bf 4d36 65bf 0f24 23bf 817b 9cbe
000001d0: df30 1abc 5263 8abf 8776 0fbf 1d91 ecbe
000001e0: 2fe2 29bf 42d8 e8be 8464 83be 93b1 45bf
000001f0: 0873 debe e5c0 14bf a36b afbd 1b9c 84bf
00000200: f04f 7dbe cee6 43bf 7d81 bfbd f7ce 47bf
00000210: 928a 4abe 9fb5 01bf 0c4e babe ff2f bdbe
00000220: 02ee 4ebf 0bf8 31bf 6d6e 20bf 98fc 81bf
00000230: b551 debe f422 52bf a685 06be a42d 4ebf
00000240: 2838 ebbe 5995 b63d 5e1c c9be 7cef 14bf
00000250: 4315 25be 834c 28bf 9f07 31be cab1 e0be
00000260: 48f4 e8be bf89 05bf dfdf e7bd 2822 a5be
00000270: 91bf c7be 35cb 2fbf 5f92 2ebf 1c86 9bbe
00000280: 51ed 22bf 7ebd f03d 29ce 0dbf 3da7 7bbf
00000290: 83e6 11bf ce44 14bf ac97 7dbf b629 acbf
000002a0: a1c3 45bf 6208 133e 08bf 1ebf 2488 54bf
000002b0: b3c6 1cbf e616 4bbf 8a69 a5bf 8b6c 1bbf
000002c0: 7c93 1dbf d8a5 4abf d618 02bf c944 dabe
000002d0: 92ef 60bf 4f1d 2bbf 77c9 133e 30e2 28bf
000002e0: 0acb 81bf c499 04bf 0008 d3be 767c 4abe
000002f0: 5769 adbe eacb 8ebf 72f0 f8be 2e90 38bf
00000300: 1e1e 13bf 3245 b0be c663 fdbe 9f67 96bf
00000310: 2557 82be b0b3 44bf d041 bdbe 2fe8 40bf
00000320: e03a 31bf e9a1 5ebf 00f1 a2bf bba0 edbe
00000330: 16ca 16bf 32ea 01bf b299 2cbf e33a 1abf
00000340: 708f 03bf 5013 7cbf bd42 30bf f029 58bf
00000350: 6b3a 2fbf 34c1 36bf bf25 17bf 7c93 cebe
00000360: 8378 f1be 6e2e ecbe 8388 3fbf eb65 44be
00000370: 2b29 28bf b503 71bf 519a 01bf 9885 36bf
00000380: 532d 2cbe 7bce 30bf 03de 0dbe 7c4e 25bf
00000390: 901d a73d f7a6 fa3c 6423 47bf 1d06 21bd
000003a0: 1583 03bf d577 02bf d132 57bf a3f1 c2be
000003b0: f672 3dbf 586b aebe f7a4 d6bd 4abd 98bf
000003c0: 8fbf 09bf 64d3 dbbe 0760 0ebe e7a3 66bf
000003d0: a627 b9be 7bb2 b5be db06 84bf 99e1 3abf
000003e0: 7e9c d8be b5c3 fabe 89e2 85be f4fc 13bf
000003f0: 246b 0abf a44b 43bf d90e d4be a469 b0be

encoder.1.running_mean f4 [256]
1.3373586 -6.105389 0.22551762 -4.7095847 -1.1147894 1.9345045 -3.116252 0.86769474
-6.5914297 -3.8686862 -3.7313027 -5.386771 -4.1376104 -2.229919 -3.0739062 -4.4458556
-2.804884 -5.205688 -0.105199575 -4.1671014 -1.9777873 3.276331 0.14007083 5.118535
2.784697 1.1325542 -5.8816824 -3.695695 0.0054884925 -0.9651478 -1.2558014 -5.399357
-4.172072 8.148995 2.5896976 0.9789472 1.3358184 2.1213331 -2.186549 -6.4963603
1.3460332 1.9645369 1.2189214 -0.6357924 0.4347262 -1.0444509 -4.1023793 0.5650077
0.1682346 2.3242717 -3.5923629 1.3835661 -2.6176407 -2.9774249 1.0917424 -1.6265955
-1.9025775 2.1981583 0.9417501 -0.4138698 5.379719 1.1141233 9.077971 0.04247675
1.7841119 2.8721054 -0.60279983 6.4465513 -6.2973022 4.1709175 1.588688 5.3753734
3.4079428 -0.20556735 -0.06364014 4.575399 0.8045477 0.31573167 -4.2016454 -0.08858506
1.2219793 -2.9271889 -2.3306558 0.7461345 0.5531892 -0.41967097 -1.6347694 0.8109371
-1.6362435 0.9001683 2.729835 3.133413 1.6576368 -3.2733972 -4.076426 -2.2059963
0.8857191 5.1551094 3.1917121 -6.0060954 1.6939582 6.4290504 -5.274135 0.86237305
-5.3999095 -1.5823835 -0.21174785 2.0883162 -1.158119 -1.8174509 2.015818 -0.12986538
3.1573455 3.7528343 -0.36367312 2.9466367 -0.7660762 -6.2714405 -1.2849945 -0.703503
1.77205 4.0401154 1.4364853 0.27563864 3.5694149 -6.3872237 0.78272694 -2.5911906
-3.784724 7.202814 3.8151312 13.173265 1.7987887 -3.5118167 8.13994 3.476589
1.9408596 1.6926057 0.8269044 -3.9581778 -0.5059541 11.495852 -2.3010445 -1.4920741
-1.6087459 1.448939 0.27960834 1.6605242 2.956085 1.649065 0.73745006 -1.6531367
1.0046827 -0.01840125 1.5305539 -0.20487471 -0.77639735 -4.041445 -3.1669753 -0.9612192
-0.941752 0.25928316 -4.4063444 0.32843378 4.000075 -3.120063 -3.3127453 1.4408995
0.7359064 0.29656914 -0.7629192 -1.6144506 1.1921322 -0.45470956 -2.0070066 -8.820677
4.160245 2.4228058 -3.732558 6.8667417 5.1455665 1.9803598 -0.8739564 11.133277
-2.8529525 3.6977234 -6.9633636 -0.049037527 0.59002745 -3.8179836 -1.9054172 -1.1937866
-0.72460604 -0.0017301296 -2.2885177 -2.6883423 1.5911529 -4.7341633 12.369478 6.723501
3.4255779 1.1467258 -0.78237766 0.16113338 -3.5747108 0.29889053 -0.095050536 6.7533684
0.3589658 1.1446868 2.394246 4.8446784 2.8601387 1.4594373 5.9702935 2.9512784
3.1751144 1.6181382 4.8421197 0.8084139 -3.892985 -2.2789323 0.2873719 -3.8126812
0.08253674 -0.07361645 -0.929124 0.8342493 3.9608524 1.9864581 5.959227 1.9610684
-0.7628899 0.61816245 2.5185452 -6.7693386 -0.18686964 -2.1035266 0.21305344 -0.07127298
-2.030526 2.887597 -0.7542967 6.7203007 0.30138916 1.529903 -2.872625 -1.4439054
5.78848 1.9206625 11.0124035 -0.667972 -1.6235409 -4.997337 1.6038626 -0.5402207
00000000: 912e ab3f 595f c3c0 17ee 663e ebb4 96c0
00000010: 6bb1 8ebf d89d f73f ac70 47c0 3e21 5e3f
00000020: feec d2c0 8e98 77c0 aacd 6ec0 6e60 acc0
00000030: 4e67 84c0 feb6 0ec0 e1ba 44c0 7344 8ec0
00000040: 3883 33c0 ff94 a6c0 e072 d7bd e558 85c0
00000050: 2228 fdbf 68af 5140 ba6e 0f3e 0acb a340
00000060: 7a38 3240 89f7 903f be36 bcc0 4486 6cc0
00000070: d0d8 b33b ed13 77bf 1abe a0bf 88c7 acc0
00000080: 9d81 85c0 4962 0241 9bbd 2540 499c 7a3f
00000090: 19fc aa3f ecc3 0740 6bf0 0bc0 2fe2 cfc0
000000a0: d14a ac3f f275 fb3f 9e05 9c3f 4ac3 22bf
000000b0: 6f94 de3e 91b0 85bf b146 83c0 58a4 103f
000000c0: b145 2c3e dec0 1440 46e9 65c0 b218 b13f
000000d0: 6d87 27c0 218e 3ec0 37be 8b3f 4834 d0bf
000000e0: a987 f3bf a0ae 0c40 8916 713f bee6 d3be
000000f0: a826 ac40 989b 8e3f 5f3f 1141 1afc 2d3d
00000100: c75d e43f 93d0 3740 1751 1abf 264a ce40
00000110: 8083 c9c0 2878 8540 215a cb3f 0f03 ac40
00000120: bc1b 5a40 3f80 52be c355 82bd ab69 9240
00000130: d7f6 4d3f 95a7 a13e e173 86c0 156c b5bd
00000140: d169 9c3f 1057 3bc0 7729 15c0 ac02 3f3f
00000150: cf9d 0d3f 1ddf d6be 2040 d1bf 9399 4f3f
00000160: 6d70 d1bf 6e71 663f 9eb5 2e40 d789 4840
00000170: 712d d43f 577f 51c0 1572 82c0 0b2f 0dc0
00000180: 7dbe 623f a8f6 a440 0345 4c40 ef31 c0c0
00000190: 9fd3 d83f c8ba cd40 b7c5 a8c0 7bc4 5c3f
000001a0: 0fcc acc0 8b8b cabf 6ed4 58be f9a6 0540
000001b0: 3e3d 94bf 3ba2 e8bf 2a03 0140 6efb 04be
000001c0: f311 4a40 702e 7040 5d33 babe b295 3c40
000001d0: 921d 44bf a4af c8c0 b37a a4bf c618 34bf
000001e0: 89d2 e23f a048 8140 c0de b73f 8220 8d3e
000001f0: 4b71 6440 2364 ccc0 cb60 483f 11d6 25c0
00000200: eb38 72c0 747d e640 1c2b 7440 b2c5 5241
00000210: b53e e63f 9bc1 60c0 323d 0241 6f80 5e40
00000220: 166e f83f 4ea7 d83f 02b0 533f c952 7dc0
00000230: 3586 01bf 03ef 3741 5044 13c0 49fc bebf
00000240: 63eb cdbf d576 b93f d328 8f3e 0f8c d43f
00000250: 7f30 3d40 9014 d33f 87c9 3c3f fc99 d3bf
00000260: 7199 803f 38be 96bc 31e9 c33f adca 51be
00000270: fac1 46bf 8453 81c0 b9af 4ac0 7612 76bf
00000280: a916 71bf c3c0 843e c600 8dc0 7928 a83e
00000290: 9d00 8040 1daf 47c0 0504 54c0 656f b83f
000002a0: 5d64 3c3f e9d7 973e ac4e 43bf 51a6 cebf
000002b0: ca97 983f b1cf e8be cc72 00c0 7e21 0dc1
000002c0: ba20 8540 400f 1b40 3be2 6ec0 59bc db40
000002d0: 7ba8 a440 6e7c fd3f 9bbb 5fbf e721 3241
000002e0: c696 36c0 80a7 6c40 e0d3 dec0 93db 48bd
000002f0: 0a0c 173f d859 74c0 b6e4 f3bf 00ce 98bf
00000300: c87f 39bf 84c5 e2ba 1377 12c0 cd0d 2cc0
00000310: e6aa cb3f 447e 97c0 62e9 4541 ec26 d740
00000320: ab3c 5b40 e9c7 923f e749 48bf 2600 253e
00000330: 10c8 64c0 2e08 993e dba9 c2bd 981b d840
00000340: 5eca b73e 1985 923f 543b 1940 9b07 9b40
00000350: 830c 3740 d7ce ba3f a50c bf40 bfe1 3c40
00000360: 1335 4b40 271f cf3f a5f2 9a40 37f4 4e3f
00000370: ab26 79c0 07da 11c0 6922 933e f802 74c0
00000380: 0609 a93d 39c4 96bd 12db 6dbf 5d91 553f
00000390: 9b7e 7d40 4244 fe3f fdb1 be40 4a04 fb3f
000003a0: c14c 43bf e53f 1e3f d82f 2140 6c9e d8c0
000003b0: c15a 3fbe 2ea0 06c0 ae2a 5a3e 91f7 91bd
000003c0: 23f4 01c0 64ce 3840 9719 41bf b40c d740
000003d0: ae4f 9a3e ddd3 c33f 17d9 37c0 e4d1 b8bf
000003e0: 3a3b b940 45d8 f53f ce32 3041 3700 2bbf
000003f0: 30d0 cfbf 2fea 9fc0 5f4b cd3f e74b 0abf

encoder.1.running_var f4 [256]
0.23653533 7.0334644 0.7038561 4.3673573 0.3711918 0.44971946 0.25001946 0.2255964
2.122156 1.3242637 1.9845678 1.8823035 2.529736 0.2546837 3.9877317 3.322466
3.6009562 1.6771982 0.93694973 2.4075716 0.8572496 0.35564497 0.18782678 0.70361304
2.147984 0.6715506 3.8381162 4.4594 1.2156284 3.4295716 0.35379198 3.8089435
2.6030645 6.526458 0.6530912 0.48811254 0.53863287 0.65810305 0.8273711 4.325986
0.29389632 0.653509 0.7145227 0.56684244 0.68928885 0.2573515 4.675821 0.26592246
3.0363324 0.38929173 0.79110205 1.136761 0.51406974 3.7423296 0.45352462 0.52379984
0.115513325 2.702167 0.29553962 0.759679 5.237297 0.58211935 4.0562015 0.5882241
0.25847682 0.25071296 0.3808911 1.855502 4.9256477 0.55207795 0.16093943 1.0406369
0.26327893 0.21161504 0.36669132 1.8523023 0.56495637 2.1778708 4.908284 0.7381342
0.61978996 1.242337 1.7097566 0.2532202 0.2793986 0.5559677 0.5973762 0.4525129
1.7213836 2.1508143 0.6148665 0.3512749 0.88011545 0.61443835 1.0038872 0.3459026
0.64568573 0.6856909 0.28042382 4.432628 0.5061916 1.1740822 2.7524257 0.5231123
5.0977893 0.5427344 0.2885041 0.8815413 0.4432555 1.0018269 1.1108518 0.42131987
2.3857358 4.405247 0.24584387 0.4888655 0.44566122 3.8891616 1.639828 2.5858862
0.47972858 2.7852902 4.8248005 0.07974601 0.418885 0.9463631 0.4381534 4.861722
0.37784728 4.9320464 0.3413897 11.016045 0.6275431 2.5142736 1.9330387 0.965081
0.7472357 0.24044774 0.3951311 6.0037365 0.1925905 10.879757 3.8118958 0.3356729
0.46344993 0.55031854 3.3329265 0.22976288 0.658417 1.6998081 3.9872744 1.7219309
3.4273937 1.4733554 0.41010273 2.7717152 0.24278097 0.84641117 0.62713856 2.8124564
0.75866455 0.5616125 2.9592981 0.38393608 2.0690007 1.327195 1.9371791 1.6026475
1.4883553 0.5839061 1.1258835 0.17982627 0.3229218 2.0891798 0.51446986 3.1774375
1.8893533 1.1365129 1.9033451 1.7260996 0.3451415 0.45674396 0.4739739 9.800854
0.26919597 4.550234 4.4076185 0.4547312 0.3509194 0.7929173 2.0204964 2.053312
0.8533283 0.51656926 0.88068724 1.3063594 0.40813288 6.8700743 3.2021406 4.9385295
2.214697 1.2283742 0.41380236 0.99947554 2.1605773 0.38508055 0.31512812 1.0450534
0.66484165 0.4719389 0.6159027 2.393811 0.51229125 0.73571265 0.55156326 0.5496196
0.45167172 0.30630592 2.1339478 3.2584624 0.37835672 1.0185871 0.103480466 2.8697107
0.3920828 0.68549633 0.49391246 0.32882676 0.38083208 0.23451379 2.2544267 0.7351462
0.9577281 0.64305335 0.41686735 5.390795 0.5445434 3.0792751 0.4727393 0.19021572
0.7260381 1.0697855 2.3197124 5.131958 0.3166753 0.4123809 0.12467718 0.7281058
0.6421808 0.2191834 3.1694343 1.0837406 3.3654015 3.9424558 0.607568 0.37803516
00000000: 5136 723e 2412 e140 ea2f 343f 64c1 8b40
00000010: da0c be3e a141 e63e 8d02 803e be02 673e
00000020: 67d1 0740 7981 a93f 5106 fe3f 52ef f03f
00000030: 32e7 2140 e765 823e ff36 7f40 48a3 5440
00000040: 1176 6640 6eae d63f f0db 6f3f a715 1a40
00000050: b674 5b3f 1917 b63e aa55 403e fc1f 343f
00000060: 9278 0940 bdea 2b3f b2a3 7540 68b3 8e40
00000070: b699 9b3f 1a7e 5b40 3924 b53e bbc5 7340
00000080: 9c98 2640 bed8 d040 fc30 273f e3e9 f93e
00000090: d8e3 093f 7179 283f 98ce 533f 7a6e 8a40
000000a0: 9479 963e 5e4c 273f f6ea 363f 961c 113f
000000b0: 3c75 303f 93c3 833e 53a0 9540 fd26 883e
000000c0: 4553 4240 3f51 c73e aa85 4a3f 6281 913f
000000d0: 139a 033f 5482 6f40 6134 e83e bf17 063f
000000e0: 4092 ec3d 4ef0 2c40 f850 973e 537a 423f
000000f0: f097 a740 c605 153f 67cc 8140 db95 163f
00000100: 1357 843e 735d 803e 2904 c33e 1781 ed3f
00000110: e89e 9d40 fb54 0d3f 4ecd 243e 9733 853f
00000120: 7fcc 863e 9db1 583e f7be bb3e 3e18 ed3f
00000130: fba0 103f 3c62 0b40 aa10 9d40 5df6 3c3f
00000140: 8eaa 1e3f e604 9f3f 4ed9 da3f 14a6 813e
00000150: 550d 8f3e e653 0e3f a6ed 183f c5af e73e
00000160: 4c56 dc3f f1a6 0940 e467 1d3f 4eda b33e
00000170: 3f4f 613f d54b 1d3f 607f 803f 251a b13e
00000180: a94b 253f 7089 2f3f b693 8f3e 17d8 8d40
00000190: c695 013f 5348 963f be27 3040 b0ea 053f
000001a0: 1721 a340 a4f0 0a3f cfb6 933e b1ac 613f
000001b0: 63f2 e23e dd3b 803f 6430 8e3f 3db7 d73e
000001c0: e5af 1840 c9f7 8c40 7fbe 7b3e 944c fa3e
000001d0: b52d e43e 06e8 7840 e2e5 d13f 297f 2540
000001e0: fc9e f53e 3242 3240 c464 9a40 e051 a33d
000001f0: 1878 d63e da44 723f a455 e03e 3a93 9b40
00000200: 3375 c13e 53d3 9d40 a1ca ae3e b841 3041
00000210: aaa6 203f dce9 2040 d06d f73f 8c0f 773f
00000220: d74a 3f3f ef37 763e a04e ca3e 9c1e c040
00000230: 7236 453e 7c13 2e41 1af6 7340 51dd ab3e
00000240: 4f49 ed3e ade1 0c3f ab4e 5540 f646 6b3e
00000250: 048e 283f 5093 d93f 812f 7f40 3b68 dc3f
00000260: 6b5a 5b40 e996 bc3f fcf8 d13e c863 3140
00000270: 939b 783e 67ae 583f 278c 203f 49ff 3340
00000280: d737 423f d6c5 0f3f 2465 3d40 4593 c43e
00000290: 826a 0440 87e1 a93f 7cf5 f73f 8e23 cd3f
000002a0: 6d82 be3f df7a 153f f31c 903f 6124 383e
000002b0: 0256 a53e 1fb5 0540 4cb4 033f 235b 4b40
000002c0: 54d6 f13f 4179 913f d0a0 f33f d5f0 dc3f
000002d0: 63b6 b03e 58da e93e b5ac f23e 4cd0 1c41
000002e0: 0ed4 893e 849b 9140 360b 8d40 87d2 e83e
000002f0: b5ab b33e a1fc 4a3f d04f 0140 7769 0340
00000300: b973 5a3f e23d 043f b874 613f c936 a73f
00000310: cbf6 d03e a6d7 db40 dfef 4c40 6f08 9e40
00000320: 98bd 0d40 5e3b 9d3f e7dd d33e a1dd 7f3f
00000330: e646 0a40 4729 c53e 7958 a13e 4fc4 853f
00000340: 1033 2a3f faa1 f13e cdab 1d3f 3334 1940
00000350: 8525 033f aa57 3c3f 4033 0d3f dfb3 0c3f
00000360: 8441 e73e 21d4 9c3e 9a92 0840 a68a 5040
00000370: f9b7 c13e 1061 823f 91ed d33d 57a9 3740
00000380: 14bf c83e b07c 2f3f 18e2 fc3e fb5b a83e
00000390: 6cfc c23e 6224 703e 8748 1040 8b32 3c3f
000003a0: ab2d 753f 259f 243f a36f d53e 6581 ac40
000003b0: 3267 0b3f d812 4540 e30a f23e e9c7 423e
000003c0: a2dd 393f bbee 883f 2b76 1440 0039 a440
000003d0: 4423 a23e 9723 d33e c056 ff3d 2465 3a3f
000003e0: f665 243f 9d71 603e 03d8 4a40 03b8 8a3f
000003f0: bd62 5740 3251 7c40 9489 1b3f d38d c13e

encoder.4.weight f4 [128, 256]
0.16873758 -0.28671336 0.17059213 -0.13216282 0.031395044 0.18228282 0.005382401 0.48483932
-0.22861189 -0.5542725 -0.5498844 -0.31354132 -0.48474768 0.014130777 0.16646457 -0.32048866
0.2646642 -0.05210692 0.07871279 -0.06564136 -0.32300335 -0.15443958 -0.35391358 0.039937783
0.6394708 0.36102167 -0.39000574 -0.5156284 0.031040696 -0.2283941 -0.13964896 -0.13214093
-0.35562742 0.7028163 0.58117676 0.47977027 0.3288385 -0.4158202 -0.05311792 -1.0072803
0.16007686 -0.17431441 0.24096894 0.14488597 0.31596318 0.251658 -1.3101876 0.17829935
0.3148816 -0.0481811 -0.0032336174 -0.23578234 0.12052755 -0.6846819 0.43977836 0.3949078
-0.4022908 0.061770625 0.22147506 -0.00015807018 0.12882271 -0.059089024 0.38720083 -0.1419776
0.23018019 0.026948491 0.23780787 0.30380517 0.056899812 -0.005702006 -0.27380455 -0.30281302
0.3810195 -0.080262676 -0.23910552 0.680557 -0.08353098 -0.95301765 -0.39426997 0.020706048
0.13847879 -0.3305387 -1.0209451 0.005683009 0.1940944 0.06218915 0.17125252 -0.039920274
-0.751836 0.083045885 0.38651738 0.12045937 -0.26744965 -0.10166677 0.04832785 -0.25252756
-0.1292594 0.7185669 0.18132849 -0.28952187 -0.23225287 0.42790744 0.10260677 0.3381255
-0.28992134 0.38180608 0.32614535 -0.1110049 -0.049311664 0.16139683 0.5210203 0.028143192
-0.1342698 0.6709316 0.2603924 -0.20992304 0.011101326 -0.24517827 0.03367574 -0.5427681
-0.106146015 0.23628809 0.24869029 -0.2407148 0.003630758 -0.09152111 0.052855726 0.11703784
-0.041703153 0.923112 0.1610821 0.3250895 0.09644946 -0.348509 0.7191509 -0.3570231
0.4759401 0.23746425 0.075728245 0.22581409 0.12699172 0.90572 -0.52840567 0.2511794
-0.26043433 0.17715025 0.32789358 0.044873174 -0.06008972 0.19082306 0.16304006 0.18980868
-0.381669 -0.08597268 0.13658954 -1.1247973 0.0070257853 0.035668172 -0.12047457 0.0067848647
-0.22240812 -0.03232166 -0.71654713 0.3765365 0.56792134 0.11128541 0.057375666 0.17077164
0.28569564 -0.108464874 -0.26178253 0.16823259 -0.03429704 0.6321719 0.00423417 -0.78187555
0.8027873 0.6889181 -0.0602382 0.481915 -0.05107703 -0.06608123 0.017679296 -0.087671235
0.11778115 -0.49755764 -0.7680502 0.103090644 -0.37324613 -0.4717046 -0.439357 0.30499658
-0.89424354 0.034591246 0.024657201 0.13359196 -0.014833575 -0.5022262 0.63294107 0.6325047
0.44938973 -0.068091504 0.047380712 -0.10800905 -0.025030937 0.023049219 0.10598791 0.6906822
0.026372543 0.15153946 0.08099636 0.6408287 -0.11849632 0.059292637 -0.47302213 -0.06759657
0.120477065 0.076140575 0.42940855 0.25337029 0.29731426 -0.050222315 -0.44662115 -0.091679156
-0.070954904 -0.3286723 0.19529204 0.055749487 0.037849817 0.09335484 0.6459333 -0.026475243
-0.2284314 0.6696859 0.56939614 -0.4674323 -0.21912344 -0.33402267 -0.05952395 0.22806898
0.13174891 -0.27036697 -0.10855461 0.5165917 -0.0011155879 -0.0544461 -0.032299902 -0.067802235
0.14903833 0.048411347 0.51100945 -0.21269824 -1.0307704 -0.681334 0.21142131 0.26475763
00000000: 8bc9 2c3e 18cc 92be b4af 2e3e b155 07be
00000010: 1798 003d 59a8 3a3e da5e b03b dc3c f83e
00000020: 3c19 6abe cde4 0dbf 39c5 0cbf 7d88 a0be
00000030: d930 f8be c684 673c b075 2a3e 1717 a4be
00000040: 1182 873e 116e 55bd 2c34 a13d fa6e 86bd
00000050: b260 a5be 6925 1ebe 2934 b5be cd95 233d
00000060: 5cb4 233f d5d7 b83e d5ae c7be 3900 04bf
00000070: 0f49 fe3c 25e0 69be 2300 0fbe f44f 07be
00000080: cc14 b6be c5eb 333f 00c8 143f 73a4 f53e
00000090: 855d a83e 63e6 d4be 2d92 59bd 90ee 80bf
000000a0: 30eb 233e 7a7f 32be 90c0 763e fd5c 143e
000000b0: edc5 a13e 51d9 803e 3ab4 a7bf 1b94 363e
000000c0: 2938 a13e 8c59 45bd 19eb 53bb ed70 71be
000000d0: 26d7 f63d 5047 2fbf a12a e13e 5b31 ca3e
000000e0: 0ff9 cdbe 3203 7d3d 5cca 623e a4bf 25b9
000000f0: 1aea 033e 5507 72bd 303f c63e 9362 11be
00000100: 5bb4 6b3e 15c3 dc3c e883 733e 5a8c 9b3e
00000110: c70f 693d e5d7 babb 1c30 8cbe 4f0a 9bbe
00000120: fd14 c33e c260 a4bd 14d8 74be fc38 2e3f
00000130: 4a12 abbd f7f8 73bf c1dd c9be bb9f a93c
00000140: 62cd 0d3e 5e3c a9be 54ae 82bf 8938 ba3b
00000150: afc0 463e 0dba 7e3d d25c 2f3e 7183 23bd
00000160: 5378 40bf f613 aa3d 9be5 c53e 67b3 f63d
00000170: 29ef 88be ab36 d0bd 6cf3 453d 4b4b 81be
00000180: 935c 04be 00f4 373f 2dae 393e 363c 94be
00000190: b2d3 6dbe af16 db3e 8023 d23d c91e ad3e
000001a0: 9270 94be 167c c33e 86fc a63e 8956 e3bd
000001b0: 07fb 49bd 3645 253e 9661 053f 8d8c e63c
000001c0: 067e 09be 2cc2 2b3f 2752 853e 11f6 56be
000001d0: 56e2 353c 0310 7bbe 93ef 093d daf2 0abf
000001e0: 1563 d9bd 81f5 713e aba8 7e3e f17d 76be
000001f0: 03f2 6d3b 6b6f bbbd 3f7f 583d 89b1 ef3d
00000200: edd0 2abd 1151 6c3f b5f2 243e 2272 a63e
00000210: 4b87 c53d c66f b2be 461a 383f bbcb b6be
00000220: 6cae f33e d429 733e 6917 9b3d cf3b 673e
00000230: 1e0a 023e 44dd 673f 9845 07bf 969a 803e
00000240: a657 85be e066 353e abe1 a73e efcc 373d
00000250: a320 76bd 1f67 433e f9f3 263e 355d 423e
00000260: 1f6a c3be 7212 b0bd 21de 0b3e 5cf9 8fbf
00000270: 8f38 e63b ca18 123d 5fbb f6bd 9253 de3b
00000280: f4be 63be b863 04bd a26f 37bf 64c9 c03e
00000290: 4b63 113f 9be9 e33d bf02 6b3d c3de 2e3e
000002a0: b346 923e d522 debd 5c08 86be 2a45 2c3e
000002b0: 0e7b 0cbd 05d6 213f cbbe 8a3b ff28 48bf
000002c0: 7883 4d3f f05c 303f 55bc 76bd 90bd f63e
000002d0: 2636 51bd 9955 87bd 2cd4 903c fa8c b3bd
000002e0: 3e37 f13d e0bf febe f09e 44bf 3021 d33d
000002f0: 1e1a bfbe 4483 f1be 67f3 e0be 8328 9c3e
00000300: 25ed 64bf 8daf 0d3d e6fd c93c 55cc 083e
00000310: 8608 73bc e591 00bf 6d08 223f d4eb 213f
00000320: 6916 e63e 8f73 8bbd 4712 423d d933 ddbd
00000330: ae0d cdbc b7d1 bc3c 3010 d93d 8cd0 303f
00000340: 3b0b d83c 292d 1b3e 6be1 a53d 5a0d 243f
00000350: 33ae f2bd d6dc 723d f52f f2be 1270 8abd
00000360: aebc f63d 97ef 9b3d 70db db3e c0b9 813e
00000370: 9339 983e eab5 4dbd 87ab e4be 48c2 bbbd
00000380: ce50 91bd bc47 a8be a3fa 473e 9359 643d
00000390: 6908 1b3d d330 bf3d e25b 253f 9ce2 d8bc
000003a0: ece9 69be 8970 2b3f f2c3 113f 4953 efbe
000003b0: e561 60be 0505 abbe 63cf 73bd ea8a 693e
000003c0: 30e9 063e 8a6d 8abe e151 debd 5b3f 043f
000003d0: eb38 92ba e002 5fbd e74c 04bd e6db 8abd
000003e0: 819d 183e fa4a 463d 84d1 023f 91cd 59be
000003f0: 49f0 83bf e86b 2ebf d47e 583e 508e 873e

encoder.4.bias f4 [128]
0.03665178 0.024593795 0.058901854 0.005038532 0.04958375 0.041473508 -0.038890257 -0.041812718
-0.03423275 0.008889949 -0.028161304 0.015520457 0.059038073 0.061530937 -0.02577196 -0.0060179387
-0.054777257 0.041647878 0.021629665 -0.010923237 -0.043253653 0.05758157 0.014944743 -0.019073142
-0.020403728 0.04195285 -0.060377683 -0.01258294 -0.023763364 -0.039434608 0.061365113 0.027056498
0.00050177664 0.04027901 0.031603333 -0.05370697 0.010943796 0.03538542 0.0022500271 -0.05987779
0.040565 0.059112 -0.05110777 0.027238134 0.028139208 -0.023839345 -0.017266229 -0.030519918
0.060201816 0.052368786 -0.062353108 0.045698874 0.014271936 0.038773518 -0.024385175 0.018129805
0.011316672 0.04361649 -0.04593859 0.017971694 0.036162615 -0.03355371 -0.034499705 0.05463024
-0.052809898 -0.011471816 -0.010737358 -6.7829045e-05 0.02537376 0.05594719 -0.042951837 -0.056126066
0.041148238 0.043840688 -0.0123510985 0.016963935 -0.046814658 0.051568817 0.061744876 -0.026162118
-0.038317412 -0.03002832 -0.0071816947 -0.04796053 0.0313047 -0.028992226 0.00314498 -0.039834663
0.015730873 -0.03847153 0.0412962 -0.009665796 -0.04169638 0.057658564 0.04070117 -0.015598577
-0.04098024 -0.059270233 -0.0104484735 0.006643509 0.023932861 -0.041108225 -0.059225924 -0.03881644
0.003594152 -0.036468096 0.036222655 -0.0032833256 0.05415005 -0.060111057 -0.060440775 -0.005242636
0.019995892 0.032865632 -0.010200622 0.02245296 -0.041311663 -0.025795083 0.033305485 -0.026048426
0.028969718 -0.04085174 0.05929051 -0.008163004 -0.03777172 0.061788596 0.027274804 0.023302313
00000000: 2d20 163d ed78 c93c 1243 713d 451a a53b
00000010: 5518 4b3d 20e0 293d 644b 1fbd d043 2bbd
00000020: a437 0cbd 26a7 113c 89b2 e6bc 8449 7e3c
00000030: e8d1 713d dd07 7c3d b81f d3bc 2132 c5bb
00000040: 1e5e 60bd f796 2a3d b230 b13c 60f7 32bc
00000050: be2a 31bd a7da 6b3d ccda 743c 473f 9cbc
00000060: b825 a7bc c0d6 2b3d 974e 77bd ad28 4ebc
00000070: 63ab c2bc 2f86 21bd fc59 7b3d 97a5 dd3c
00000080: a989 033a 9afb 243d 7f72 013d d7fb 5bbd
00000090: 9b4d 333c 4df0 103d 3175 133b 6a42 75bd
000000a0: 7c27 263d 6d1f 723d 6256 51bd 8222 df3c
000000b0: 3284 e63c bb4a c3bc e871 8dbc e804 fabc
000000c0: 2e96 763d a780 563d f965 7fbd be2e 3b3d
000000d0: d7d4 693c fbd0 1e3d 6bc3 c7bc f584 943c
000000e0: 9069 393c 34a7 323d 1a2a 3cbd 6039 933c
000000f0: 401f 143d 9d6f 09bd 904f 0dbd f5c3 5f3d
00000100: 314f 58bd 49f4 3bbc beeb 2fbc 713f 8eb8
00000110: a2dc cf3c e128 653d 44ee 2fbd 72e4 65bd
00000120: 0e8b 283d 4b92 333d 435c 4abc f3f7 8a3c
00000130: bac0 3fbd d339 533d 32e8 7c3d f051 d6bc
00000140: b8f2 1cbd f4fd f5bc 6c54 ebbb 4372 44bd
00000150: 5b39 003d 1b81 edbc 021c 4e3b ac29 23bd
00000160: 08de 803c 5394 1dbd 3426 293d 495d 1ebc
00000170: d3c9 2abd 632b 6c3d 45b6 263d 2d91 7fbc
00000180: e5da 27bd 58c5 72bd 1330 2bbc cbb1 d93b
00000190: d90e c43c 1961 28bd e296 72bd fdfd 1ebd
000001a0: dd8b 6b3b 925f 15bd 355e 143d 102d 57bb
000001b0: 71cc 5d3d 0337 76bd bf90 77bd 6bca abbb
000001c0: 6dce a33c 1d9e 063d 8220 27bc 45ef b73c
000001d0: 6b36 29bd 3650 d3bc 556b 083d 8263 d5bc
000001e0: e751 ed3c 2754 27bd 9bda 723d 1fbe 05bc
000001f0: 85b6 1abd 0a16 7d3d 696f df3c 7ee4 be3c

encoder.5.weight f4 [128]
1.3618137 0.8360962 1.6578906 1.1373391 1.203805 1.348561 1.5519626 1.0148236
0.9979386 1.0005652 0.9161737 1.0252869 0.9998927 0.8653102 0.8205958 1.4816755
1.316725 0.8001914 1.0585192 0.8198918 0.78750986 1.3798379 1.7562666 1.1113602
1.0822594 1.3818636 1.0173099 0.929405 0.7293923 1.3568769 1.2966189 1.1838089
1.2498001 0.9613406 1.2351941 0.9323771 0.797087 0.84955573 1.4121128 1.0191721
1.219559 0.94209474 1.7654526 0.9669728 1.1663126 0.8360669 1.7561827 0.8601128
1.0240043 1.0255425 0.7295737 0.9061769 0.83459455 0.93427294 1.3017162 1.2505113
1.0927051 1.3682885 1.0445281 1.2884421 1.343911 0.8536815 1.3528726 1.0928967
1.3056043 1.1136833 1.4872466 1.2808793 0.86107355 1.0430622 1.1116549 1.2520059
0.9559355 0.93795586 1.0183135 0.7636869 1.3255706 1.4441446 1.0752025 0.888567
0.8932636 1.1580635 1.0793477 1.2365177 1.0210679 0.8666338 0.8726213 0.8684203
0.8606624 1.1080128 1.0624622 1.0807476 1.1157136 1.7534262 0.9152052 0.9191802
0.89028543 1.4563373 0.89193755 1.0847249 1.0854272 1.0937076 1.0849519 1.2512417
1.1326025 0.90683836 1.3413233 1.4805815 1.1457677 1.0830818 0.9534547 1.5370438
0.8311649 0.8251334 1.0558672 1.1592491 0.78645295 1.5647019 1.2314175 1.0551583
1.0924006 1.1535866 1.2607372 0.8408811 1.2475286 1.5332173 0.9609367 0.95920944
00000000: e94f ae3f 670a 563f c235 d43f 5494 913f
00000010: 4816 9a3f a69d ac3f b6a6 c63f bde5 813f
00000020: e778 7f3f 8512 803f 5c8a 6a3f 9a3c 833f
00000030: f8f8 7f3f f884 5d3f 9112 523f 8ba7 bd3f
00000040: 728a a83f 58d9 4c3f 8f7d 873f 6ee4 513f
00000050: 3f9a 493f 879e b03f 58cd e03f 0d41 8e3f
00000060: 7a87 8a3f e8e0 b03f 3637 823f 7ced 6d3f
00000070: 74b9 3a3f 24ae ad3f 9cf7 a53f 0d87 973f
00000080: 73f9 9f3f 6b1a 763f d71a 9e3f 44b0 6e3f
00000090: e50d 4c3f 7c7c 593f 1dc0 b43f 3b74 823f
000000a0: 821a 9c3f 1f2d 713f 5afa e13f 888b 773f
000000b0: bb49 953f 7b08 563f 98ca e03f 5a30 5c3f
000000c0: 9312 833f fa44 833f 58c5 3a3f 36fb 673f
000000d0: fda7 553f 832c 6f3f a39e a63f c110 a03f
000000e0: c3dd 8b3f 1424 af3f 19b3 853f aceb a43f
000000f0: 4705 ac3f df8a 5a3f ee2a ad3f 0ae4 8b3f
00000100: 0b1e a73f 2d8d 8e3f 195e be3f daf3 a33f
00000110: 516f 5c3f 1083 853f b54a 8e3f bb41 a03f
00000120: 30b8 743f e01d 703f 1958 823f fc80 433f
00000130: 4cac a93f bbd9 b83f 3ca0 893f 2079 633f
00000140: ecac 643f 6d3b 943f 1128 8a3f 3646 9e3f
00000150: 5ab2 823f b6db 5d3f 1c64 5f3f cb50 5e3f
00000160: 5f54 5c3f 5dd3 8d3f c3fe 873f f055 8a3f
00000170: b4cf 8e3f 4570 e03f e34a 6a3f 654f 6b3f
00000180: bfe9 633f 4369 ba3f 0556 643f 44d8 8a3f
00000190: 47ef 8a3f 9cfe 8b3f b4df 8a3f b028 a03f
000001a0: 1ef9 903f 8f26 683f 7bb0 ab3f b283 bd3f
000001b0: 84a8 923f 6da2 8a3f 9b15 743f dabd c43f
000001c0: 39c7 543f f13b 533f a826 873f 4662 943f
000001d0: fb54 493f 2748 c83f 179f 9d3f 6d0f 873f
000001e0: c8d3 8b3f baa8 933f d65f a13f fc43 573f
000001f0: 04af 9f3f 7740 c43f f3ff 753f c08e 753f
