models/video_injection_model.pth (torch, 603557 bytes, 32 tensors)

encoder.0.weight f4 [256, 114]
0.37513152 -0.004967363 -0.0047860504 0.10989181 -0.123261936 0.026718797 -0.026729254 -0.102419555
-0.012811353 -0.017829655 -0.0009051696 -0.04795604 0.19914377 0.039484937 -0.06286734 0.21448936
-0.12887141 -0.07355728 0.11178052 -0.115796976 -0.08372574 0.07796252 -0.061911583 -0.0890997
0.033240717 -0.12693766 -0.039751522 -0.0035805588 -0.13779002 0.07990782 0.24367478 -0.050130066
-0.083176464 0.01047415 -0.10949681 -0.40035838 -0.39441976 0.24518909 0.0049876077 0.0341027
0.092518955 -0.014015356 -0.43959337 -0.35331976 0.013588254 0.0627849 -0.010529498 0.16431329
0.041555632 -0.5082207 -0.445039 0.09436725 0.026272148 0.00014028119 -0.020586755 0.061993796
-0.40389556 -0.48557198 0.12493069 0.08553884 -0.0082596 -0.013446953 0.07919678 -0.1427827
-0.23493907 0.38559037 0.038365874 -0.10014974 0.23789 0.062136102 -0.086431324 -0.001998546
0.06395669 0.061572988 0.08640262 -0.06564962 -0.024895858 0.042835962 -0.078756414 -0.0117414985
-0.03798726 -0.08636256 0.04684857 -0.04849052 0.0374945 0.0018582642 -0.04826641 -0.20956828
0.03776996 0.04889784 -0.024015024 0.18088074 -0.025986977 0.033513725 -0.19275558 0.06645591
0.021278288 -0.05472669 0.10150078 0.0040587336 -0.075746916 -0.11467698 -0.033075444 -0.037226252
-0.001323748 0.14520349 -0.0060517285 0.022055708 -0.019256178 0.101877205 -0.019367127 -0.047381703
0.010642705 -0.05733611 -0.19263142 -0.13787693 0.12394555 0.05130636 -0.0342383 -0.0274653
0.32112646 0.004789044 -0.08963411 0.36245877 -0.023552658 0.016872825 -0.0008301872 0.022709686
0.09976576 -0.20888965 -0.09902131 0.1885883 0.1305154 -0.0088566365 0.05596124 0.3235594
0.13344511 -0.015555978 -0.015124866 0.062501885 -0.06223765 -0.069697686 -0.04687323 0.033097394
-0.2678201 -0.14298624 0.12324996 -0.14704797 0.1961698 -0.08053706 -0.025313178 0.1706742
0.100474775 -0.010268839 0.1263708 -0.02126694 0.056994785 0.033341788 0.3692589 -0.025393799
-0.113392405 0.107002415 0.019957934 0.029916497 0.115815334 -0.06324687 -0.028003974 -0.050072264
0.16540582 -0.006364861 -0.08154221 0.14180335 -0.08463633 -0.030496627 -0.018079888 0.07565658
0.17150809 -0.0030329728 0.060938112 -0.17297544 0.012213757 0.043837935 0.21573916 -0.013746332
0.07807361 0.33021212 -0.086221285 0.028035365 0.053312227 -0.058235176 0.028466413 -0.20212731
-0.031747364 -0.028788006 -0.33476678 -0.102191806 0.07747409 -0.087997474 0.11701991 -0.002145648
0.06812869 0.15939045 0.06822626 0.021758059 0.1257384 0.007524312 -0.01608941 0.047559723
0.3223253 0.046376277 0.017572315 0.040329695 -0.14404361 0.045051157 0.045789734 0.16809548
-0.00260347 0.0016259622 0.04341494 -0.07934313 -0.026793119 -0.14988212 0.016729563 -0.107898235
-0.04906032 0.023342876 0.043163575 -0.10259943 -0.2537426 0.018776571 -0.25554058 -0.18489733
0.0035229803 -0.21018152 -0.04404409 0.02857821 -0.046648975 -0.113027364 0.13212758 0.17553
0.013083519 0.017385464 0.22779098 -0.22672826 0.12557533 -0.40993276 -0.27939093 0.085414305
-0.21118468 -0.004734564 -0.02541874 0.20540603 0.0781554 0.14817737 0.21624458 0.009395638
00000000: 3d11 c03e 43c5 a2bb 4dd4 9cbb f50e e13d
00000010: c170 fcbd 61e1 da3c 4ff7 dabc 58c1 d1bd
00000020: b6e6 51bc 7f0f 92bc e748 6dba 8d6d 44bd
00000030: 58ec 4b3e f5ba 213d 98c0 80bd 19a3 5b3e
00000040: def6 03be 33a5 96bd 2fed e43d f726 edbd
00000050: 6778 abbd d0aa 9f3d 0097 7dbd e779 b6bd
00000060: 6b27 083d f2fb 01be 7ed2 22bd cfa7 6abb
00000070: d418 0dbe b6a6 a33d e285 793e 2f55 4dbd
00000080: 6c58 aabd c59b 2b3c dd3f e0bd c6fb ccbe
00000090: 63f1 c9be d912 7b3e 166f a33b 46af 0b3d
000000a0: 947a bd3d aaa0 65bc 6212 e1be 54e6 b4be
000000b0: 45a1 5e3c 5f95 803d ea83 2cbc be41 283e
000000c0: 3d36 2a3d c01a 02bf 27dc e3be 9e43 c13d
000000d0: b038 d73c 7218 1339 8ea5 a8bc 35ed 7d3d
000000e0: 66cb cebe e49c f8be a9db ff3d fd2e af3d
000000f0: 4653 07bc 9c50 5cbc ec31 a23d a135 12be
00000100: de93 70be 1a6c c53e 8925 1d3d 4f1b cdbd
00000110: 7099 733e 6d82 7e3d e802 b1bd 0afa 02bb
00000120: bafb 823d f533 7c3d dbf3 b03d 4f73 86bd
00000130: 66f2 cbbc c374 2f3d 0b4b a1bd 6a5f 40bc
00000140: 8798 1bbd dbde b0bd 49e4 3f3d ff9d 46bd
00000150: d593 193d 0091 f33a 00b3 45bd 1199 56be
00000160: acb4 1a3d 1a49 483d 28bb c4bc cd38 393e
00000170: a4e2 d4bc b045 093d b861 45be 091a 883d
00000180: ce4f ae3c 1829 60bd a4df cf3d 20ff 843b
00000190: 3321 9bbd c4db eabd 1e7a 07bd 8e7a 18bd
000001a0: 9d81 adba 39b0 143e 944d c6bb 2cae b43c
000001b0: 22bf 9dbc ffa4 d03d cfa7 9ebc 5113 42bd
000001c0: bd5e 2e3c 45d9 6abd 2c41 45be 9c2f 0dbe
000001d0: 2ad7 fd3d 9e26 523d 763d 0cbd e9fe e0bc
000001e0: b06a a43e 6aed 9c3b 1792 b7bd 3294 b93e
000001f0: 81f1 c0bc e138 8a3c eba0 59ba aa09 ba3c
00000200: fe51 cc3d 2be7 55be afcb cabd 4b1d 413e
00000210: d4a5 053e 6d1b 11bc 9d37 653d 94a9 a53e
00000220: d6a5 083e 80de 7ebc 49ce 77bc fd00 803d
00000230: e8ec 7ebd a9bd 8ebd 25fe 3fbd 2291 073d
00000240: b71f 89be fc6a 12be 7a6a fc3d be93 16be
00000250: bce0 483e 9df0 a4bd 955d cfbc 38c5 2e3e
00000260: b8c5 cd3d a23e 28bc 5967 013e 0138 aebc
00000270: 5d73 693d 6691 083d 810f bd3e a806 d0bc
00000280: 473a e8bd 1524 db3d d27e a33c 7113 f53c
00000290: 9730 ed3d 9387 81bd 9768 e5bc 9318 4dbd
000002a0: 2560 293e 5390 d0bb 9aff a6bd e634 113e
000002b0: d055 adbd 10d4 f9bc 461c 94bc d6f1 9a3d
000002c0: d19f 2f3e d7c4 46bb 3e9a 793d 7920 31be
000002d0: 361c 483c 688f 333d baea 5c3e 4c38 61bc
000002e0: 0fe5 9f3d 9011 a93e c994 b0bd 6caa e53c
000002f0: ec5d 5a3d 0288 6ebd 6532 e93c 76fa 4ebe
00000300: 8609 02bd d3d4 ebbc 8d66 abbe f049 d1bd
00000310: bcaa 9e3d 0538 b4bd 22a8 ef3d 009e 0cbb
00000320: 0e87 8b3d 4037 233e 36ba 8b3d f53d b23c
00000330: 91c1 003e 818e f63b f0cd 83bc fccd 423d
00000340: d207 a53e 0df5 3d3d d1f3 8f3c c030 253d
00000350: 2b80 13be 9087 383d 048e 3b3d 3921 2c3e
00000360: fb9e 2abb 3d1e d53a ddd3 313d a77e a2bd
00000370: 3e7d dbbc b37a 19be 700c 893c c0f9 dcbd
00000380: 79f3 48bd 8f39 bf3c 4acc 303d a61f d2bd
00000390: 8dea 81be 53d1 993c 37d6 82be ba55 3dbe
000003a0: cde1 663b d339 57be 9367 34bd da1c ea3c
000003b0: ff12 3fbd e47a e7bd 744c 073e 23be 333e
000003c0: 425c 563c f66b 8e3c 0a42 693e 742b 68be
000003d0: d296 003e b5e2 d1be 540c 8fbe b2ed ae3d
000003e0: cc40 58be 6724 9bbb f63a d0bc f555 523e
000003f0: f00f a03d cfbb 173e 386f 5d3e 29f0 193c

encoder.0.bias f4 [256]
0.006752452 0.06060353 -0.06033654 -0.06114616 0.074422956 -0.0547404 -0.008441862 0.065032706
-0.088187985 0.06204399 -0.066749066 0.061987177 0.055557426 0.054679725 0.07452213 0.012745469
0.0044183666 0.073202305 0.086833335 0.012154071 0.08922485 -0.02420518 -0.044542804 0.063290015
0.05232853 -0.034253206 -0.017100777 0.0065008937 0.05400325 -0.0075048157 0.045898344 -0.025404459
-0.06565896 0.08160247 0.035989627 -0.01621483 -0.030100977 0.005812182 -0.035869326 0.05421899
-0.05242998 0.05814657 0.082369566 0.033242077 0.04844031 -0.08679089 -0.023758577 0.039435755
-0.060727924 0.082720906 0.0013057527 0.089564934 0.020498779 0.08798392 0.06302783 -0.0040351134
-0.030467037 -0.038987406 -0.051459692 0.041512884 -0.058714442 -0.0032015343 0.05089346 0.07998303
0.02840476 0.015782245 -0.0021756233 -0.057461362 -0.046574228 0.061346225 -0.010632885 -0.035469964
-0.0067050927 -0.03814944 -0.026119413 -0.033910114 -0.009262868 0.09220536 -0.057484675 -0.031530403
0.0069972873 -0.009481645 -0.056601893 0.078206785 0.011488272 0.05286791 0.024422707 -0.05035456
-0.017360805 0.060485635 0.015541271 0.003956935 0.09325779 -0.06834021 0.0059558074 0.06408825
0.032767877 -0.0044531967 0.014797112 -0.04601671 -0.014567067 0.013688862 -0.09190736 -0.073205516
-0.044192858 -0.04215432 0.042117894 0.0625759 0.020139158 -0.0011541201 0.02715775 0.03408897
0.06729323 -0.030410815 0.030104306 -0.091552906 -0.0775186 -0.023704799 -0.027875299 0.054115813
0.0066208476 0.023974534 0.0846764 -0.02239144 0.07226068 -0.059209727 -0.057805087 0.011213619
0.07599225 -0.0552382 -0.09119026 0.021333281 -0.02597373 -0.06000112 -0.027087795 0.059871882
-0.077591226 0.089192905 0.0792476 0.080303624 -0.028150065 0.019277304 -0.082533464 -0.018307712
0.0028250308 -0.08159479 0.07417703 0.06966776 0.007970511 0.017529575 0.085844435 0.020053137
0.074415214 -0.0067809187 -0.0057096994 0.047379885 -0.021422448 -0.0133655965 -0.037253838 -0.077288486
-0.009190598 0.0020333375 0.0013906873 -0.04313259 0.011506995 -0.009390989 0.09364881 0.028575983
-0.026024735 -0.029204898 0.06547238 0.074796095 -0.0066315224 0.0025646528 -0.015660191 -0.03194049
-0.07516749 -0.04761631 -0.034563962 -0.0096098455 -0.084222585 0.047073808 0.06764961 -0.049407784
0.052850056 -0.06139032 0.036283154 0.0470294 -0.09002946 -0.045213405 -0.021338338 0.021198291
-0.07426523 0.07626301 -0.086014286 0.05410072 -0.08281916 0.011251781 -0.040023822 -0.08855354
-0.05980423 0.05385029 0.06357379 0.07493798 0.06842665 -0.07631477 0.02037746 0.08734571
0.06586566 -0.045144502 0.08220625 -0.0051974654 -0.033500444 0.0140226325 -0.044219263 -0.049140237
-0.00056514406 -0.042912327 -0.016365297 0.023269134 0.014028867 -0.08809964 -0.07989126 -0.063695855
0.025212906 -0.0070851324 0.025137136 -0.022093229 -0.08697933 0.05253472 -0.06895261 0.048524465
-0.042122632 -0.043316603 -0.07580165 0.0465187 -0.06634023 0.028972723 -0.070272654 -0.029726645
0.06518517 0.051864054 0.06242716 -0.06419578 -0.030707145 0.07165985 -0.033786327 -0.06162359
0.03759728 0.013729937 -0.031508286 0.0792962 -0.08551558 -0.044092894 0.06532704 0.021455053
00000000: ac43 dd3b 683b 783d 7323 77bd 6574 7abd
00000010: 106b 983d 7837 60bd bc4f 0abc de2f 853d
00000020: e79b b4bd d721 7e3d bcb3 88bd 44e6 7d3d
00000030: 2f90 633d d9f7 5f3d 0f9f 983d 5fd2 503c
00000040: f2c7 903b 17eb 953d add5 b13d de21 473c
00000050: 85bb b63d f149 c6bc 8472 36bd 329e 813d
00000060: 7156 563d 174d 0cbd ee16 8cbc 7305 d53b
00000070: 8332 5d3d f5ea f5bb e7ff 3b3d 031d d0bc
00000080: 3478 86bd 321f a73d dc69 133d f7d4 84bc
00000090: 5396 f6bc 1e74 be3b b7eb 12bd bb14 5e3d
000000a0: d2c0 56bd 192b 6e3d 60b1 a83d d828 083d
000000b0: 5969 463d 6cbf b1bd 59a1 c2bc 6387 213d
000000c0: d8bd 78bd 9469 a93d ca25 ab3a d26d b73d
000000d0: 0eed a73c ea30 b43d bc14 813d fc38 84bb
000000e0: 0296 f9bc 42b1 1fbd 66c7 52bd 6a09 2a3d
000000f0: 8e7e 70bd d5d0 51bb a975 503d 25ce a33d
00000100: 19b1 e83c c449 813c e794 0ebb 9b5c 6bbd
00000110: 9ec4 3ebd 2e46 7b3d 8d35 2ebc f448 11bd
00000120: 65b6 dbbb 9642 1cbd 61f8 d5bc 55e5 0abd
00000130: 49c3 17bc 2ad6 bc3d 0d75 6bbd 0626 01bd
00000140: 8049 e53b e758 1bbc 63d7 67bd e12a a03d
00000150: 4e39 3c3c 068c 583d 2112 c83c 9540 4ebd
00000160: 3f38 8ebc c9bf 773d d1a0 7e3c 2da9 813b
00000170: f1fd be3d f4f5 8bbd ef28 c33b b340 833d
00000180: 9c37 063d 1fec 91bb 966f 723c 057c 3cbd
00000190: b5aa 6ebc 4047 603c ed39 bcbd c6ec 95bd
000001a0: 9203 35bd 02aa 2cbd d083 2c3d cb27 803d
000001b0: e0fa a43c d845 97ba ee79 de3c e0a0 0b3d
000001c0: 08d1 893d 1a20 f9bc 4e9d f63c 1780 bbbd
000001d0: 12c2 9ebd 9130 c2bc bd5a e4bc 8ba8 5d3d
000001e0: b2f3 d83b 3e66 c43c d26a ad3d 416e b7bc
000001f0: 68fd 933d e685 72bd 07c5 6cbd 54b9 373c
00000200: d3a1 9b3d 7341 62bd f6c1 babd 22c3 ae3c
00000210: dcc6 d4bc bcc3 75bd 39e7 ddbc 383c 753d
00000220: 26e8 9ebd c5aa b63d 914c a23d 3a76 a43d
00000230: f79a e6bc 70eb 9d3c 4e07 a9bd 0efa 95bc
00000240: 2724 393b 2b1b a7bd 20ea 973d f8ad 8e3d
00000250: bf96 023c 2f9a 8f3c 35cf af3d 7a46 a43c
00000260: 0167 983d 7832 debb 6e18 bbbb 6911 423d
00000270: 217e afbc 60fb 5abc 7b97 18bd 6d49 9ebd
00000280: 2994 16bc be41 053b b947 b63a ccab 30bd
00000290: d687 3c3c aadc 19bc f3ca bf3d 2e18 ea3c
000002a0: d331 d5bc 1c3f efbc 6216 863d b22e 993d
000002b0: 3e4d d9bb bc13 283b cd49 80bc 08d4 02bd
000002c0: 6af1 99bd 5209 43bd f192 0dbd 9d72 1dbc
000002d0: e47c acbd 77d0 403d e18b 8a3d d15f 4abd
000002e0: 4d79 583d 6b74 7bbd a59d 143d e6a1 403d
000002f0: 5e61 b8bd b131 39bd bdcd aebc 0aa8 ad3c
00000300: 5e18 98bd c82f 9c3d 4228 b0bd b798 5d3d
00000310: 179d a9bd 6459 383c 05f0 23bd 8f5b b5bd
00000320: 48f5 74bd 1f92 5c3d fa32 823d 1579 993d
00000330: 4523 8c3d eb4a 9cbd a2ee a63c 4fe2 b23d
00000340: 93e4 863d 71e9 38bd c05b a83d 804f aabb
00000350: c337 09bd 2fbf 653c 421f 35bd 4647 49bd
00000360: 2d26 14ba d6c4 2fbd 8410 86bc e99e be3c
00000370: 55d9 653c 966d b4bd 079e a3bd f972 82bd
00000380: 4c8b ce3c 662a e8bb 65ec cd3c dcfc b4bc
00000390: 3822 b2bd a62e 573d 0737 8dbd 97c1 463d
000003a0: c888 2cbd c06c 31bd e53d 9bbd 648a 3e3d
000003b0: 63dd 87bd 3458 ed3c 1ceb 8fbd 4b85 f3bc
000003c0: cd7f 853d 676f 543d 9fb3 7f3d 1479 83bd
000003d0: 8d8d fbbc 66c2 923d 8863 0abd 0469 7cbd
000003e0: 9bff 193d 88f3 603c d50e 01bd 0c66 a23d
000003f0: cb22 afbd c09a 34bd 2fca 853d 82c2 af3c

encoder.1.weight f4 [256]
0.944346 1.0839195 0.9565169 0.9433703 0.9180092 0.7366877 0.82348305 0.86510944
0.9758977 1.0853615 1.1154866 0.8272194 0.85838944 0.84579796 0.9250187 0.89053005
0.9801451 1.1350521 0.92579573 0.9431631 0.83924615 0.8407046 1.0287749 1.0867301
0.9725089 0.8552195 0.85036814 1.0617042 0.732363 0.9270819 0.8964612 0.7730049
0.89620465 0.96165097 0.9099398 0.9614538 0.9199537 0.93216854 1.0952222 0.9838206
1.093236 0.8324158 0.82107055 0.79668987 0.8961192 0.88740706 0.81914407 0.76904553
0.8791488 0.91190386 0.9222567 0.94933283 1.1363362 0.9311458 0.95068413 0.8955812
0.9303835 0.7410933 0.8913337 0.83121675 0.7758869 1.0443655 0.8686642 1.0416203
0.80765575 0.9312936 1.0703275 0.8700453 0.8553255 0.82341653 0.87919766 0.99013925
0.98829883 0.8978515 0.8538518 0.8565915 0.8738844 0.98722845 0.7903887 0.9992147
1.039835 1.0505749 1.006084 0.9454877 0.7887031 0.8215918 0.98211455 0.96582234
0.9155427 0.91988516 0.9969105 0.7566126 0.8842794 1.0357367 0.8696439 1.1863633
1.0194236 0.91017604 0.9797186 0.96866125 0.8548933 0.82514256 0.89103985 0.9936276
0.8077175 0.9739595 0.85133386 0.99966896 1.0599971 0.9722604 1.0489271 0.89591384
0.8296857 0.9587058 1.0433508 0.93162346 0.9230654 1.0277823 0.97676337 0.87300617
0.92469656 0.85773414 0.79072714 0.8629932 0.85658634 0.87576133 0.91533226 0.9191097
0.9896068 0.827717 0.95342207 0.9581615 0.9519265 0.96528065 0.78207815 0.9275134
0.9566052 0.9955334 1.0346245 0.9017005 0.78794324 0.8927143 0.89646095 0.85420686
1.0837272 0.87493473 0.80560255 1.0082364 1.0078082 0.9541174 1.0488714 0.8671449
0.8391659 0.951634 1.178389 0.86802626 0.78270775 1.0398535 1.0207882 0.9910246
0.9101907 1.0126934 0.87622523 0.965684 0.9120539 0.91022986 0.78763777 0.834795
0.98820716 1.010476 0.791506 0.8157277 0.8982685 0.8666532 0.95196396 0.9168758
0.9933717 0.8053814 0.8063215 0.82025915 0.9996764 1.0474356 0.9079954 0.9063979
1.0355657 0.8984307 0.904579 0.93249774 0.8719461 0.93348366 0.8046442 1.0110962
0.9590259 0.8920567 0.9444303 1.0099127 0.9340365 0.96948004 1.0959272 1.0488554
1.0644181 0.8281407 0.89811814 0.981292 1.0885242 0.88326067 1.0276685 0.9359756
1.0968274 0.76840377 0.90220416 0.78171843 0.95998275 1.016719 0.9875879 1.0489641
0.80050284 0.8801189 0.92104506 0.97497797 0.7900979 0.95282966 0.8727941 0.7689505
0.7931632 0.9594272 0.940663 0.7825125 1.013081 0.9002513 0.90315986 0.9309389
1.0723755 0.837918 0.7912604 0.8482325 0.8493146 1.0662665 0.93814236 0.89914024
0.87568516 1.0188812 0.9758944 0.9915527 1.0096362 1.0138513 0.87943023 1.0047439
0.91540384 0.9490923 0.8051617 0.88469917 0.88133407 1.015348 1.0578002 0.895171
00000000: a9c0 713f e0bd 8a3f 4bde 743f b780 713f
00000010: a702 6b3f 9197 3c3f c9cf 523f d077 5d3f
00000020: 6fd4 793f 20ed 8a3f 44c8 8e3f a7c4 533f
00000030: 69bf 5b3f 3786 583f 07ce 6c3f c7f9 633f
00000040: caea 7a3f 6349 913f f300 6d3f 2373 713f
00000050: d6d8 563f 6b38 573f e5ae 833f f919 8b3f
00000060: 58f6 783f aaef 5a3f bab1 593f ece5 873f
00000070: 247c 3b3f 3d55 6d3f 7b7e 653f a6e3 453f
00000080: ab6d 653f c22e 763f d1f1 683f d621 763f
00000090: 1682 6b3f 99a2 6e3f 3e30 8c3f abdb 7b3f
000000a0: 28ef 8b3f 3419 553f ae31 523f def3 4b3f
000000b0: 1168 653f 1c2d 633f 6db3 513f 2be0 443f
000000c0: e50f 613f 8872 693f 0419 6c3f 7a07 733f
000000d0: 7773 913f 925f 6e3f 0960 733f cf44 653f
000000e0: 9d2d 6e3f 4ab8 3d3f 722e 643f 9fca 543f
000000f0: 86a0 463f c5ad 853f c760 5e3f d053 853f
00000100: 87c2 4e3f 4269 6e3f 7e00 893f 4abb 5e3f
00000110: 9df6 5a3f 6dcb 523f 1913 613f c479 7d3f
00000120: 2701 7d3f 99d9 653f 0896 5a3f 9549 5b3f
00000130: e3b6 5f3f 01bb 7c3f ea56 4a3f 89cc 7f3f
00000140: 5019 853f 3d79 863f 5cc7 803f 7b0b 723f
00000150: 72e8 493f d753 523f dc6b 7b3f 2240 773f
00000160: 0261 6a3f 987d 6b3f 8735 7f3f 5db1 413f
00000170: 2260 623f 0593 843f fca0 5e3f c1da 973f
00000180: 797c 823f 4c01 693f d7ce 7a3f 2ffa 773f
00000190: 4ada 5a3f 8b3c 533f 301b 643f 615e 7e3f
000001a0: 93c6 4e3f 6955 793f 04f1 593f 4eea 7f3f
000001b0: fcad 873f 0fe6 783f 3e43 863f 9c5a 653f
000001c0: 4866 543f be6d 753f 858c 853f e07e 6e3f
000001d0: 044e 6c3f 5f8e 833f 2a0d 7a3f 557d 5f3f
000001e0: eab8 6c3f 7794 5b3f 186d 4a3f 1fed 5c3f
000001f0: 3e49 5b3f e531 603f 3753 6a3f c64a 6b3f
00000200: df56 7d3f 43e5 533f 7813 743f 124a 753f
00000210: 75b1 733f a21c 773f 4636 483f 8571 6d3f
00000220: 14e4 743f 47db 7e3f 936e 843f d8d5 663f
00000230: a6b6 493f ed88 643f 777e 653f 4dad 5a3f
00000240: 93b7 8a3f b9fb 5f3f f83b 4e3f e40d 813f
00000250: dcff 803f 0a41 743f 6b41 863f 35fd 5d3f
00000260: 94d3 563f 499e 733f 73d5 963f f836 5e3f
00000270: 895f 483f eb19 853f 30a9 823f cab3 7d3f
00000280: 4202 693f f09f 813f 4c50 603f 1137 773f
00000290: 5d7c 693f d304 693f a1a2 493f 20b5 553f
000002a0: 25fb 7c3f 4757 813f 23a0 4a3f 88d3 503f
000002b0: edf4 653f fcdc 5d3f e9b3 733f 5fb8 6a3f
000002c0: 9c4d 7e3f 7a2d 4e3f 166b 4e3f 81fc 513f
000002d0: cbea 7f3f 5f12 863f 6372 683f b109 683f
000002e0: 6b8d 843f 8eff 653f 7d92 673f 2cb8 6e3f
000002f0: dc37 5f3f c9f8 6e3f 2afd 4d3f 9a6b 813f
00000300: b982 753f d45d 643f 2fc6 713f d244 813f
00000310: 041d 6f3f d82f 783f 5847 8c3f e540 863f
00000320: da3e 883f 0701 543f 12eb 653f f435 7b3f
00000330: c354 8b3f 5f1d 623f a48a 833f 199c 6f3f
00000340: d764 8c3f 1cb6 443f daf6 663f b31e 483f
00000350: 6ec1 753f d923 823f 90d2 7c3f 7544 863f
00000360: c1ed 4c3f 794f 613f 9cc9 6b3f 2898 793f
00000370: db43 4a3f a5ec 733f 6f6f 5f3f f1d9 443f
00000380: be0c 4b3f 059d 753f 4acf 703f bd52 483f
00000390: a3ac 813f df76 663f 7c35 673f 0352 6e3f
000003a0: 9a43 893f cb81 563f 0b90 4a3f c425 593f
000003b0: ae6c 593f 6c7b 883f 192a 703f 0e2e 663f
000003c0: e72c 603f b36a 823f 37d4 793f 66d6 7d3f
000003d0: c23b 813f e1c5 813f 5722 613f 739b 803f
000003e0: e857 6a3f b7f7 723f 141f 4e3f a57b 623f
000003f0: 1c9f 613f ecf6 813f ff65 873f ed29 653f

encoder.1.bias f4 [256]
-0.703519 -0.3794062 -0.6372546 -0.89568627 -0.23190984 -0.08639348 -0.49803928 -0.50490475
-0.4202851 -0.46066356 -0.2788868 -0.17765643 -0.09851172 -0.4195045 -0.5051811 -0.59759426
-0.5261325 -0.8038765 -0.38030508 -0.6355757 -1.0637374 -0.005456223 -0.56325656 -0.16453533
-0.0028510406 -0.49928313 -0.49184692 -0.87600523 0.11193664 -0.5966378 -0.31551284 -0.17396177
-0.5625948 -0.064073086 -0.48241687 -0.45314786 -0.39546323 -0.7454516 -0.47034907 -0.2507538
-0.49496704 -0.596109 -0.5411767 -0.47829938 -0.7013778 -0.9039747 -1.0640861 -0.514839
-0.43093488 -0.69446903 -0.65675896 -0.7060318 -0.49335155 -0.48123103 -0.48395672 -0.019127943
-0.7463278 -0.41582322 -0.5585655 -0.5433066 -0.4589039 -0.5546449 -0.55027854 -0.4454404
-0.49548608 -0.4367071 -0.45248023 -0.691293 -0.29966417 -0.37654984 -0.7204619 -0.36635503
-0.38401636 -0.6076688 -0.11965838 -0.5686672 -0.8730343 -0.44136932 -0.7604013 -0.47395176
-0.50629365 -0.78473604 -0.27518138 -0.32463425 -0.44257903 -0.6658865 -0.36466283 -0.40507558
-0.679608 -0.83668643 -0.47718355 -0.658725 -0.68494195 0.07092625 -0.5373237 -0.2850904
-0.47342417 -0.61969286 -0.07930342 -0.13752475 -0.6270296 -0.58461374 -0.5440427 -0.04823887
-0.52941734 -0.3152595 -0.93638074 -0.45197403 -0.4265639 -0.5739823 -0.43931058 -0.17729875
-0.5150784 -0.50422794 -0.5768922 -0.08435288 -0.520649 -0.4820748 -0.43603665 -0.6348324
-0.84341806 -0.0640366 -0.55461955 -0.52578986 -0.41102064 -0.76043826 -0.40270942 -0.7361251
-0.21085936 -0.40929604 -0.6196872 -0.42955828 -0.5058926 -0.68303686 -0.2561337 -0.6264937
-0.521065 -0.4601183 -0.45691523 -0.41946775 -0.5471544 -0.6093179 -0.18201242 -0.2199721
-0.18290627 -0.83789045 -0.58114946 -0.40598738 -0.067931466 -0.522048 -0.43627456 -0.887139
-0.672534 -0.27475843 -0.8514613 -0.28048018 -0.66630155 -0.56990767 -0.15489082 -0.35580885
0.023949057 -0.17085117 -0.7042808 -0.17880824 -0.37212652 -0.5304812 -0.38014066 -0.3417615
-0.83773834 -0.5724893 -0.5699964 -0.28921434 -0.7160448 -0.8398381 -0.19595678 -0.48487908
-0.68543917 -0.94043183 -0.50400966 -0.33748186 -0.3995218 -0.73368376 -0.38110745 -0.49629855
-0.61000395 -0.119215935 -0.6376776 -0.49554998 -0.74146855 -0.5541199 -0.95413923 -0.63905126
-0.3870455 -0.40964475 -0.53953 -0.5974737 -0.54411125 -0.35107297 -0.36191255 -0.5475876
-0.5484999 -0.6132749 -0.35518643 -0.5030217 0.019946288 -0.23272637 -0.44678205 -0.36264396
-0.33364487 -0.09601546 -0.22440983 -0.8968571 -0.37813795 -0.5252013 -0.79515916 -0.1673644
-0.7286599 -0.62147015 -0.43621174 -0.35457504 -0.76472884 -0.674755 -0.45360798 -0.7185082
-0.51056784 -0.4675877 -0.65878296 -0.6196357 -0.28079224 -0.5015595 -0.29403648 -0.37015194
-0.49077928 -0.47986153 -0.4905167 -0.55113506 -0.31657872 -0.59779215 -0.5177597 -0.28505927
-0.33508077 -0.48259574 -0.4184046 -0.49151868 -0.4394612 -0.25786114 -0.41416767 -0.57262766
-0.583539 -0.7165858 -0.58776695 -0.5181078 -0.35453784 -0.5093113 -0.4805272 -0.009442394
00000000: d219 34bf 8841 c2be 1e23 23bf b24b 65bf
00000010: c679 6dbe 11ef b0bd 01ff febe 7041 01bf
00000020: 9c2f d7be 18dc ebbe 40ca 8ebe 91eb 35be
00000030: 83c0 c9bd 4bc9 d6be 8c53 01bf f0fb 18bf
00000040: 9fb0 06bf daca 4dbf 59b7 c2be 17b5 22bf
00000050: 8c28 88bf 1eca b2bb 9531 10bf f37b 28be
00000060: 86d8 3abb 0aa2 ffbe 5cd3 fbbe e141 60bf
00000070: 0a3f e53d 41bd 18bf e68a a1be 0923 32be
00000080: 3606 10bf c038 83bd 58ff f6be ff02 e8be
00000090: 287a cabe ebd5 3ebf 98d1 f0be cd62 80be
000000a0: 526c fdbe 999a 18bf 8e8a 0abf a8e3 f4be
000000b0: 7f8d 33bf e36a 67bf f933 88bf 7dcc 03bf
000000c0: 7fa3 dcbe b9c8 31bf 5b21 28bf 80be 34bf
000000d0: 9398 fcbe ea63 f6be 2dc9 f7be 34b2 9cbc
000000e0: 570f 3fbf c8e6 d4be 26fe 0ebf 2416 0bbf
000000f0: 74f5 eabe 35fd 0dbf 0edf 0cbf c410 e4be
00000100: 5ab0 fdbe 1398 dfbe 7dab e7be 94f8 30bf
00000110: 956d 99be 24cb c0be 3170 38bf e392 bbbe
00000120: cb9d c4be 2f90 1bbf 740f f5bd 2c94 11bf
00000130: 2d7f 5fbf 29fb e1be a9a9 42bf cea9 f2be
00000140: 769c 01bf 76e4 48bf 93e4 8cbe 7636 a6be
00000150: b899 e2be 8a77 2abf 16b5 babe 1166 cfbe
00000160: cafa 2dbf 1531 56bf 6751 f4be 34a2 28bf
00000170: 5b58 2fbf c841 913d 0c8e 09bf 5ef7 91be
00000180: a764 f2be 31a4 1ebf d569 a2bd 4ad3 0cbe
00000190: 0385 20bf 3fa9 15bf 6246 0bbf 1f96 45bd
000001a0: e587 07bf b169 a1be a6b6 6fbf 2469 e7be
000001b0: 9566 dabe 81f0 12bf 51ed e0be ce8d 35be
000001c0: 2edc 03bf 1515 01bf 35af 13bf 34c1 acbd
000001d0: 4149 05bf 82d2 f6be 3240 dfbe 6084 22bf
000001e0: 3fea 57bf 9f25 83bd 8cfb 0dbf 2a9a 06bf
000001f0: 4c71 d2be 15ac 42bf ee2f cebe b272 3cbf
00000200: 84eb 57be 408f d1be d2a3 1ebf 10ef dbbe
00000210: 2d82 01bf 81db 2ebf f523 83be e461 20bf
00000220: 8464 05bf a094 ebbe cbf0 e9be 7ac4 d6be
00000230: 5012 0cbf 42fc 1bbf 7761 3abe 5e40 61be
00000240: c84b 3bbe fd7f 56bf 36c6 14bf 94dd cfbe
00000250: a71f 8bbd f0a4 05bf 615f dfbe 8b1b 63bf
00000260: 302b 2cbf 23ad 8cbe 5ef9 59bf 199b 8fbe
00000270: bd92 2abf 78e5 11bf b39b 1ebe 942c b6be
00000280: d030 c43c 9cf3 2ebe bf4b 34bf 8219 37be
00000290: 5e87 bebe 9ecd 07bf cca1 c2be 5dfb aebe
000002a0: 0576 56bf a98e 12bf 49eb 11bf e713 94be
000002b0: b64e 37bf a1ff 56bf e5a8 48be 1242 f8be
000002c0: f178 2fbf 24c0 70bf c706 01bf 6cca acbe
000002d0: 1f8e ccbe b3d2 3bbf 8420 c3be d81a febe
000002e0: 3829 1cbf 7c27 f4bd d73e 23bf bab8 fdbe
000002f0: e2d0 3dbf cdda 0dbf 7842 74bf dd98 23bf
00000300: d42a c6be f5bc d1be a31e 0abf 09f4 18bf
00000310: e04a 0bbf d6bf b3be 9a4c b9be b32e 0cbf
00000320: 7d6a 0cbf 95ff 1cbf ffda b5be 08c6 00bf
00000330: 6666 a33c d24f 6ebe 9ec0 e4be 78ac b9be
00000340: 80d3 aabe c1a3 c4bd b1cb 65be 6d98 65bf
00000350: 4c9b c1be 9873 06bf 8d8f 4bbf 9361 2bbe
00000360: 7589 3abf ab18 1fbf 2557 dfbe dc8a b5be
00000370: 45c5 43bf bebc 2cbf 4e3f e8be 27f0 37bf
00000380: 93b4 02bf a867 efbe 00a6 28bf 72a0 1ebf
00000390: 00c4 8fbe 3466 00bf f38b 96be 8e84 bdbe
000003a0: 6c47 fbbe 69b0 f5be 0125 fbbe 3017 0dbf
000003b0: 9b16 a2be e808 19bf e68b 04bf 4af3 91be
000003c0: b58f abbe ca16 f7be 2139 d6be 56a8 fbbe
000003d0: 0f01 e1be 6006 84be c90d d4be ba97 12bf
000003e0: d062 15bf 2b72 37bf e577 16bf b6a2 04bf
000003f0: fc85 b5be 3a62 02bf a907 f6be 45b4 1abc

encoder.1.running_mean f4 [256]
-1.4395243 1.5041438 0.6768919 -1.6115737 3.955391 -0.0753536 1.9690167 2.4223108
2.1951532 -0.012595005 3.631496 -0.0057220696 5.2876253 3.3405414 -2.3082685 -0.62815344
1.8514612 1.4928938 0.090509206 0.9308844 1.015197 0.32754412 0.6211505 1.5470562
1.4607283 1.6643736 -0.28063628 2.6791651 -1.857323 -1.2914981 4.192572 0.5403696
1.8818961 1.8420038 -2.0621328 -1.1710862 -1.366411 1.3818706 0.9347817 2.997605
-1.7666472 -2.5372736 -2.599036 -1.88757 2.3491023 0.5089648 0.5207736 -1.3107269
2.055334 1.7933266 0.5817312 2.4411948 0.09516715 3.259272 0.011340508 3.6455529
-2.4881144 -2.488797 0.8378995 1.9291943 -4.4774547 2.2354822 -2.077836 1.4329718
0.35464013 1.8960612 1.028905 -2.4399743 1.8298631 2.4500034 2.6223214 1.3596282
-1.4952029 1.1018127 -1.1504642 1.9520211 0.547902 -2.0671344 -0.076333515 2.0146315
1.5634639 -3.1133156 0.36300352 0.11084651 1.1806414 0.48218507 -0.624589 -0.089786194
0.2670582 0.65092987 -2.3916636 -0.9850726 2.61341 0.24114877 -4.001653 1.862776
-1.287147 1.7362021 1.0989238 -0.43214533 -2.3915305 0.44928095 -0.5426175 2.732183
0.45295468 -2.30662 3.4249482 0.4017827 1.0769054 2.2866304 -1.3958596 -0.9941128
-1.8620582 -0.44939417 -5.025782 -4.0534067 1.2413104 1.788902 -1.609441 2.856853
2.6920066 3.2380533 -1.6059579 -0.48102367 -2.738367 1.5591457 0.57490075 1.8640274
-2.8086233 -2.7119257 0.47821155 -0.0671932 0.90168935 1.3001156 2.324016 0.5935588
-0.42150947 -3.7226074 0.7086251 -1.1418396 -0.8764095 -2.9380524 0.748632 0.14428277
-0.32633686 0.6068364 -3.898005 -1.3762237 -2.5160713 -0.17537968 2.5747404 3.1827657
1.8428096 -1.6754267 2.7054687 1.722293 1.9501384 1.1525933 1.6912267 0.5923739
3.3276265 -0.016281925 -0.9373909 -2.5340424 2.234686 2.1937482 1.5185815 4.683777
1.3264112 1.6465698 3.0103824 -3.14066 1.7756721 1.0154449 -0.9408579 -0.80031514
0.9330961 3.7542434 -0.12414281 1.9087905 2.5117002 -3.8315418 -2.7200074 2.755765
-0.6734575 -3.182428 -1.4946761 2.7795155 0.7356829 0.8040666 1.1064379 2.520503
-2.311132 -0.027167695 2.3684669 5.0504327 2.0851386 -0.04987451 0.7238104 -0.6374652
-2.6092198 1.658632 3.4197934 3.7454312 1.728215 1.6085594 1.8995816 0.22562458
2.6169953 2.588563 3.2244034 2.8734946 2.7343743 0.26026642 0.86890715 1.1360216
0.69547445 3.3533213 1.5631323 1.0407473 3.3800583 -0.4465811 1.6961932 4.5815234
-2.6624045 -0.48394796 1.0681472 0.94095284 1.9985037 0.36205938 1.0048249 1.0841177
0.90664715 2.1817698 1.72625 -0.59175706 3.012245 0.81141704 -0.68442893 -1.970777
1.5653682 -0.9204197 1.7326906 1.9946716 2.2745156 1.8424008 -1.3681979 0.8271372
0.88940954 1.1490648 0.7870976 3.0202646 2.7610426 3.6641781 -3.5785594 2.89814
00000000: 5542 b8bf c987 c03f ca48 2d3f 0c48 cebf
00000010: 2025 7d40 fd52 9abd bd08 fc3f 2407 1b40
00000020: 647d 0c40 485b 4ebc 6e6a 6840 3380 bbbb
00000030: 3a34 a940 6ecb 5540 acba 13c0 aace 20bf
00000040: aefc ec3f 2517 bf3f e45c b93d 714e 6e3f
00000050: faf1 813f ddb3 a73e b803 1f3f f005 c63f
00000060: 25f9 ba3f 320a d53f 8faf 8fbe 7177 2b40
00000070: c3bc edbf cf4f a5bf 8d29 8640 a955 0a3f
00000080: f9e1 f03f c8c6 eb3f fcf9 03c0 27e6 95bf
00000090: 8ee6 aebf 23e1 b03f da4d 6f3f c3d8 3f40
000000a0: 7f21 e2bf b162 22c0 9b56 26c0 e59b f1bf
000000b0: b157 1640 844b 023f 6b51 053f e6c5 a7bf
000000c0: 988a 0340 ba8b e53f 56ec 143f 893c 1c40
000000d0: ffe6 c23d ea97 5040 8acd 393c bd50 6940
000000e0: 443d 1fc0 7348 1fc0 9580 563f d7ef f63f
000000f0: 4f47 8fc0 2412 0f40 44fb 04c0 9f6b b73f
00000100: 6493 b53e 22b2 f23f 29b3 833f 8a28 1cc0
00000110: f438 ea3f dbcc 1c40 1dd4 2740 4c08 ae3f
00000120: cf62 bfbf 3308 8d3f 6942 93bf d4db f93f
00000130: 4e43 0c3f ee4b 04c0 bf54 9cbd b9ef 0040
00000140: 961f c83f 9040 47c0 99db b93e 7f03 e33d
00000150: 421f 973f f6e0 f63e 11e5 1fbf d3e1 b7bd
00000160: dabb 883e 57a3 263f 0411 19c0 b82d 7cbf
00000170: 1c42 2740 b4ef 763e 8b0d 80c0 726f ee3f
00000180: 3cc1 a4bf df3b de3f 89a9 8c3f 2742 ddbe
00000190: d60e 19c0 2708 e63e fbe8 0abf 16dc 2e40
000001a0: ade9 e73e a99f 13c0 5a32 5b40 76b6 cd3e
000001b0: 09d8 893f 2758 1240 87ab b2bf 2d7e 7ebf
000001c0: ec57 eebf fe16 e6be 35d3 a0c0 82b5 81c0
000001d0: 42e3 9e3f befa e43f 2a02 cebf aed6 3640
000001e0: d649 2c40 443c 4f40 0790 cdbf bc48 f6be
000001f0: 6841 2fc0 1692 c73f b22c 133f 7398 ee3f
00000200: 7cc0 33c0 3190 2dc0 25d8 f43e 979c 89bd
00000210: 1dd5 663f 306a a63f aebc 1440 78f3 173f
00000220: 17d0 d7be 333f 6ec0 7468 353f cd27 92bf
00000230: 5f5c 60bf 0d09 3cc0 59a6 3f3f ddbe 133e
00000240: a015 a7be a159 1b3f ea78 79c0 1928 b0bf
00000250: 5007 21c0 bb96 33be 8cc8 2440 6fb2 4b40
00000260: 2fe1 eb3f 6274 d6bf 6626 2d40 1974 dc3f
00000270: 239e f93f 2d88 933f 1e7a d83f d1a5 173f
00000280: d5f7 5440 ac61 85bc daf8 6fbf c02d 22c0
00000290: 1805 0f40 5f66 0c40 e160 c23f 80e1 9540
000002a0: d8c7 a93f cdc2 d23f 1baa 4040 9300 49c0
000002b0: 3949 e33f 19fa 813f 10dc 70bf 74e1 4cbf
000002c0: 63df 6e3f 8645 7040 963e febd 3f53 f43f
000002d0: b2bf 2040 fb37 75c0 9a14 2ec0 745e 3040
000002e0: b667 2cbf e6ac 4bc0 8c51 bfbf 95e3 3140
000002f0: b755 3c3f 4fd7 4d3f c29f 8d3f ec4f 2140
00000300: 96e9 13c0 c98e debc f694 1740 259d a140
00000310: e972 0540 3749 4cbd a34b 393f eb30 23bf
00000320: 75fd 26c0 0e4e d43f e5dd 5a40 25b5 6f40
00000330: 2636 dd3f 46e5 cd3f 7d25 f33f 210a 673e
00000340: da7c 2740 04ab 2540 a05c 4e40 56e7 3740
00000350: fdff 2e40 a441 853e b370 5e3f 2869 913f
00000360: 9d0a 323f d19c 5640 b814 c83f 3537 853f
00000370: e052 5840 47a6 e4be dc1c d93f d79b 9240
00000380: d664 2ac0 07c8 f7be 0cb9 883f 49e2 703f
00000390: f8ce ff3f d95f b93e 1a9e 803f 5ec4 8a3f
000003a0: 071a 683f 1ea2 0b40 c3f5 dc3f 647d 17bf
000003b0: 9fc8 4040 07b9 4f3f bc36 2fbf 6c42 fcbf
000003c0: fc5d c83f a0a0 6bbf cec8 dd3f 6651 ff3f
000003d0: aa91 1140 cad3 eb3f 1c21 afbf 43bf 533f
000003e0: 58b0 633f 8e14 933f 3a7f 493f 044c 4140
000003f0: ecb4 3040 e581 6a40 1e07 65c0 207b 3940

encoder.1.running_var f4 [256]
0.15238573 0.047442168 0.05173583 0.057929978 0.11635359 0.096809156 0.104700476 0.04158835
0.05576467 0.037463024 0.33831364 0.034165695 0.121885516 0.11239212 0.06334428 0.04055606
0.046851665 0.03867556 0.08973956 0.047489025 0.14345801 0.10065145 0.08560273 0.040769383
0.07352949 0.112425484 0.038934346 0.09273312 0.028117485 0.04288789 0.15860958 0.047196742
0.07391484 0.026194105 0.10404749 0.048784263 0.05919551 0.08067633 0.060039695 0.04731482
0.031634286 0.64656365 0.74106973 0.91238636 0.09713267 0.09542588 0.068214394 0.56129223
0.03522351 0.12595339 0.06372223 0.16026339 0.25431886 0.03761933 0.0282493 0.1541976
0.1959284 0.23395886 0.045117535 0.114921026 0.13307075 0.03978532 0.2871235 0.033772454
0.4056833 0.10559297 0.055892013 0.14116362 0.04947218 0.08040679 0.14392199 0.021688253
0.03779974 0.09806149 0.107773185 0.060191434 0.023726352 0.14493078 0.049751516 0.029027326
0.018585619 0.11393774 0.07197963 0.048035104 0.36739177 0.120383516 0.02984807 0.028104179
0.16381101 0.060599048 0.17224808 0.3263644 0.07786386 0.024935277 0.63397217 0.29772252
0.05002813 0.20424204 0.03855113 0.034841057 0.42556283 0.057658933 0.028396608 0.106600314
0.15694797 0.15729952 0.38820657 0.05863263 0.051446453 0.05506832 0.15444015 0.036893513
0.30497915 0.043687504 0.13225369 0.116982825 0.029327935 0.06939176 0.08012946 0.02331701
0.14751631 0.1239804 0.25398794 0.22616631 0.09279772 0.27959552 0.03717213 0.12266195
0.081387706 0.47908458 0.27164733 0.06289468 0.09509836 0.19339287 0.06327108 0.13137563
0.027332798 0.09521864 0.05558694 0.24739377 0.61861396 0.65771294 0.069668144 0.03450261
0.039817464 0.20074286 0.852701 0.097801216 0.05205904 0.051736202 0.027496187 0.1472619
0.13926323 0.11211384 0.075683065 0.055787344 0.24582839 0.03415135 0.053901143 0.08692409
0.15168631 0.056695465 0.046473015 0.059398565 0.034347463 0.028970087 0.02638362 0.29290897
0.046128053 0.03069809 0.098035514 0.03783041 0.15631242 0.14627239 0.023936102 0.06748352
0.06683099 0.13680722 0.1368889 0.06359431 0.062169567 0.09552203 0.07797 0.029191725
0.06830488 0.044444546 0.03242989 0.051347617 0.0503536 0.05860915 0.11666986 0.057962473
0.04013533 0.030177701 0.026095038 0.34967408 0.07277803 0.06867256 0.007984743 0.028036255
0.14791454 0.11510394 0.1232019 0.43098107 0.02606503 0.089368984 0.10975263 0.026498074
0.045035075 0.09597658 0.03356012 0.23240545 0.34283778 0.06427015 0.12309714 0.021390053
0.08171317 0.111752205 0.06518939 0.04023941 0.19160931 0.04102707 0.05927584 0.16779211
0.7509019 0.046784263 0.23424534 0.20622036 0.032195635 0.048202932 0.034821473 0.11699817
0.026928267 0.012996604 0.24452884 0.21980351 0.09013662 0.022173205 0.03970535 0.024940507
0.0263192 0.23660521 0.034783818 0.043531448 0.31759387 0.045487788 0.075703524 0.04528497
0.10591913 0.15775265 0.19149908 0.06529527 0.111401014 0.074004196 0.14162087 0.0725748
00000000: 010b 1c3e b852 423d f3e8 533d fc47 6d3d
00000010: ca4a ee3d e143 c63d 346d d63d 8c58 2a3d
00000020: 7f69 643d d472 193d 7237 ad3e 54f1 0b3d
00000030: 1d9f f93d d72d e63d a5ba 813d 1c1e 263d
00000040: 88e7 3f3d 446a 1e3d 60c9 b73d da83 423d
00000050: a8e6 123e 5922 ce3d 7c50 af3d ccfd 263d
00000060: a196 963d 553f e63d 9f79 1f3d ddea bd3d
00000070: a456 e63c 36ab 2f3d 8d6a 223e 5f51 413d
00000080: aa60 973d 0595 d63c da16 d53d 02d2 473d
00000090: fe76 723d a239 a53d 2fec 753d 2fcd 413d
000000a0: f492 013d 3285 253f bfb6 3d3f 2792 693f
000000b0: 7eed c63d a56e c33d fdb3 8b3d d9b0 0f3f
000000c0: 8746 103d edf9 003e cd80 823d 161c 243e
000000d0: 1536 823e ba16 1a3d 136b e73c fae5 1d3e
000000e0: 74a1 483e e992 6f3e 2acd 383d b75b eb3d
000000f0: b343 083e eff5 223d da01 933e fc54 0a3d
00000100: b9b5 cf3e 2141 d83d 06ef 643d 328d 103e
00000110: 57a3 4a3d 51ac a43d 4960 133e 90ab b13c
00000120: e6d3 1a3d 76d4 c83d 30b8 dc3d 4b8b 763d
00000130: c45d c23c bc68 143e 3fc8 4b3d b7ca ed3c
00000140: de40 983c 3158 e93d 0e6a 933d 75c0 443d
00000150: c61a bc3e a28b f63d f183 f43c bc3a e63c
00000160: 13be 273e b536 783d cd61 303e 3c19 a73e
00000170: 1677 9f3d 1145 cc3c 004c 223f 166f 983e
00000180: 4cea 4c3d d324 513e cae7 1d3d 7fb5 0e3d
00000190: 5fe3 d93e c62b 6c3d 01a0 e83c 4451 da3d
000001a0: f8b6 203e 2013 213e 03c3 c63e c528 703d
000001b0: 84b9 523d 528f 613d 8f25 1e3e a71d 173d
000001c0: 3a26 9c3e abf1 323d 836d 073e b194 ef3d
000001d0: 2341 f03c 441d 8e3d ea1a a43d 5003 bf3c
000001e0: 840e 173e 70e9 fd3d b50a 823e 2498 673e
000001f0: bb0c be3d 2527 8f3e ce41 183d 3036 fb3d
00000200: 99ae a63d 934a f53e 5c15 8b3e edce 803d
00000210: eec2 c23d c808 463e 4594 813d 5587 063e
00000220: 08e9 df3c fe01 c33d 22af 633d cb54 7d3e
00000230: 7c5d 1e3f e05f 283f 2cae 8e3d 9c52 0d3d
00000240: a317 233d 898f 4d3e 9d4a 5a3f 014c c83d
00000250: dc3b 553d 57e9 533d af3f e13c d3cb 163e
00000260: 059b 0e3e f19b e53d b9ff 9a3d 4581 643d
00000270: 70ba 7b3e 49e2 0b3d 72c7 5c3d 4205 b23d
00000280: a853 1b3e 8139 683d 7d5a 3e3d e94b 733d
00000290: edaf 0c3d ad52 ed3c 7622 d83c 2af8 953e
000002a0: c5f0 3c3d 907a fb3c d8c6 c83d 0ff4 1a3d
000002b0: 5d10 203e 6ec8 153e a515 c43c cd34 8a3d
000002c0: b0de 883d 3117 0c3e 9b2c 0c3e bc3d 823d
000002d0: 84a5 7e3d 0ea1 c33d bcae 9f3d 7c23 ef3c
000002e0: 6ee3 8b3d 7c0b 363d 34d5 043d e151 523d
000002f0: 943f 4e3d 2610 703d 9cf0 ee3d 0f6a 6d3d
00000300: f264 243d 3a37 f73c 43c5 d53c 7b08 b33e
00000310: a60c 953d 33a4 8c3d 71d2 023c 4aac e53c
00000320: e976 173e 9dbb eb3d 4751 fc3d 8da9 dc3e
00000330: 5486 d53c 1607 b73d fdc5 e03d 7d12 d93c
00000340: b376 383d 5f8f c43d 5676 093d b2fb 6d3e
00000350: 6f88 af3e 12a0 833d 5a1a fc3d 313a af3c
00000360: 3c59 a73d 57de e43d 0482 853d 14d2 243d
00000370: 3b35 443e 000c 283d 39cb 723d b2d1 2b3e
00000380: 1b3b 403f dba0 3f3d 03de 6f3e 6e2b 533e
00000390: 92df 033d 7070 453d f6a0 0e3d bd9c ef3d
000003a0: ab98 dc3c b5ef 543c c565 7a3e 2c14 613e
000003b0: 8c99 b83d 95a4 b53c 14a2 223d 0950 cc3c
000003c0: 5d9b d73c a348 723e 7a79 0e3d 084e 323d
000003d0: aa9b a23e 6751 3a3d 730a 9b3d bc7c 393d
000003e0: 21ec d83d e989 213e 5618 443e 87b9 853d
000003f0: 3726 e43d 838f 973d 1005 113e 19a2 943d

encoder.4.weight f4 [128, 256]
0.15717666 0.12303839 -0.2766788 0.2014664 0.13870096 -0.08035501 0.11057846 0.17434156
-0.04974554 0.14673448 0.10447838 -0.14789566 0.16561614 0.2273668 0.092373714 -0.09255097
0.06984127 0.14980005 0.19758789 0.26581508 0.17100923 -0.04199278 0.23345253 0.21681277
-0.09386022 0.025270939 -0.015773112 0.15140423 -0.04510484 0.2035036 0.06451116 -0.032288484
0.068820946 -0.07705863 0.21884672 -0.10772687 -0.05927806 0.118436486 0.12813248 0.27480727
-0.059429877 0.12440512 0.117935665 0.10933479 -0.08815104 0.41582814 -0.12898614 0.11042565
-0.076630585 0.29668626 -0.028396074 0.36421558 -0.02161893 -0.080480054 0.20937061 0.111878656
0.09515609 0.0093539795 0.1511091 0.23865412 -0.012988294 0.104191236 0.018849505 0.12146398
0.12154716 0.12933378 -0.23807555 0.059462834 -0.015861003 0.029249335 0.2669538 -0.11826193
0.07307665 0.030927993 -0.055753455 0.09260329 0.032969702 0.10014788 0.07066113 0.06340248
0.15277456 0.16542394 -0.055098847 0.10846625 0.12256115 0.4585851 0.0026839855 -0.15577857
0.16221172 0.17263784 0.0003952013 0.15225846 0.08668785 0.013885922 0.09112369 0.17020601
0.1043947 0.30510348 -0.22384244 0.1014476 -0.059482284 0.04148749 -0.053803228 -0.0731309
0.1730372 2.1229647e-05 0.40452817 -0.047323447 -0.06603645 0.08046467 0.05331294 -0.21172753
0.22151022 -0.13882779 0.09941962 -0.05488123 0.04716667 0.15347904 0.04427517 -0.011923026
0.311534 0.17928445 0.06369999 0.1629083 -0.055212844 0.3352199 0.04212146 0.37609062
-0.041958626 0.055691514 0.21151434 0.063080676 -0.12296674 0.27188668 0.0165582 -0.12495664
-0.018858312 -0.08110604 -0.1556284 0.05791834 0.103396416 0.10651845 0.04014659 -0.14501831
-0.0652501 0.13690543 0.10512048 -0.20711061 -0.12919284 0.052679475 -0.08939469 0.17917025
0.3282555 -0.14274094 0.012625438 0.06839543 0.19075574 -0.19002862 0.17347689 0.13275537
0.15801658 0.12600309 0.09976224 0.032383915 0.10937402 -0.08036586 -0.17274898 0.017445972
-0.23218516 -0.040110756 0.17804325 -0.079226576 0.3740642 0.35859045 -0.077307686 -0.036597107
0.44934076 0.27337176 0.119173534 0.021844465 0.34114218 0.21464802 0.0048119817 -0.1821352
-0.055153266 -0.031200152 -0.04200437 -0.057557404 0.17150323 0.21979938 0.1720763 0.2083623
0.069386266 0.16786774 -0.14763415 0.24079515 0.04509397 -0.18711492 -0.15318623 0.008321393
-0.09540991 0.22957 0.2886296 0.08530687 0.04822433 0.15802029 0.09151667 -0.047646243
0.21300587 -0.112988435 -0.07788833 0.36846313 0.14395615 0.042649873 -0.056414235 0.121562414
0.115916595 0.079176314 0.025616432 0.10756039 -0.008594315 -0.03113322 0.18687186 0.17671423
0.25655138 -0.09159385 0.13149747 0.16884923 0.21449828 0.06006952 -0.14697489 -0.0028167954
-0.084455766 -0.032760005 0.14947817 0.17645551 -0.047598176 -0.0073704277 0.18790066 -0.097429216
0.05546122 -0.18177664 -0.029960204 0.02383897 0.3275481 0.091586806 -0.19749117 0.32644814
0.14329793 0.2791513 0.11426661 0.26181874 0.0854583 0.054451156 -0.06299687 0.16482115
00000000: ebf2 203e 8dfb fb3d d8a8 8dbe 354d 4e3e
00000010: a007 0e3e 2b91 a4bd f676 e23d 9886 323e
00000020: fbc1 4bbd 9041 163e c3f8 d53d f671 17be
00000030: 4797 293e d8d2 683e 6e2e bd3d 5d8b bdbd
00000040: f108 8f3d 2f65 193e 7b54 4a3e ea18 883e
00000050: 0b1d 2f3e 9f00 2cbd 2e0e 6f3e 2b04 5e3e
00000060: c939 c0bd 0005 cf3c 9d36 81bc b609 1b3e
00000070: dabf 38bd 3f63 503e 6d1e 843d ee40 04bd
00000080: fff1 8c3d ead0 9dbd 5b19 603e e89f dcbd
00000090: 8dcd 72bd d48e f23d 2935 033e 8ab3 8c3e
000000a0: be6c 73bd 1dc8 fe3d 4188 f13d ebea df3d
000000b0: 8888 b4bd 6de7 d43e f114 04be d826 e23d
000000c0: 7ff0 9cbd 43e7 973e e29e e8bc 777a ba3e
000000d0: 2f1a b1bc bad2 a4bd 4065 563e a320 e53d
000000e0: 32e1 c23d 6f41 193c 58bc 1a3e bf61 743e
000000f0: dacc 54bc 3762 d53d 476a 9a3c 1bc2 f83d
00000100: b8ed f83d 1370 043e 14ca 73be 4d8f 733d
00000110: efee 81bc 4d9c ef3c 2bae 883e 5033 f2bd
00000120: 36a9 953d b45c fd3c bc5d 64bd cba6 bd3d
00000130: 3d0b 073d 551a cd3d c8b6 903d 29d9 813d
00000140: ef70 1c3e e564 293e 54af 61bd 8e23 de3d
00000150: 5701 fb3d abcb ea3e cee5 2f3b 6b84 1fbe
00000160: d41a 263e f9c7 303e 0533 cf39 a4e9 1b3e
00000170: 6689 b13d c781 633c 0f9f ba3d 7c4a 2e3e
00000180: e3cc d53d 8636 9c3e f436 65be c2c3 cf3d
00000190: b2a3 73bd c9ee 293d c660 5cbd a7c5 95bd
000001a0: aa30 313e 5216 b237 511e cf3e 3bd6 41bd
000001b0: 1e3e 87bd a9ca a43d ab5e 5a3d 1acf 58be
000001c0: 93d3 623e df28 0ebe 849c cb3d 24cb 60bd
000001d0: d731 413d 9c29 1d3e e159 353d cc58 43bc
000001e0: 6281 9f3e 5896 373e 2475 823d 6fd1 263e
000001f0: dd26 62bd f1a1 ab3e 8d87 2c3d f38e c03e
00000200: cfdc 2bbd c91c 643d 3797 583e 7130 813d
00000210: fcd5 fbbd bb34 8b3e 10a5 873c 44e9 ffbd
00000220: bf7c 9abc ec1a a6bd 0d5d 1fbe c83b 6d3d
00000230: 80c1 d33d 5826 da3d c070 243d ae7f 14be
00000240: d8a1 85bd f030 0c3e 6849 d73d ce14 54be
00000250: 214b 04be 6fc6 573d 9014 b7bd 6878 373e
00000260: 1b11 a83e ae2a 12be edda 4e3c e712 8c3d
00000270: 7955 433e dd96 42be eda3 313e 06f1 073e
00000280: 19cf 213e f406 013e 2550 cc3d ffa4 043d
00000290: 7cff df3d db96 a4bd 1ce5 30be dbea 8e3c
000002a0: f2c1 6dbe 2d4b 24bd f850 363e 8b41 a2bd
000002b0: 5885 bf3e 2b99 b73e 7e53 9ebd d9e6 15bd
000002c0: fe0f e63e 62f7 8b3e 4111 f43d 2af3 b23c
000002d0: 30aa ae3e b1cc 5b3e d4ad 9d3b a681 3abe
000002e0: 64e8 61bd 7697 ffbc c60c 2cbd 50c1 6bbd
000002f0: 8b9e 2f3e 1713 613e c534 303e ed5c 553e
00000300: 631a 8e3d 85e5 2b3e 682d 17be 0193 763e
00000310: 74b4 383d 0e9b 3fbe dadc 1cbe 7456 083c
00000320: 4566 c3bd 6614 6b3e 42c7 933e 5eb5 ae3d
00000330: e086 453d 12d0 213e 186d bb3d b528 43bd
00000340: 361e 5a3e 7b66 e7bd eb83 9fbd 33a7 bc3e
00000350: 3e69 133e a2b1 2e3d 9d12 67bd b7f5 f83d
00000360: ae65 ed3d 3127 a23d 8dd9 d13c 9f48 dc3d
00000370: 2bcf 0cbc 180b ffbc 565b 3f3e 93f4 343e
00000380: b45a 833e 8e95 bbbd 46a7 063e d0e6 2c3e
00000390: 70a5 5b3e 750b 763d 9680 16be fc99 38bb
000003a0: 25f7 acbd 5b2f 06bd ce10 193e c1b0 343e
000003b0: 4ef6 42bd a183 f1bb 0869 403e f888 c7bd
000003c0: 4e2b 633d a823 3abe 1a6f f5bc f249 c33c
000003d0: 62b4 a73e dd91 bb3d 203b 4abe 3624 a73e
000003e0: b1bc 123e ebec 8e3e 9d04 ea3d 1b0d 863e
000003f0: c304 af3d 2d08 5f3d 8104 81bd e0c6 283e

encoder.4.bias f4 [128]
0.057311133 -0.0058409236 -0.032013707 0.044466216 -0.052390218 0.049143974 0.05168204 0.03283981
-0.043482646 -0.027859434 0.022497272 -0.06162564 0.06039515 -0.052718367 -0.027995069 0.054562546
-0.037049923 -0.0019810768 -0.0068346253 0.011792602 -0.0619813 0.0034843395 0.059649415 -0.0001284498
0.057310436 0.046151776 0.05398644 -0.058967184 0.033689532 -0.04217129 0.032546636 0.012391601
-0.013319444 -0.052999698 0.031233082 -0.02687869 0.03950408 0.020139348 -0.027859729 0.026225127
-0.055011194 0.025509462 0.041825097 -0.061230037 -0.024518074 0.009406142 0.060207 0.0012617284
0.010895121 0.043989033 0.048306454 -0.025701731 0.04094883 0.040129118 -0.02253859 -0.018412134
-0.018407496 -0.057800353 -0.0505598 -0.042065483 0.062347956 0.05852211 -0.035660103 -0.0050300965
0.04733131 -0.03041469 -0.03497499 -0.010017504 -0.044155087 -0.02181362 0.03682374 -0.05270639
-0.031621292 -0.013204297 -0.05066879 0.032066833 -0.015477961 -0.00033779503 0.0469192 0.03906087
-0.010162014 -0.025498133 0.03728617 -0.032593742 0.00099438 -0.018938258 0.06164757 0.061276324
0.032014225 -0.034510437 -0.05016271 -0.0008787243 -0.03791037 0.03687943 -0.060141973 0.056347728
0.051199097 -0.044778544 0.010548249 0.05332065 -0.00812751 -0.015632963 -0.014194417 0.05979996
-0.03722383 0.0035288015 0.049415555 -0.047312908 -0.019032253 0.040202316 -0.04318606 -0.061472964
0.03588163 -0.03621778 -0.04898979 -0.0052941474 -0.007794697 0.054218546 0.047515947 0.004185563
0.027961409 0.0030013458 -0.024966387 -0.014368195 0.0016658049 0.016716627 0.03666262 0.018869799
00000000: 14bf 6a3d 3865 bfbb ce20 03bd 3522 363d
00000010: 2097 56bd 314b 493d 8cb0 533d 0983 063d
00000020: dc1a 32bd 7839 e4bc 334c b83c 2b6b 7cbd
00000030: e860 773d 37ef 57bd ea55 e5bc fa7c 5f3d
00000040: a9c1 17bd f4d4 01bb fef4 dfbb c235 413c
00000050: 1be0 7dbd 8459 643b f252 743d 7bb0 06b9
00000060: 59be 6a3d a509 3d3d e320 5d3d 9387 71bd
00000070: 09fe 093d cdbb 2cbd 9f4f 053d 2406 4b3c
00000080: cc39 5abc 3616 59bd 85dc ff3c b330 dcbc
00000090: 08cf 213d 46fb a43c 163a e4bc 14d6 d63c
000000a0: 6b53 61bd 38f9 d03c cb50 2b3d 59cc 7abd
000000b0: 21da c8bc 381c 1a3c 9d9b 763d 9460 a53a
000000c0: 7381 323c d82d 343d fddc 453d 708c d2bc
000000d0: f6b9 273d 6e5e 243d d9a2 b8bc 0bd5 96bc
000000e0: 51cb 96bc 10c0 6cbd cb17 4fbd db4c 2cbd
000000f0: 9260 7f3d e1b4 6f3d 5410 12bd 82d3 a4bb
00000100: 7ade 413d 3a28 f9bc ef41 0fbd 7520 24bc
00000110: f7db 34bd 7ab2 b2bc 7dd4 163d a8e2 57bd
00000120: 5485 01bd d656 58bc 148a 4fbd 8358 033d
00000130: 4697 7dbc 151a b1b9 592e 403d 4afe 1f3d
00000140: 937e 26bc 76e1 d0bc 62b9 183d 0481 05bd
00000150: db55 823a 6824 9bbc 2a82 7c3d e2fc 7a3d
00000160: 5921 033d d15a 0dbd 6a77 4dbd 315a 66ba
00000170: e747 1bbd e30e 173d 6e57 76bd e0cc 663d
00000180: 25b6 513d b569 37bd 90d2 2c3c c166 5a3d
00000190: 3f29 05bc b310 80bc b38f 68bc cef0 743d
000001a0: 0478 18bd 7743 673b f767 4a3d 2ecb 41bd
000001b0: 87e9 9bbc 2fab 243d dee3 30bd 13cb 7bbd
000001c0: 9ef8 123d 1859 14bd 85a9 48bd 877a adbb
000001d0: a86a ffbb 4414 5e3d 15a0 423d 0c27 893b
000001e0: 530f e53c 3ab2 443b 4f86 ccbc 9468 6bbc
000001f0: 2357 da3a 4ff1 883c 8b2b 163d d694 9a3c

encoder.5.weight f4 [128]
1.184069 1.0952412 0.9878141 1.1888225 0.9794844 1.1146256 0.9819412 0.9793245
1.0156084 1.0440232 0.98246264 1.0565144 1.150159 1.2090188 1.0097204 1.1600299
1.0491382 0.9926259 1.0080539 0.96461934 0.99435395 1.1975052 1.0253328 1.051824
1.0177429 0.9807439 0.95947754 0.99651086 1.1467309 1.0476226 0.74072695 1.047266
1.1296451 1.0968904 1.0591544 1.055113 0.9062107 1.0593854 0.88415766 0.9114081
0.97422457 0.9084878 1.0239768 1.0465893 0.96677154 1.2301012 1.0034258 1.0124415
1.0852529 1.0487715 0.9042373 1.1612732 1.1231726 0.9959848 1.0030395 1.0291284
0.9743133 1.0264028 1.180123 0.98257244 1.0030109 1.0094962 0.9669892 1.1485162
0.94915146 0.90519816 0.93219525 1.0359031 1.0166513 0.995 0.9779489 1.0159314
1.0484779 1.0485976 1.1004733 1.0796522 0.98481756 1.0641154 1.1092638 1.0490339
0.86400896 1.1301867 1.0645664 1.0285491 0.9612171 0.9703279 1.123491 0.98043317
1.0486232 0.9543183 1.0197692 0.9831884 1.0661443 1.0141461 1.001547 1.218846
0.9149016 1.0450698 0.9087175 0.9914774 0.98162466 1.034197 1.2211643 1.0788466
1.0003351 1.1160161 1.1096553 0.97211456 0.9940099 0.9738674 1.0645984 0.9733253
1.019006 0.94890785 1.146049 1.1676064 1.0591063 0.99043345 1.015762 1.1863028
1.0319074 0.7862953 1.0475916 0.9756722 0.9991677 1.070105 1.0202248 0.97278845
00000000: 938f 973f dd30 8c3f 63e1 7c3f 562b 983f
00000010: 7dbf 7a3f 0dac 8e3f 8060 7b3f 03b5 7a3f
00000020: 75ff 813f 8da2 853f ac82 7b3f dd3b 873f
00000030: 6938 933f 21c1 9a3f 853e 813f dc7b 943f
00000040: 294a 863f bb1c 7e3f e907 813f 4bf1 763f
00000050: fb8d 7e3f da47 993f 1b3e 833f 2ba2 863f
00000060: 6645 823f 0812 7b3f 52a0 753f 561b 7f3f
00000070: 14c8 923f 7f18 863f 48a0 3d3f d00c 863f
00000080: 3698 903f e866 8c3f 5f92 873f f10d 873f
00000090: 6dfd 673f f199 873f 2858 623f 0b52 693f
000000a0: c866 793f a892 683f ac11 833f a3f6 853f
000000b0: 577e 773f f573 9d3f 4270 803f af97 813f
000000c0: 91e9 8a3f 253e 863f 187c 673f 9aa4 943f
000000d0: 1fc4 8f3f dcf8 7e3f 9963 803f 7bba 833f
000000e0: 996c 793f 2b61 833f 450e 973f de89 7b3f
000000f0: a962 803f 2c37 813f 9b8c 773f 9402 933f
00000100: 97fb 723f 11bb 673f 59a4 6e3f 7998 843f
00000110: a121 823f 52b8 7e3f dc5a 7a3f 0a0a 823f
00000120: 8634 863f 7238 863f 4fdc 8c3f 0b32 8a3f
00000130: 011d 7c3f ef34 883f 5bfc 8d3f be46 863f
00000140: b12f 5d3f f5a9 903f b643 883f 7fa7 833f
00000150: 5312 763f 6967 783f 8ece 8f3f abfd 7a3f
00000160: 4939 863f 344e 743f cc87 823f 3cb2 7b3f
00000170: 6b77 883f 8acf 813f b132 803f 2503 9c3f
00000180: fe36 6a3f d9c4 853f b6a1 683f 76d1 7d3f
00000190: c14b 7b3f 9160 843f 1d4f 9c3f a517 8a3f
000001a0: fb0a 803f 9ed9 8e3f 2f09 8e3f 80dc 783f
000001b0: 6f77 7e3f 604f 793f c344 883f d92b 793f
000001c0: ca6e 823f a0eb 723f bcb1 923f 2074 953f
000001d0: cc90 873f 0c8d 7d3f 7d04 823f c5d8 973f
000001e0: 8b15 843f a64a 493f 7b17 863f a7c5 793f
000001f0: 74c9 7f3f 33f9 883f ba96 823f aa08 793f
